saved_models/burger/model_139.pt (torch, 328856 bytes, 7 tensors)

layers.0.weight f4 [200, 3]
-0.07608201 0.070175216 -0.024081383 -0.018628618 -0.11121661 0.0096941115 -0.011453153 0.17889652
-0.012137906 0.0033098175 -0.20701468 -0.012911289 -0.05817942 -0.0980671 -0.014900331 0.014507806
0.12526794 0.0105684865 -0.019565854 -0.08584657 -0.002654619 -0.06397159 0.07499494 -0.013168143
0.0018641535 0.1504781 0.009127449 -0.027180389 -0.10239115 -0.008435239 -0.044720855 0.38710538
-0.09130504 0.038964715 -0.017179864 -0.08552648 -0.08870004 0.13879853 0.015693208 -0.14426385
0.07962826 -0.03330474 -0.060146056 -0.2926124 -0.013812393 -0.051515557 0.18202646 -0.015042728
-0.021934088 -0.09025371 0.07336768 -0.014096945 0.19025886 -0.014106703 0.035056677 -0.21320513
-0.01098714 -0.06525092 0.026033849 0.0016890088 -0.017777616 0.18453653 -0.011718217 0.0077814413
0.21793056 -0.01062446 0.03376521 0.12270539 0.022830619 -0.0032011874 -0.16649835 -0.028103203
0.08932153 0.23344834 0.07637336 -0.066805914 -0.004873093 0.0005866908 -0.038239934 -0.8818528
-0.06869368 -0.11237408 0.40185812 -0.10789179 -0.028732797 -0.08428455 -0.009313193 -0.12458435
0.058421966 -0.013669452 0.073824264 0.11116948 0.06243741 0.03797325 -0.78643423 -0.020134417
-0.045655683 0.18371691 -0.017561065 -0.014322684 0.79813725 0.1042591 -0.06491079 0.0142929675
-0.005506162 -0.07478231 -0.16709577 -0.023736397 -0.10623792 0.12529655 -0.018121732 0.04063019
-0.28089637 0.3430833 -0.007459583 -0.17349365 -0.015969604 0.0006237759 0.14774965 0.011944477
-0.10304228 0.12842898 -0.02019716 -0.012370763 -0.62444305 -0.044535514 -0.011517059 -0.20079648
-0.014946415 -0.021986717 -0.097547114 -0.012639352 -0.07185253 -0.142098 0.018071357 -0.3429495
0.22514355 0.012590968 0.018223012 0.35171035 0.0005739453 0.0005413082 0.21850833 -0.011013961
-0.043948025 -0.18503952 -0.004614583 -0.047231074 0.0023424448 -0.0053066695 -0.020427037 -0.17111884
-0.0138320215 -0.08148124 0.17939347 -0.014696186 0.017330265 -0.2209888 -0.010174081 -0.027287725
-0.09259539 -0.011393521 0.006486123 -0.31625316 -0.0062779416 0.013404484 -0.14952226 0.012363901
-0.12675406 0.01986951 -0.011500666 -0.088838466 0.1323016 0.013331165 -0.0064922306 0.12585582
0.011329652 -0.060369376 0.006387395 -0.010584606 -0.06307365 0.056174252 -0.00770333 -0.0063973414
0.117931426 0.0036794182 -0.2599105 -0.18250877 -0.06847761 0.0031325552 0.39293453 -0.020086125
-0.066912256 0.004783882 -0.0009723769 -0.005454763 -0.1692913 -0.016344627 -0.07667856 -0.005972623
-0.019677201 -0.019383682 -0.23880753 -0.009891313 -0.06951327 0.11842961 -0.012551014 0.01734441
0.2016207 -0.012396166 0.008597974 -0.14515075 0.012671843 -0.06806903 0.0725308 -0.0046868576
-0.029270047 -0.13946162 -0.009240112 -0.06805861 0.0035506363 -0.011859852 -0.06289181 0.0067988154
-0.0044861413 0.003297483 -0.21900702 -0.009656059 -0.023230284 -0.10435717 -0.01732089 0.117165126
0.17802687 -0.008935444 0.0457343 -0.1984121 -0.01497823 -0.015823083 -0.11639731 0.013295375
-0.0017915233 0.21683367 -0.010651805 -0.10479173 0.07450448 -0.01933956 -0.0030961458 -0.20163219
-0.013823937 -0.027671644 -0.10400925 -0.00914456 0.37316447 -0.13556342 0.031932153 -0.061663385
00000000: e3d0 9bbd 06b8 8f3d 5246 c5bc 0b9b 98bc
00000010: 89c5 e3bd 0dd4 1e3c 01a6 3bbc a630 373e
00000020: 11de 46bc 86e9 583b a8fb 53be df89 53bc
00000030: 8b4d 6ebd 67d7 c8bd 8520 74bc 26b2 6d3c
00000040: 3d46 003e 7227 2d3c 9248 a0bc 54d0 afbd
00000050: 1ef9 2dbb 8903 83bd f296 993d 32bf 57bc
00000060: 9d56 f43a ee16 1a3e 4c8b 153c 68a9 debc
00000070: 74b2 d1bd f533 0abc 372d 37bd ad32 c63e
00000080: 23fe babd 7799 1f3d c9bc 8cbc 8228 afbd
00000090: 5ea8 b5bd 3421 0e3e 0b8f 803c e7b9 13be
000000a0: 2414 a33d 8d6a 08bd b65b 76bd 4bd1 95be
000000b0: 604d 62bc fa01 53bd 2565 3a3e c675 76bc
000000c0: 1eaf b3bc f0d6 b8bd cb41 963d dff6 66bc
000000d0: 38d3 423e cd1f 67bc 9797 0f3d 7252 5abe
000000e0: 6803 34bc 46a2 85bd f044 d53c bb61 dd3a
000000f0: 5da2 91bc 25f7 3c3e c4fd 3fbc 76fb fe3b
00000100: 3029 5f3e 3712 2ebc 644d 0a3d f74c fb3d
00000110: 4707 bb3c 03cb 51bb 8b7e 2abe b038 e6bc
00000120: 35ee b63d 150d 6f3e a369 9c3d 8ad1 88bd
00000130: 78ae 9fbb 27cc 193a 7aa1 1cbd 1bc1 61bf
00000140: 46af 8cbd 6224 e6bd 59c0 cd3e 5ff6 dcbd
00000150: 0b61 ebbc 619d acbd 5d96 18bc 1426 ffbd
00000160: df4b 6f3d d6f5 5fbc 2d31 973d d3ac e33d
00000170: 5fbe 7f3d d789 1b3d c153 49bf eff0 a4bc
00000180: 7401 3bbd 4920 3c3e 39dc 8fbc b1a9 6abc
00000190: b952 4c3f cc85 d53d f3ef 84bd 0d2d 6a3c
000001a0: 096d b4bb 7827 99bd 271b 2bbe d572 c2bc
000001b0: 4493 d9bd bd4d 003e 0774 94bc d86b 263d
000001c0: a6d1 8fbe 9da8 af3e 856f f4bb 52a8 31be
000001d0: b0d2 82bc e484 233a af4b 173e c5b2 433c
000001e0: d507 d3bd e382 033e 8474 a5bc beae 4abc
000001f0: 80db 1fbf df6a 36bd 0cb2 3cbc 989d 4dbe
00000200: cfe1 74bc 7d1d b4bc c8c6 c7bd 4915 4fbc
00000210: 6b27 93bd 2382 11be 620a 943c 1497 afbe
00000220: 088c 663e 594a 4e3c 6d48 953c 6113 b43e
00000230: d174 163a 94e6 0d3a a6c0 5f3e e773 34bc
00000240: d802 34bd 007b 3dbe ee35 97bb 5f75 41bd
00000250: b483 193b 92e3 adbb 9a56 a7bc c739 2fbe
00000260: b49f 62bc a3df a6bd ecb2 373e 46c8 70bc
00000270: 33f8 8d3c e34a 62be 30b1 26bc 828a dfbc
00000280: a7a2 bdbd e4ab 3abc 8b89 d43b efeb a1be
00000290: 31b7 cdbb 7b9e 5b3c 5d1c 19be f691 4a3c
000002a0: d1cb 01be 62c5 a23c 4a6d 3cbc f1f0 b5bd
000002b0: 127a 073e f56a 5a3c c7bc d4bb 59e0 003e
000002c0: 01a0 393c e145 77bd 5a4d d13b 0e6b 2dbc
000002d0: c22c 81bd f916 663d 376c fcbb caa0 d1bb
000002e0: 0886 f13d 6522 713b fd12 85be 94e3 3abe
000002f0: fd3d 8cbd 8e4b 4d3b b72e c93e a88b a4bc
00000300: 4b09 89bd 1cc2 9c3b 1ce7 7eba debd b2bb
00000310: b35a 2dbe 2be5 85bc a609 9dbd feb5 c3bb
00000320: 1532 a1bc 87ca 9ebc f689 74be 2c0f 22bc
00000330: f95c 8ebd 398b f23d c5a2 4dbc dd15 8e3c
00000340: a875 4e3e 4a19 4bbc 84de 0c3c 66a2 14be
00000350: 909d 4f3c c767 8bbd 078b 943d 3694 99bb
00000360: bdc7 efbc 07cf 0ebe d763 17bc 5062 8bbd
00000370: cbb1 683b d34f 42bc 6ccd 80bd 99c8 de3b
00000380: 7b00 93bb 961a 583b 6043 60be 7234 1ebc
00000390: 704d bebc 36b9 d5bd 8ae4 8dbc 45f4 ef3d
000003a0: ad4c 363e f865 12bc e453 3b3d 8b2c 4bbe
000003b0: 4067 75bc 699f 81bc b661 eebd d8d4 593c
000003c0: 8cd1 eaba a509 5e3e e984 2ebc 0c9d d6bd
000003d0: ce95 983d ff6d 9ebc b5e8 4abb ab78 4ebe
000003e0: cb7d 62bc a5af e2bc cd02 d5bd 11d3 15bc
000003f0: 6a0f bf3e 23d1 0abe 4acb 023d bf92 7cbd

layers.0.bias f4 [200]
-1.5369495 -0.9210943 0.9332446 1.591539 -1.3190355 -0.82022226 0.044775967 -0.5906549
-1.0290569 -0.3876621 -1.8710917 -2.5449545 -0.05658027 -0.5552124 1.3780036 1.0934521
1.2217553 1.0799805 1.8845258 -1.8060007 0.8324273 2.043462 1.2677004 -0.20043133
0.05018649 -1.9788485 1.6328884 0.2214134 -0.68415713 -0.78032786 1.7446812 1.4334277
1.0280443 -1.1825799 -10.996636 0.35577658 -0.061627544 -0.6641185 0.5572418 0.84570014
0.080121286 1.2566575 1.3763417 -0.19366513 -1.5666513 0.9404041 -1.269115 2.0794086
-1.9835784 -8.812116 0.64385796 0.4408412 1.9606496 -0.8027635 -1.8916912 -1.2656672
-0.0053684646 -0.03463045 -0.86152685 -7.4590297 -0.4916288 -0.3161005 0.83799744 -1.6465659
-12.905858 0.738639 -0.43446013 1.7771276 -0.4148722 1.6404656 -1.354619 -0.5580661
-1.3530842 -5.065826 -3.6268973 1.8239405 -0.22074436 1.0247481 1.5227965 -0.97816
2.0414798 -1.395542 1.3518677 -0.85079926 1.4811504 -1.0598216 -6.3455405 -0.37860352
1.3237287 1.2801627 -2.894131 -13.583456 1.7101483 1.6914117 -0.46246785 -1.3029232
1.1427553 -0.0044155647 -0.91026527 -0.01407216 -3.2414942 1.1537199 -1.4654783 1.5647945
-0.42397738 0.9938174 0.28345665 2.03316 0.5557131 1.6533358 -1.4938245 -0.334419
-0.89961916 -5.8919992 1.841704 0.5726657 -0.5159708 1.0716721 1.7126281 2.0037591
-6.7607117 0.3017539 0.8722776 -1.6849742 -2.1892908 -0.82705265 1.6281227 -1.6613485
1.0867049 -0.3092557 0.6049041 -0.634154 -0.46422404 1.5153387 -1.8779408 -0.35037586
0.877906 -1.7757303 0.23403087 -1.293812 -1.8841139 0.7587678 1.7334328 -0.36906937
0.39087638 1.2011129 1.4708397 -1.4228548 -0.4955923 -13.577452 0.09540106 0.52020264
1.4274318 1.9373842 1.1859132 1.3608282 -1.1796101 1.8607426 0.5192118 -0.48132938
-7.006252 1.735926 0.21966888 1.1271652 0.5355353 0.21687542 1.5657713 1.8398169
-0.807335 0.0014662758 1.5892138 -1.0529861 1.2329508 1.3873285 1.5968391 -1.546978
1.4025683 -12.473493 -0.40898353 -1.5029216 -1.1268599 1.3338921 -3.6367526 -0.14582324
-0.31167397 -0.20940953 -12.868648 -1.7563789 -1.2795794 -0.7478974 1.2625048 0.33862767
-0.3721898 0.52095014 -0.022428546 -0.40257618 0.9975678 -1.6446903 0.6372754 1.4964538
00000000: c3ba c4bf d6cc 6bbf 1ee9 6e3f 8db7 cb3f
00000010: 28d6 a8bf 16fa 51bf 0167 373d 2935 17bf
00000020: 23b8 83bf a67b c6be ef7f efbf 89e0 22c0
00000030: b7c0 67bd 6622 0ebf 6c62 b03f 3df6 8b3f
00000040: 7a62 9c3f cd3c 8a3f 2438 f13f 082b e7bf
00000050: f519 553f 15c8 0240 0244 a23f df3d 4dbe
00000060: 5990 4d3d e84a fdbf 7d02 d13f 32ba 623e
00000070: ec24 2fbf 91c3 47bf b751 df3f 8f7a b73f
00000080: f596 833f c75e 97bf 39f2 2fc1 5928 b63e
00000090: 2a6d 7cbd ac03 2abf 66a7 0e3f ce7f 583f
000000a0: a116 a43d 27da a03f f72b b03f 2750 46be
000000b0: 0888 c8bf 53be 703f 5c72 a2bf 0815 0540
000000c0: e6e5 fdbf 6dfe 0cc1 e0d3 243f f0b5 e13e
000000d0: 91f6 fa3f e981 4dbf f022 f2bf 6201 a2bf
000000e0: f2e9 afbb a9d8 0dbd 068d 5cbf 5fb0 eec0
000000f0: c5b6 fbbe edd7 a1be 0087 563f acc2 d2bf
00000100: 657e 4ec1 7217 3d3f 8f71 debe eb78 e33f
00000110: 216a d4be c7fa d13f 2864 adbf 6cdd 0ebf
00000120: dd31 adbf 3f1b a2c0 161f 68c0 e276 e93f
00000130: cf0a 62be f22a 833f ffea c23f b268 7abf
00000140: 9ba7 0240 1fa1 b2bf 000a ad3f fbcd 59bf
00000150: 5696 bd3f 3ca8 87bf ab0e cbc0 52d8 c1be
00000160: f16f a93f 5fdc a33f 7139 39c0 d655 59c1
00000170: 24e6 da3f 2e80 d83f 96c8 ecbe 30c6 a6bf
00000180: ce45 923f 71b0 90bb 2507 69bf eb8e 66bc
00000190: a474 4fc0 18ad 933f cb94 bbbf 304b c83f
000001a0: 9013 d9be d16a 7e3f 3b21 913e 4b1f 0240
000001b0: 3743 0e3f 82a0 d33f a435 bfbf f838 abbe
000001c0: 714d 66bf 428b bcc0 f5bc eb3f 389a 123f
000001d0: aa16 04bf 8d2c 893f 6637 db3f 973d 0040
000001e0: c057 d8c0 7d7f 9a3e 964d 5f3f 3cad d7bf
000001f0: 571d 0cc0 b9b9 53bf 5366 d03f 11a7 d4bf
00000200: 2519 8b3f c356 9ebe ffda 1a3f eb57 22bf
00000210: c6ae edbe 9ef6 c13f 5d60 f0bf 7764 b3be
00000220: 73be 603f 214b e3bf caa5 6f3e a29b a5bf
00000230: a52a f1bf 9b3e 423f 20e1 dd3f a9f6 bcbe
00000240: f320 c83e 11be 993f 7a44 bc3f 1b20 b6bf
00000250: 46be fdbe 3e3d 59c1 a261 c33d 002c 053f
00000260: 16b6 b63f 35fc f73f 01cc 973f 9e2f ae3f
00000270: 77fd 96bf d02c ee3f 11eb 043f ce70 f6be
00000280: 3733 e0c0 d332 de3f e1f0 603e f346 903f
00000290: d718 093f 9714 5e3e 326b c83f 1f7f eb3f
000002a0: 82ad 4ebf 0d30 c03a 5c6b cb3f 40c8 86bf
000002b0: 55d1 9d3f fb93 b13f 3965 cc3f 6003 c6bf
000002c0: 5c87 b33f 6d93 47c1 4a66 d1be bc5f c0bf
000002d0: f23c 90bf fabc aa3f 8ec0 68c0 b052 15be
000002e0: bb93 9fbe 746f 56be fbe5 4dc1 06d1 e0bf
000002f0: 42c9 a3bf 3476 3fbf c299 a13f 9b60 ad3e
00000300: a98f bebe fd5c 053f 12bc b7bc 771e cebe
00000310: 9a60 7f3f 3685 d2bf 7b24 233f cc8b bf3f

layers.2.0.weight f4 [200, 200]
-0.009704899 -0.73580027 -0.044685047 -1.041275 -0.6812392 0.111926675 -0.55217946 -0.14764218
-0.049609162 -0.9333217 -0.11952828 -0.08588901 -0.069694534 -0.116953455 -0.86671054 -0.05984787
-0.34609094 -0.010730076 -1.0254037 -0.27438188 -0.07278584 -0.20024274 -0.22580747 -0.555995
-0.15108816 -0.11762068 -0.1725707 -0.113866866 -0.5942042 -0.091078594 -0.20915307 -0.37888095
-0.13843031 -0.13979898 -0.18024021 -0.51452893 -0.06364438 -0.15433191 -0.9055176 -0.14795548
-0.08264469 -0.63294697 -1.1340286 -0.6962511 -0.29685578 -0.24927646 -0.08117664 -0.13676141
-0.35883996 -0.11242825 -1.0521415 -0.10723724 -1.2743405 -0.68524027 -0.660435 -0.48879302
-0.24644841 -0.11483689 0.07272133 -0.22304076 -0.10879049 0.11816485 -0.161831 -0.053547073
-0.05891146 -0.8843174 -0.28265834 -1.1083783 -0.050650045 -0.08581203 -0.57320243 -0.18335536
-0.52578807 -0.1958518 -0.14010532 -1.21708 -0.70794153 -0.09826826 -0.5030712 -0.6039356
-0.2314899 -0.110962175 -1.0299647 -0.6949336 -0.23737785 -0.4615292 -0.08329297 -0.14629422
-0.9041046 0.0047593173 0.0033269892 -0.004515841 -0.92570657 -0.29923975 -0.015262974 -0.11453727
-0.4127514 -0.014044371 -0.29580626 -0.098906964 -0.040883433 -0.08184432 0.2346693 -1.2491273
-0.29893827 -0.8551763 -0.09533657 -1.4008032 -0.10591483 -0.24021733 -0.30360082 -0.30410117
-0.09254367 -0.040416326 -0.16720441 -0.088862136 -0.16880158 -0.2423649 -0.15472762 -1.2139417
-0.12694286 -0.15629642 -0.8165833 -0.24763846 -0.123262495 -0.21336009 -0.23025689 -0.062080927
-0.05426039 -0.10545837 -0.49741644 -0.1395218 -0.2589337 -0.061224055 0.053044833 -0.14678083
-0.099088274 0.12223877 -0.64161295 -0.17073083 -0.6241415 -0.104568586 -1.275178 -0.38903433
-0.13160615 -0.18449059 -0.2400618 -0.48502466 -0.053939432 -0.13695066 -0.20187536 -0.27185082
-0.18867314 -2.292898 -0.86778677 -0.12945546 -0.56699544 -0.20514423 -0.10993121 -0.18897471
-0.20154272 -0.27770913 0.059420474 -1.0327424 -0.28553188 -0.5897284 -0.117900796 -0.25846273
-0.14618239 -0.07943088 -0.13122545 0.12279865 -0.2240664 -0.1000835 -1.7477 0.0876374
-0.28490302 -0.055468068 -0.30762774 -0.63017553 -0.01720561 -0.36340255 -0.15279278 -0.19041184
-0.28471568 -0.7972397 -0.16034527 -0.52534693 -0.10552656 -0.008665009 -0.1436954 -0.15313631
-0.45066613 -0.15039119 -0.02118518 -0.014664626 -0.13108818 -0.28914633 -0.15372804 -0.18604703
-0.057449657 -0.718805 -0.09782936 -1.0116782 -0.73033637 0.08861466 -0.66302 -0.13587184
-0.08832721 -0.99890584 -0.08949658 -0.026197061 -0.053110622 -0.1157874 -0.42557868 -0.050567806
-0.25878596 -0.06587448 -0.9635845 -0.36641335 -0.10071507 -0.21542762 -0.29753482 -0.24422511
-0.12753625 -0.16989489 -0.15820454 -0.062663294 -0.63040954 -0.064405635 -0.1708992 0.05667198
-0.14763273 -0.13552015 -0.14309293 -0.5055919 -0.14031352 -0.16147605 -0.84968245 -0.11709005
-0.1191692 -0.13468973 -1.1733834 -0.77209073 -0.2674677 -0.22461063 -0.05649287 -0.14765842
-0.37446788 -0.085559174 -1.0849767 -0.19614413 -1.104 -0.6011328 -0.57417566 -0.37892893
00000000: 4c01 1fbc 685d 3cbf ab07 37bd 8048 85bf
00000010: b165 2ebf d039 e53d a25b 0dbf 832f 17be
00000020: fa32 4bbd 2cee 6ebf 3ecb f4bd 94e6 afbd
00000030: 02bc 8ebd 4b85 efbd bee0 5dbf 0a23 75bd
00000040: d532 b1be 33cd 2fbc 6e40 83bf c87b 8cbe
00000050: be10 95bd 6f0c 4dbe 133a 67be b055 0ebf
00000060: dbb6 1abe 1ce3 f0bd 60b6 30be 0833 e9bd
00000070: c41d 18bf 6a87 babd 392c 56be affc c1be
00000080: adc0 0dbe 7727 0fbe e490 38be 2bb8 03bf
00000090: fc57 82bd 2f09 1ebe 00d0 67bf a481 17be
000000a0: 9f41 a9bd d008 22bf d927 91bf 833d 32bf
000000b0: 7bfd 97be 5442 7fbe f03f a6bd 2f0b 0cbe
000000c0: dfb9 b7be c840 e6bd 93ac 86bf 339f dbbd
000000d0: 971d a3bf e86b 2fbf 4512 29bf 1443 fabe
000000e0: f95c 7cbe 9a2f ebbd ecee 943d cc64 64be
000000f0: 8ccd debd 6a00 f23d 07b7 25be 2d54 5bbd
00000100: 254d 71bd a062 62bf 98b8 90be 57df 8dbf
00000110: 6c76 4fbd 38be afbd 65bd 12bf 82c1 3bbe
00000120: 0c9a 06bf 608d 48be c577 0fbe 47c9 9bbf
00000130: a83b 35bf df40 c9bd 46c9 00bf 869b 1abf
00000140: b00b 6dbe 2340 e3bd e2d5 83bf 2be7 31bf
00000150: 2e13 73be 8e4d ecbe 8195 aabd 27ce 15be
00000160: 6673 67bf 0cf4 9b3b 9e09 5a3b 9ff9 93bb
00000170: 1bfb 6cbf f435 99be 8e11 7abc 8492 eabd
00000180: 2754 d3be 5d1a 66bc eb73 97be bc8f cabd
00000190: 6375 27bd ff9d a7bd 264d 703e 67e3 9fbf
000001a0: 700e 99be d6ec 5abf d23f c3bd 854d b3bf
000001b0: e0e9 d8bd 88fb 75be 9171 9bbe 26b3 9bbe
000001c0: 8987 bdbd 978b 25bd a237 2bbe 5afd b5bd
000001d0: 52da 2cbe 812e 78be eb70 1ebe 7162 9bbf
000001e0: 4ffd 01be 2b0c 20be 9a0b 51bf f094 7dbe
000001f0: 0c71 fcbd 117b 5abe 76c8 6bbe 9248 7ebd
00000200: 2540 5ebd 8ffa d7bd 5ead febe cede 0ebe
00000210: f592 84be 13c6 7abd 8a45 593d b74d 16be
00000220: cbee cabd 5258 fa3d bf40 24bf 10d4 2ebe
00000230: bdc7 1fbf 0e28 d6bd 0839 a3bf 822f c7be
00000240: c3c3 06be 1aeb 3cbe c3d2 75be 2755 f8be
00000250: 98ef 5cbd cb3c 0cbe 6ab8 4ebe 0830 8bbe
00000260: 8833 41be d7be 12c0 4627 5ebf f98f 04be
00000270: 9d26 11bf 5411 52be 9d23 e1bd 9682 41be
00000280: 3761 4ebe e42f 8ebe e262 733d e730 84bf
00000290: 3c31 92be 71f8 16bf f975 f1bd 3a55 84be
000002a0: d6b0 15be a8ac a2bd f75f 06be dc7d fb3d
000002b0: aa71 65be 94f8 ccbd a2b4 dfbf 3d7b b33d
000002c0: cfde 91be 7c32 63bd 6281 9dbe 2f53 21bf
000002d0: c8f2 8cbc e60f babe b675 1cbe 52fb 42be
000002e0: 41c6 91be e717 4cbf 8d31 24be 237d 06bf
000002f0: 4f1e d8bd aff7 0dbc e324 13be c4cf 1cbe
00000300: b6bd e6be 2600 1abe 8b8c adbc e643 70bc
00000310: fb3b 06be fd0a 94be e26a 1dbe 1d83 3ebe
00000320: 5550 6bbd 9b03 38bf c25a c8bd ac7e 81bf
00000330: 53f7 3abf 9a7b b53d aebb 29bf fd21 0bbe
00000340: e5e4 b4bd 4bb8 7fbf fc49 b7bd 389b d6bc
00000350: 868a 59bd f221 edbd 73e5 d9be 3020 4fbd
00000360: 987f 84be 33e9 86bd 79ad 76bf 889a bbbe
00000370: b443 cebd 0f99 5cbe 7c56 98be 2616 7abe
00000380: dd98 02be edf8 2dbe 5f00 22be 9d55 80bd
00000390: 8562 21bf 1ae7 83bd 3300 2fbe e120 683d
000003a0: 092d 17be cbc5 0abe f486 12be 796e 01bf
000003b0: 59ae 0fbe fa59 25be ca84 59bf e8cc efbd
000003c0: fb0e f4bd 1bec 09be 6d31 96bf bda7 45bf
000003d0: 87f1 88be 5400 66be 1165 67bd c533 17be
000003e0: 41ba bfbe a639 afbd 84e0 8abf 02da 48be
000003f0: df4f 8dbf d7e3 19bf 2dfd 12bf f902 c2be

layers.2.0.bias f4 [200]
-0.14493927 -0.20185393 -0.25094515 -0.14280923 -0.08718996 -0.21168096 -0.2992949 -0.0068063983
-0.0063493703 -0.15791526 -0.16555707 -0.19893658 -0.1464666 -0.045776293 -0.071795575 -0.18720533
-0.1082265 -0.21706122 -0.096149534 -0.17298698 -0.111286245 -0.12804331 0.016707905 -0.030116446
-0.13867289 -0.165723 -0.089908145 -0.27020958 -0.020846276 -0.22222878 -0.1293115 -0.20513296
-0.17649914 -0.19546255 -0.23319922 -0.18629846 -0.12647094 -0.12477358 -0.1312044 0.12508397
-0.09924203 -0.17897126 -0.13131557 -0.21442117 -0.061101858 -0.31034163 -0.19200979 -0.24253304
-0.18558198 -0.1280218 -0.2560301 -0.15071641 -0.107829966 -0.18074135 0.11358755 -0.1883513
0.013197327 -0.14857589 -0.1206134 -0.08737756 -0.24641283 -0.21991573 -0.04565127 -0.12789787
-0.18627681 -0.26958254 -0.07103807 -0.18983378 -0.10743254 -0.09966639 -0.097728446 -0.17210148
-0.07157575 -0.018375998 -0.091257945 -0.16175503 0.17981294 -0.16986583 -0.011903058 -0.12324826
-0.3164889 -0.045620378 -0.21053912 -0.20496857 -0.19223104 -0.015358857 -0.16800101 -0.13064052
0.06756357 -0.17477846 -0.09709483 -0.16169293 -0.21027301 -0.13627109 -0.14993463 -0.03893997
-0.0744332 -0.22312187 0.007506206 -0.2445963 0.0056926776 -0.24382237 -0.19374213 -0.10907583
-0.06021329 -0.15138328 -0.1521922 0.023421597 -0.14178991 -0.17928043 -0.07309425 -0.17928979
-0.0025539484 -0.13367131 -0.11593464 -0.085274674 -0.205047 -0.27215075 -0.15533036 -0.32558715
-0.16166402 -0.15490031 -0.13276456 -0.06426271 -0.12423368 0.057724375 -0.09164995 -0.20128752
-0.02549249 0.11128339 -0.2867855 -0.2582468 -0.22457023 -0.13844863 -0.124352045 -0.15441039
-0.22838792 -0.06389776 -0.07302041 -0.2237136 -0.21901892 -0.25944328 -0.3339184 -0.20606904
-0.06551783 -0.024641529 -0.12523602 0.018602325 -0.06671331 -0.2060399 -0.23296961 -0.17607227
-0.091558725 -0.039153527 -0.24696745 -0.122979954 -0.16035847 -0.026065253 -0.23682287 -0.16052926
-0.19080685 -0.24005818 -0.2612557 -0.100251146 -0.09303375 0.14602886 -0.24910842 -0.118456274
-0.18521638 -0.0959001 -0.16280253 -0.046928618 -0.11777508 -0.25779548 -0.26779044 -0.03726208
-0.14792132 -0.05135557 -0.09473132 0.004952096 -0.21809557 -0.1257917 -0.14576502 -0.06586319
-0.16904944 -0.052597627 -0.19059967 0.044129945 -0.083095625 -0.20872289 -0.24882592 -0.2673362
-0.13189769 0.019991 -0.18145773 -0.2289379 -0.17570744 -0.09734621 -0.09491791 -0.028714586
00000000: f66a 14be ccb2 4ebe e27b 80be 953c 12be
00000010: a690 b2bd e5c2 58be 2e3d 99be 3508 dfbb
00000020: 610e d0bb 8ab4 21be cb87 29be 08b6 4bbe
00000030: 57fb 15be ec7f 3bbd 8f09 93bd c1b2 3fbe
00000040: dba5 ddbd 4c45 5ebe 0cea c4bd 8023 31be
00000050: 0bea e3bd c91d 03be 04df 883c c4b6 f6bc
00000060: 4400 0ebe 4ab3 29be c321 b8bd e958 8abe
00000070: cfc5 aabc f18f 63be 3c6a 04be 600e 52be
00000080: 31bc 34be 5627 48be c7cb 6ebe 06c5 3ebe
00000090: 9981 01be 4a89 ffbd 725a 06be 0316 003e
000000a0: 683f cbbd 3e44 37be 9777 06be 3991 5bbe
000000b0: f145 7abd 19e5 9ebe 379e 44be 955a 78be
000000c0: 3409 3ebe 2618 03be 6116 83be 6755 1abe
000000d0: f5d5 dcbd 4314 39be 97a0 e83d 2adf 40be
000000e0: 9a39 583c 4724 18be 2904 f7bd 02f3 b2bd
000000f0: a553 7cbe 9731 61be d3fc 3abd a9f7 02be
00000100: 59bf 3ebe b906 8abe 687c 91bd c963 42be
00000110: 9705 dcbd e41d ccbd da25 c8bd 5f3b 30be
00000120: 4f96 92bd 4389 96bc 72e5 babd 1ca3 25be
00000130: e220 383e 4ff1 2dbe 0b05 43bc 9569 fcbd
00000140: d50a a2be 6fdc 3abd 9197 57be 48e3 51be
00000150: 37d8 44be b7a3 7bbc 7508 2cbe a1c6 05be
00000160: c55e 8a3d 20f9 32be a7d9 c6bd d592 25be
00000170: cf51 57be a68a 0bbe 7788 19be 857f 1fbd
00000180: 6f70 98bd 0f7a 64be 9ff6 f53b 7477 7abe
00000190: a489 ba3b 92ac 79be 5664 46be 2663 dfbd
000001a0: 36a2 76bd 3804 1bbe 46d8 1bbe a6de bf3c
000001b0: 6031 11be 4a95 37be 70b2 95bd be97 37be
000001c0: 2560 27bb 22e1 08be 246f edbd 7da4 aebd
000001d0: d7f7 51be 5857 8bbe ec0e 1fbe 5cb3 a6be
000001e0: 418b 25be 309e 1ebe 6ff3 07be 2b9c 83bd
000001f0: 3a6e febd 6570 6c3d f8b2 bbbd 511e 4ebe
00000200: a0d5 d0bc 8ce8 e33d 8dd5 92be ed38 84be
00000210: bdf5 65be 7ac5 0dbe 49ac febd c21d 1ebe
00000220: 86de 69be d4dc 82bd ba8b 95bd 2e15 65be
00000230: 7f46 60be c0d5 84be 5af7 aabe c303 53be
00000240: 362e 86bd 08dd c9bc df3d 00be e763 983c
00000250: fda0 88bd 20fc 52be 968f 6ebe 4a4c 34be
00000260: 2483 bbbd 735f 20bd 09e5 7cbe eadc fbbd
00000270: 0335 24be cc86 d5bc b281 72be c861 24be
00000280: df62 43be d0d1 75be 4fc3 85be 7950 cdbd
00000290: 7b88 bebd 9788 153e 4716 7fbe 3499 f2bd
000002a0: 5da9 3dbe 4667 c4bd b5b5 26be 3938 40bd
000002b0: 1034 f1bd c5fd 83be d41b 89be 1fa0 18bd
000002c0: b078 17be 385a 52bd 7f02 c2bd 3145 a23b
000002d0: 7254 5fbe 8acf 00be 6d43 15be 48e3 86bd
000002e0: 4c1b 2dbe 9c70 57bd 8f2c 43be 9ac1 343d
000002f0: 0a2e aabd 74bb 55be 39cc 7ebe 4ae0 88be
00000300: 3010 07be 2ac4 a33c 0ed0 39be b26e 6abe
00000310: a7ec 33be 735d c7bd 5264 c2bd da3a ebbc

layers.3.0.weight f4 [200, 200]
-0.0030352538 0.033962812 0.05285434 0.0717942 0.11483485 0.056099575 0.15707661 0.2545353
-0.18777542 0.17526071 0.058147162 0.12460108 0.0029973367 0.23213579 0.3873768 0.10460897
0.2861868 0.14424124 0.2570868 0.0273679 0.25094262 0.025389088 -0.18135506 0.2600796
-0.10471947 0.014471022 0.14253671 -0.03532608 0.16552909 -0.044764813 -0.051468458 -0.030382533
-0.011857676 0.018412596 0.026477542 -0.02963947 0.1009662 0.032562632 -0.03315804 -0.27714232
0.05766714 -0.05494698 0.39490598 -0.051557623 0.06723059 0.17340484 -0.01831751 0.07121591
0.029022811 0.15566887 -0.0384182 -0.01782075 -0.1327068 -0.011197914 -0.30582628 0.18264635
0.42766193 -1.4136405 0.037354317 0.18858531 0.028067188 0.021044016 0.16756067 0.25253785
-0.048590977 0.04068317 0.38658082 0.16285428 0.3760494 -0.05912224 0.18709947 0.01625778
0.25981116 0.1754276 0.0001990382 0.10659786 -0.2569398 -0.009930602 0.11294005 0.282048
0.06613883 0.031949382 0.047115244 0.07874045 -0.022957284 0.27378702 0.13446979 0.2654809
0.6277131 0.123119764 0.23013955 -0.04110334 0.023559587 -0.06389503 0.12427923 0.2598702
0.27599016 -0.10455664 0.34070984 -0.0287874 0.2770089 0.046131283 0.11331877 0.072224125
0.29882854 0.022083275 -0.064408764 0.5491686 -0.11115866 0.1141302 0.30879945 0.09396495
-0.32430956 0.029958561 0.28623602 0.14709772 -0.03255596 0.010986512 -0.025825089 0.12840317
0.018699374 0.12262573 -0.1182558 0.21117349 0.1422786 0.4671413 0.30109307 0.016823214
0.2801109 -0.28053916 -0.06253942 -0.052023754 0.016660182 0.011806207 0.22043729 -0.018932136
0.029613523 0.20281684 0.11930444 0.033366803 -0.03617807 0.10934866 0.08256606 -0.05819418
0.2785344 0.31543663 0.0023079817 0.2389203 0.18422486 0.06868364 -0.12536849 -0.016475001
0.019421995 0.20300995 -0.044645365 0.18464845 0.03368202 0.3062314 0.03040604 -0.046013694
-0.039188832 -0.01130747 -0.040621415 0.2415129 0.10360897 0.6475462 -0.066698 -0.07306885
0.1681591 0.31860393 0.18628411 0.2712639 0.033856917 0.049893968 0.14904335 0.44980812
0.039565925 0.12438854 -0.015995374 0.33764887 0.088489704 0.094002865 0.0352775 0.1276704
-0.05653058 0.20215078 0.0625969 0.41489607 0.13591556 -0.03763939 -0.039553646 0.01592825
0.07934684 0.30634254 0.07942485 -0.0010217242 0.064731486 0.48690754 0.087459795 0.2710936
-0.3528816 -0.4440419 -0.22794539 -0.21224117 -0.40554553 -0.42482397 -0.13705339 -0.4461102
0.20534274 -0.24265842 -0.328835 -0.24651688 -0.17992088 -0.43950087 -0.38575628 -0.299226
-0.24959625 -0.21843834 -0.45788845 -0.43543524 -0.4157934 -0.15785404 0.24355075 -0.35903594
-0.27264908 -0.13740109 -0.2391809 -0.18399662 -0.46135843 -0.23759256 -0.3162531 -0.349416
-0.13735028 -0.18728252 -0.36474973 -0.18921362 -0.26305628 -0.17818895 -0.29747325 0.22396126
-0.40069667 -0.36607113 -0.31433812 -0.1870047 -0.4015724 -0.18836014 -0.060186163 -0.10683756
-0.19379677 -0.26857993 -0.1351619 -0.18561883 -0.20532952 -0.31476215 0.28865394 -0.31932366
00000000: 1ceb 46bb 971c 0b3d cb7d 583d d608 933d
00000010: 892e eb3d abc8 653d b1d8 203e 7352 823e
00000020: 3348 40be 8b77 333e b82b 6e3d da2e ff3d
00000030: f76e 443b 01b5 6d3e 4056 c63e 3a3d d63d
00000040: 1487 923e fab3 133e e2a0 833e a532 e03c
00000050: 8d7b 803e c7fc cf3c 24b5 39be 2729 853e
00000060: 2977 d6bd de17 6d3c 25f5 113e 14b2 10bd
00000070: 7580 293e 4f5b 37bd 97d0 52bd cae4 f8bc
00000080: b346 42bc 03d6 963c 6ee7 d83c 79ce f2bc
00000090: 5ec7 ce3d 6560 053d bad0 07bd 99e5 8dbe
000000a0: 6134 6c3d 1610 61bd 1e31 ca3e 162e 53bd
000000b0: 31b0 893d 0a91 313e 9a0e 96bc a6d9 913d
000000c0: 3fc1 ed3c a967 1f3e 675c 1dbd d2fc 91bc
000000d0: 4be4 07be 7577 37bc 4395 9cbe a507 3b3e
000000e0: 81f6 da3e 2cf2 b4bf d700 193d 821c 413e
000000f0: 29ed e53c 8064 ac3c 0695 2b3e a44c 813e
00000100: 5507 47bd 65a3 263d eced c53e 46c3 263e
00000110: 8c89 c03e 292a 72bd 0197 3f3e 092f 853c
00000120: f805 853e 4ba3 333e e9b4 5039 fb4f da3d
00000130: 9d8d 83be f7b3 22bc 1d4d e73d 9868 903e
00000140: cb73 873d 5bdd 023d eafb 403d ac42 a13d
00000150: ea10 bcbc d02d 8c3e 73b2 093e 1ded 873e
00000160: ceb1 203f 3726 fc3d b4a9 6b3e fa5b 28bd
00000170: 0900 c13c 66db 82bd 1c86 fe3d b50d 853e
00000180: 954e 8d3e cb21 d6bd 8571 ae3e 8ed3 ebbc
00000190: 1cd4 8d3e 28f4 3c3d ac13 e83d 3eea 933d
000001a0: 0e00 993e fce7 b43c bee8 83bd 5096 0c3f
000001b0: 27a7 e3bd 18bd e93d f61a 9e3e b270 c03d
000001c0: e70b a6be a86b f53c 878d 923e c9a0 163e
000001d0: 6659 05bd c500 343c 238f d3bc 1f7c 033e
000001e0: 6e2f 993c 3323 fb3d 1930 f2bd dd3d 583e
000001f0: 7bb1 113e 252d ef3e df28 9a3e d6d0 893c
00000200: b26a 8f3e d4a2 8fbe ab14 80bd dc16 55bd
00000210: ef7a 883c d26e 413c 50ba 613e 9117 9bbc
00000220: 0f98 f23c 38af 4f3e e355 f43d a1ab 083d
00000230: 752f 14bd 31f2 df3d 6518 a93d 055d 6ebd
00000240: 109c 8e3e e980 a13e 8241 173b 86a7 743e
00000250: 71a5 3c3e 02aa 8c3d 9960 00be 95f6 86bc
00000260: e01a 9f3c d7e1 4f3e 0fde 36bd 7c14 3d3e
00000270: 28f6 093d 5dca 9c3e 1616 f93c db78 3cbd
00000280: 7884 20bd f742 39bc a462 26bd 284f 773e
00000290: f130 d43d 96c5 253f f698 88bd 1fa5 95bd
000002a0: e631 2c3e 0e20 a33e 43c1 3e3e 1ae3 8a3e
000002b0: 8dad 0a3d 9e5d 4c3d d29e 183e 404d e63e
000002c0: e10f 223d 6bbf fe3d bb08 83bc 50e0 ac3e
000002d0: 173a b53d 9384 c03d 247f 103d 08bc 023e
000002e0: 9c8c 67bd 9d00 4f3e ce32 803d 426d d43e
000002f0: 732d 0b3e c32b 1abd 0103 22bd f67b 823c
00000300: 9980 a23d eed8 9c3e 7fa9 a23d 60eb 85ba
00000310: f191 843d f24b f93e 1f1e b33d c8cc 8a3e
00000320: e6ac b4be 7659 e3be 846a 69be c055 59be
00000330: aaa3 cfbe 8782 d9be b957 0cbe 8e68 e4be
00000340: 5e45 523e 737b 78be 105d a8be ec6e 7cbe
00000350: 2e3d 38be 4206 e1be d981 c5be 2634 99be
00000360: 2996 7fbe 4dae 5fbe 5b70 eabe 5ef1 debe
00000370: dfe2 d4be 7da4 21be 5e65 793e 8fd3 b7be
00000380: a998 8bbe dfb2 0cbe d6eb 74be 9c69 3cbe
00000390: 2c37 ecbe 774b 73be edeb a1be a7e6 b2be
000003a0: 8da5 0cbe fdc6 3fbe 7ac0 babe 37c1 41be
000003b0: 50af 86be 2a77 36be 6a4e 98be 1a56 653e
000003c0: 1d28 cdbe ad6d bbbe edf0 a0be 297e 3fbe
000003d0: e69a cdbe 7be1 40be c485 76bd a7cd dabd
000003e0: a972 46be 4f83 89be e267 0abe dd12 3ebe
000003f0: e741 52be 8128 a1be 73ca 933e 647e a3be

layers.3.0.bias f4 [200]
-0.12728365 0.07958343 0.13411452 0.14944357 0.13739829 0.20845169 0.1471253 -0.20480719
-0.12361951 -0.19292466 0.08583905 0.06333269 -0.15463752 0.5307282 -0.15105665 -0.11166284
-0.13739108 -0.05264872 -0.12278019 0.185609 -0.117996335 0.09408961 0.060297478 -0.058580592
-0.05610918 -0.53097516 0.08502958 -0.4590639 0.11710872 -0.08718697 -0.17747578 -0.07151764
0.22445893 0.13572657 0.10942978 -0.54037255 0.12421381 0.20033258 -0.072085425 0.23779638
0.069978826 0.15571232 -0.09428462 -0.17674236 -0.18455991 0.12398258 -0.15353036 -0.109813526
0.10398208 -0.07793282 0.052368738 -0.3050127 -0.19305211 -0.2424875 -0.17237502 0.03988696
-0.23550317 -0.22198115 0.033198427 -0.1826903 -0.09860442 -0.09027441 -0.1540738 -0.5849931
-0.14224288 -0.06407102 0.51800156 -0.08598103 0.15290245 -0.06518117 -0.16424277 -0.5290281
0.06743802 0.100074 -0.15979448 -0.11371418 0.09905095 -0.1908366 0.06618789 0.044920888
-0.08052497 -0.07473774 -0.14151269 -0.15130462 0.07985393 -0.4486741 -0.135924 0.14875324
0.085476205 0.12592094 0.11314159 0.06508155 0.35813522 -0.11029019 0.0222334 -0.17051388
-0.12034084 -0.13166086 -0.43419945 -0.17030452 0.11210203 0.06325551 0.12365012 -0.13220836
-0.029243935 0.14411345 0.04341531 -0.6458284 0.07447334 -0.13819773 0.033968724 -0.12919709
0.121027835 -0.16841012 -0.103635445 0.029018043 -0.5016263 -0.062972896 0.09366357 -0.3908508
0.09351107 0.10952729 -0.13968995 0.13818783 0.10235876 -0.5525081 -0.05012102 -0.13760564
-0.11919515 0.21825592 0.08329797 -0.15443939 0.4610916 -0.12751554 0.11049833 0.089071244
-0.35681567 0.1004024 0.10288718 -0.03420338 -0.07121207 0.14371273 0.14144877 0.11552285
-0.14010037 -0.0854785 0.045048546 -0.15249586 -0.14912319 0.05895132 0.14641999 0.13143343
0.07814075 -0.028702082 -0.15830347 -0.43775856 -0.19553791 0.1250232 0.20244072 0.19139569
0.089787774 0.118053965 -0.15841411 -0.49852455 -0.61075276 0.09409986 -0.2272022 0.44482717
0.10441077 0.3941575 -0.19890137 0.15524621 0.14904632 0.033947624 0.1001227 -0.16618209
-0.40377185 -0.18027127 -0.10159782 -0.120487235 -0.044724505 0.109947935 -0.21902142 0.1528971
0.08070727 0.050046753 0.05938822 -0.11982537 -0.65608114 0.12258752 0.06290586 0.13540803
-0.113738805 0.06347268 0.04027444 -0.18615827 -0.41012567 -0.12983844 -0.1521281 -0.19006772
00000000: a556 02be a3fc a23d 5155 093e bc07 193e
00000010: 23b2 0c3e 5c74 553e 04a8 163e fab8 51be
00000020: 3a2c fdbd 0b8e 45be 62cc af3d 92b4 813d
00000030: 4c59 1ebe cedd 073f 98ae 1abe 7daf e4bd
00000040: 3fb0 0cbe 2fa6 57bd 2e74 fbbd 4910 3e3e
00000050: 10a8 f1bd 0eb2 c03d 7dfa 763d 34f2 6fbd
00000060: bdd2 65bd fded 07bf fd23 ae3d 6c0a ebbe
00000070: b2d6 ef3d 158f b2bd 36bc 35be d777 92bd
00000080: 90d8 653e e8fb 0a3e b81c e03d db55 0abf
00000090: cf63 fe3d fc23 4d3e 86a1 93bd e580 733e
000000a0: 0f51 8f3d 0d73 1f3e 4b18 c1bd f3fb 34be
000000b0: 46fd 3cbe 94ea fd3d 1037 1dbe eae5 e0bd
000000c0: 8ff4 d43d 3e9b 9fbd 9a80 563d a02a 9cbe
000000d0: 74af 45be a54e 78be 1483 30be 8260 233d
000000e0: be27 71be 074f 63be 13fb 073d 2a13 3bbe
000000f0: 1df1 c9bd cae1 b8bd 86c5 1dbe 1cc2 15bf
00000100: 1ea8 11be ab37 83bd c09b 043f d216 b0bd
00000110: 7692 1c3e b57d 85bd 422f 28be 636e 07bf
00000120: f21c 8a3d 99f3 cc3d 2aa1 23be fbe2 e8bd
00000130: 39db ca3d ab6a 43be 848d 873d f7fe 373d
00000140: 47ea a4bd 1a10 99bd b4e8 10be 99ef 1abe
00000150: 758a a33d 9db8 e5be a92f 0bbe c552 183e
00000160: 260e af3d 6bf1 003e c7b6 e73d 7a49 853d
00000170: 805d b73e d3df e1bd d222 b63c 319b 2ebe
00000180: 4275 f6bd 1bd2 06be 644f debe 4f64 2ebe
00000190: c095 e53d 1b8c 813d 463c fd3d a161 07be
000001a0: fa90 efbc 7a92 133e 41d4 313d 0355 25bf
000001b0: 7a85 983d b583 0dbe ca22 0b3d 3e4c 04be
000001c0: 71dd f73d b473 2cbe d23e d4bd 3fb7 ed3c
000001d0: 956a 00bf eff7 80bd b0d2 bf3d 991d c8be
000001e0: bb82 bf3d d84f e03d e20a 0fbe 1c81 0d3e
000001f0: 78a1 d13d 2c71 0dbf b34b 4dbd 7ee8 0cbe
00000200: 961c f4bd 7b7e 5f3e 2098 aa3d 5c25 1ebe
00000210: 3314 ec3e 6f93 02be f34c e23d fc6a b63d
00000220: 8bb0 b6be c69f cd3d 84b6 d23d d818 0cbd
00000230: a2d7 91bd 6e29 133e f2d7 103e 3e97 ec3d
00000240: 7976 0fbe 5a0f afbd d384 383d e027 1cbe
00000250: c0b3 18be f076 713d 1fef 153e 7c96 063e
00000260: 4208 a03d a120 ebbc 4e1a 22be e421 e0be
00000270: 173b 48be 1506 003e 9f4c 4f3e 3bfd 433e
00000280: a7e2 b73d 47c6 f13d 4f37 22be 9c3e ffbe
00000290: 4b5a 1cbf 6db7 c03d b2a7 68be 63c0 e33e
000002a0: 50d5 d53d 03cf c93e cdac 4bbe ddf8 1e3e
000002b0: 999f 183e aa0c 0b3d 210d cd3d a32b 2abe
000002c0: 2fbb cebe 0899 38be 8512 d0bd 03c2 f6bd
000002d0: 0b31 37bd 622c e13d 2747 60be 0f91 1c3e
000002e0: da49 a53d d3fd 4c3d 1041 733d 0167 f5bd
000002f0: eff4 27bf 2a0f fb3d cad4 803d 67a8 0a3e
00000300: e4ef e8bd f7fd 813d d0f6 243d 46a0 3ebe
00000310: fefb d1be 5ef4 04be 78c7 1bbe 1da1 42be

layers.4.weight f4 [1, 200]
3.1044972 -0.5814477 -0.59572065 -0.5441813 -0.5664088 -0.49813294 -0.547756 3.2138996
2.951513 3.0835273 -0.58318084 -0.5966934 3.0344818 -0.47610128 3.2005656 3.0271392
3.053628 2.9752817 3.047386 -0.56110877 2.973176 -0.58230907 -0.618467 2.9637198
2.9803126 3.1315477 -0.6084546 3.1151738 -0.55262333 3.1813695 3.0120323 2.9518857
-0.5175254 -0.60102904 -0.55677855 3.0075796 -0.6067324 -0.52075666 3.0103621 -0.45122147
-0.567794 -0.59143364 3.0013647 3.1723351 3.1050835 -0.6192932 3.2438657 3.004964
-0.585972 3.1365964 -0.61769295 3.195839 3.2488527 3.245883 3.101735 -0.5946495
3.29675 3.3000903 -0.61150956 3.2764635 3.0871992 3.1408863 3.0312927 3.0288203
3.2118905 3.0342782 -0.47867522 3.0346258 -0.5450324 3.0708227 3.2782855 3.049289
-0.58119315 -0.5632142 3.0942595 3.1969695 -0.55781484 3.1950297 -0.5814629 -0.6313092
3.0028703 3.0384436 2.9888163 3.288913 -0.596185 3.1636884 3.1434097 -0.63502485
-0.579938 -0.60105115 -0.5661284 -0.62304366 -0.42996082 3.0761814 -0.66657406 3.1999006
2.9791422 3.2638562 3.1796262 3.0877306 -0.5766605 -0.6168041 -0.59724325 3.0231771
3.0015478 -0.62207705 -0.6145428 3.0415733 -0.5997539 3.1077201 -0.6676703 3.1349435
-0.5883385 2.9585283 3.0531688 -0.60305256 3.151949 3.0589175 -0.6118781 3.1440263
-0.6034583 -0.5812697 2.9746654 -0.6039034 -0.5862499 3.0402637 2.923935 2.952893
3.0244598 -0.51762885 -0.5460802 3.0712025 -0.45449463 2.9240687 -0.6062506 -0.62028706
3.1946728 -0.5934253 -0.55689085 2.9311438 3.0285337 -0.59395736 -0.587863 -0.6188746
2.93336 2.909906 -0.5978447 3.0959632 3.1607566 -0.6034314 -0.5719702 -0.6221926
-0.59091073 2.9287872 3.135066 3.1328464 3.143792 -0.5719773 -0.5144297 -0.5428778
-0.59108144 -0.5614062 3.0930336 3.1837568 3.0622656 -0.5579467 3.3043976 -0.43039787
-0.61965114 -0.47510904 3.1115198 -0.59529936 -0.5811684 -0.62126416 -0.64115626 3.148598
3.1887922 3.2727516 3.0759408 3.0513303 2.940171 -0.6164154 3.2821133 -0.610645
-0.5859502 -0.6569592 -0.65769833 3.0413635 3.0796359 -0.622172 -0.5396989 -0.6382369
2.961888 -0.60275847 -0.63472867 3.1086597 3.1895857 3.023834 2.943586 3.246507
00000000: 15b0 4640 c2d9 14bf 2681 18bf 774f 0bbf
00000010: 2b00 11bf 480b ffbe bd39 0cbf 88b0 4d40
00000020: 97e5 3c40 8358 4540 574b 15bf e6c0 18bf
00000030: f334 4240 8cc3 f3be 11d6 4c40 a6bc 4140
00000040: a46e 4340 046b 3e40 5f08 4340 d3a4 0fbf
00000050: 8448 3e40 3512 15bf da53 1ebf 96ad 3d40
00000060: 71bd 3e40 476b 4840 aec3 1bbf 025f 4740
00000070: b978 0dbf 8f9b 4b40 23c5 4040 b2eb 3c40
00000080: 8b7c 04bf 0add 19bf 0a89 0ebf 2f7c 4040
00000090: d152 1bbf 4f50 05bf c6a9 4040 8006 e7be
000000a0: f35a 11bf 3268 17bf 5c16 4040 8a07 4b40
000000b0: b0b9 4640 008a 1ebf 7f9b 4f40 5551 4040
000000c0: 4302 16bf ffbd 4840 2021 1ebf a088 4c40
000000d0: 34ed 4f40 8cbc 4f40 d482 4640 f33a 18bf
000000e0: f4fd 5240 ae34 5340 e48b 1cbf 94b1 5140
000000f0: ac94 4540 4804 4940 b300 4240 31d8 4140
00000100: 9d8f 4d40 9d31 4240 eb14 f5be 4f37 4240
00000110: 3e87 0bbf 5c88 4440 6ecf 5140 8d27 4340
00000120: 13c9 14bf ce2e 10bf 5908 4640 269b 4c40
00000130: f4cc 0ebf 5e7b 4c40 c1da 14bf 7b9d 21bf
00000140: 072f 4040 dc75 4240 c448 3f40 8d7d 5240
00000150: 959f 18bf df79 4a40 a02d 4940 fd90 22bf
00000160: d176 14bf 7dde 19bf caed 10bf ca7f 1fbf
00000170: d323 dcbe 28e0 4440 99a4 2abf 2ccb 4c40
00000180: 44aa 3e40 05e3 5040 ff7e 4b40 619d 4540
00000190: 06a0 13bf e0e6 1dbf efe4 18bf bc7b 4140
000001a0: 5c19 4040 7140 1fbf ad52 1dbf 23a9 4240
000001b0: 7989 19bf e3e4 4640 71ec 2abf eaa2 4840
000001c0: 5a9d 16bf 8758 3d40 1e67 4340 a761 1abf
000001d0: 88b9 4940 4ec5 4340 0ba4 1cbf ba37 4940
000001e0: 3e7c 1abf 17ce 14bf eb60 3e40 6a99 1abf
000001f0: 7914 16bf ae93 4240 c021 3b40 33fc 3c40
00000200: c090 4140 5383 04bf e9cb 0bbf 958e 4440
00000210: 85b3 e8be f123 3b40 3d33 1bbf 22cb 1ebf
00000220: 8575 4c40 b8ea 17bf 6690 0ebf dc97 3b40
00000230: 7fd3 4140 970d 18bf 317e 16bf 916e 1ebf
00000240: 2cbc 3b40 e63b 3a40 5a0c 19bf 4324 4640
00000250: d649 4a40 7b7a 1abf a46c 12bf 0448 1fbf
00000260: ed45 17bf 4071 3b40 eca4 4840 8e80 4840
00000270: e333 4940 1b6d 12bf aab1 03bf 0afa 0abf
00000280: 1d51 17bf 51b8 0fbf 43f4 4540 acc2 4b40
00000290: 29fc 4340 98d5 0ebf 407b 5340 1c5d dcbe
000002a0: 75a1 1ebf 7e41 f3be 2423 4740 8a65 18bf
000002b0: 74c7 14bf 2b0b 1fbf d122 24bf a182 4940
000002c0: 2c15 4c40 c374 5140 37dc 4440 ff48 4340
000002d0: c32b 3c40 66cd 1dbf 250e 5240 3b53 1cbf
000002e0: d500 16bf 7a2e 28bf eb5e 28bf b3a5 4240
000002f0: c118 4540 aa46 1fbf b529 0abf 7e63 23bf
00000300: 938f 3d40 614e 1abf 947d 22bf 48f4 4640
00000310: 2c22 4c40 7f86 4140 b763 3c40 c5c6 4f40
