LPSDA/exp_burger/0/deltamodel.pt (torch, 476706 bytes, 28 tensors)

fc1.weight f4 [256, 3]
00000000: 9b9b 14bb b094 9e3e 58ae f3be 0d93 d8be
00000010: d7b4 63be 78d9 1f3e 1f17 45bc 2ece e93e
00000020: 4d84 53bd f48d 1d3e 9749 33be 155d e5bd
00000030: 8b79 0dbf 72fd c3be 72e2 71be e67e b73c
00000040: 1381 693e 5825 b13e 47d9 c7be f881 80be
00000050: 324c 573e 3fb5 f53e f4af f4bd 5c5b dd3e
00000060: 9724 bcbd dae4 763d 2bf4 053f cc07 09bf
00000070: 035d babe 6758 17be 9c1c 66be f4da ff3e
00000080: 8246 bfbe a5c2 86be 6d52 cebe 8626 0abf
00000090: 36e6 acbe 95cf fd3e 6993 833e 0d9a 8e3e
000000a0: 4462 f53c 39a1 98be 4b68 c43d 40f6 09bf
000000b0: fd21 d6be 99f0 97be 222c ba3e 5c08 ae3e
000000c0: 176a 84be febb aabc ea84 bc3e 6472 133f
000000d0: 2322 6a3e 58d2 a03d a99a c63e 90ff adbe
000000e0: 64fa da3d fcd4 e4be 040b cdbe 22c8 98be
000000f0: 12a1 853e 73f7 6d3e 7a80 aebe 1f28 353e
00000100: 20d3 a23e c13c 94bd 80c1 bc3c 7475 093e
00000110: 1398 b73e 39e6 0d3f b2d5 e3be d5dd 59be
00000120: 7866 683e 96b2 f43e 6de5 003f 9cc8 023f
00000130: cf6f e93d 361d 01bf 4a35 4d3d e66b b9be
00000140: 7182 09bf 566c 033f 7d67 e13e 8c68 13bf
00000150: 6fda dc3d ae66 c6bd f4ef c3bd 167b 87be
00000160: 308c 613e 2b2c afbe 9133 583e 6bf4 943e
00000170: f93d d33e f167 5f3e fa19 12bf ef58 bfbe
00000180: 59fb 933e d08a f93d d5f1 e6be a908 aabe
00000190: 5a5c 0b3f dc7a c63e c651 81be 9ece 14be
000001a0: 4048 0cbf 2438 29bc a77b ddbe 4e49 e4be
000001b0: 12d7 e8bc 9d46 b63d 7860 71be 52f2 b03e
000001c0: 3ac8 b3be e15f 063f 6a7f cb3e c2fd f7be
000001d0: e7b7 12be db81 cf3c f949 ac3d 69e9 0a3e
000001e0: f84e 663e 43e0 0e3d 0d5b 90be 8922 8b3e
000001f0: cab5 0dbf 6bff aebe b25d 14be 84f2 8fbe
00000200: 5ba1 4cbe 42b9 f3be 0636 fbbd 4c1d f83d
00000210: db34 bfbe 94db f3bc 8825 d53e 952d 7cbd
00000220: 6aab 813c bf09 45bd 57d7 f33d 8e3f bc3e
00000230: 4955 0c3f 8fb9 bd3e 017b 0c3f 73c3 29bd
00000240: 0d91 05bf 22a4 8cbe fa45 c83e 7cad 4ebb
00000250: 398f 92be 3b42 e2be 75bc 0abf f8a2 f9be
00000260: 34a8 eebd de58 a43e 6ede 9f3e c846 0ebf
00000270: 3f7f b83e 97b9 e6be 6a12 ffbd 1edb 6fbe
00000280: 5b62 e2bd f9fd e6bd 7b22 05bf 0ddb ffbe
00000290: e05e b5bd 716c 063c 9d56 86be 2822 603e
000002a0: 59de 04bf 6ba2 21bd 31ab 023f c685 71be
000002b0: d549 053f b036 563e 756a 05bf c5ad b93e
000002c0: 0c18 8abd 72b1 83be 5533 ed3e 10cb edbe
000002d0: 327a 733d 1596 fbbd eba0 d23e 6f58 273e
000002e0: ed07 8e3e e1ad 523e a5af 0ebe 283c f6bd
000002f0: 8b9c f2be 59a3 9f3e 6a15 ea3e 5a35 ca3e
00000300: 803c d1be 3241 ce3c 2586 d0be 21d3 a2be
00000310: c178 acbe 4309 4c3e 87f8 b0be 88c2 52bc
00000320: 41c9 c43c fe1a bf3e 1b92 dfbe 584f cbbe
00000330: 7daa abbe 535a cf3e eed5 54be 758c fa3e
00000340: 3487 553e 6db5 9b3d 5c6e b5bb 078e eabd
00000350: 6fcb 933d 2e65 0bbe 4fdf acbb fd63 933d
00000360: cf48 e7be 2142 9abe 6e68 ee3e 53a1 f0be
00000370: 910b 2cbd dfd3 113f 654b 523e 0e5d 593c
00000380: 1377 00bf c963 933e b114 d2be aa3d 26be
00000390: 181f 48be 3263 b0bd 5d4c 933b 9d9a f33e
000003a0: 3f69 913d 8ee6 043f afa6 b53e c65c babe
000003b0: 27f5 853e 8c3a d1be c241 7bbe 6fe4 2e3e
000003c0: 7fc5 423e 5df7 dd3e 3be2 3dbe becc 0b3b
000003d0: 1df6 983e bdcf 0ebf bb39 d63e b8e8 f4be
000003e0: fce4 fd3b 9928 c5bd 0483 9bbe c115 a13d
000003f0: 0e35 f53e 1b9a 2cbe a6bf afbe 0104 5abe
-0.0022675756 0.30972815 -0.4759395 -0.4229969 -0.22236954 0.15610301 -0.012029438 0.45665115
-0.051639844 0.15386182 -0.17508541 -0.111993946 -0.55263585 -0.382793 -0.23621538 0.022399377
0.22803144 0.34598804 -0.39032957 -0.25099158 0.2102516 0.47989842 -0.11947623 0.43233764
-0.091866665 0.060276844 0.52325696 -0.5352752 -0.36399087 -0.14779817 -0.22471851 0.49971735
-0.3735848 -0.26320377 -0.4029726 -0.5396503 -0.33769387 0.49572435 0.25698403 0.27851906
0.029954083 -0.29810503 0.09590205 -0.5389137 -0.41822806 -0.2967575 0.36361796 0.33990753
-0.2586219 -0.020841595 0.36820155 0.5759642 0.22864585 0.0785262 0.3878987 -0.3398404
0.106922895 -0.44693744 -0.40047467 -0.2984019 0.2609945 0.23238926 -0.34082395 0.17691086
0.318017 -0.072381504 0.023041487 0.13423711 0.3585821 0.55429417 -0.44498974 -0.21276028
0.22695339 0.477925 0.50350076 0.51087356 0.11398279 -0.504352 0.05009965 -0.36215132
-0.5371466 0.5133718 0.44024268 -0.575814 0.107838504 -0.09687553 -0.09567252 -0.26461095
0.22026134 -0.34213385 0.21113421 0.29092726 0.4125822 0.21816994 -0.5707089 -0.37372538
0.289027 0.121846795 -0.45106378 -0.33209732 0.5443779 0.3876561 -0.252577 -0.14531943
-0.54797745 -0.010328326 -0.43258402 -0.44587177 -0.028422866 0.08900187 -0.23571956 0.34559876
-0.35113698 0.5249005 0.39745647 -0.4843579 -0.14327966 0.025330475 0.08412547 0.13565601
0.22491062 0.03488184 -0.28194466 0.27174786 -0.55355513 -0.34179243 -0.14488867 -0.28114712
-0.19983427 -0.47602278 -0.122661635 0.12114963 -0.37345013 -0.029767789 0.41630197 -0.061566908
0.015828807 -0.048104998 0.11906307 0.36767238 0.54817635 0.37055632 0.5487519 -0.04144616
-0.52174455 -0.27468973 0.39115888 -0.003153651 -0.28624895 -0.44191155 -0.5419381 -0.48757148
-0.11653176 0.3209905 0.31224388 -0.55576754 0.3603458 -0.4506347 -0.12454684 -0.2342343
-0.11053916 -0.1127891 -0.5200574 -0.4997181 -0.088559866 0.008204565 -0.26237956 0.2188803
-0.51901776 -0.039461534 0.5104247 -0.23586187 0.52065784 0.20919299 -0.52115566 0.36265388
-0.06742868 -0.25721318 0.46328226 -0.46443987 0.059442706 -0.12284485 0.41138396 0.16342328
0.27740422 0.20574142 -0.1393419 -0.12023193 -0.47385058 0.31179312 0.45719463 0.3949383
-0.4086647 0.025177572 -0.40727344 -0.31801704 -0.33685878 0.19925408 -0.3456461 -0.012863763
0.024021747 0.3732528 -0.43666157 -0.39708972 -0.3352851 0.404986 -0.20784733 0.48935285
0.20852357 0.076029636 -0.0055368375 -0.11452871 0.07216536 -0.13612816 -0.005275644 0.071968056
-0.45172736 -0.30128577 0.4656405 -0.4699808 -0.042003218 0.56963915 0.20536573 0.013266815
-0.5018169 0.28787068 -0.4103141 -0.1623446 -0.19543111 -0.0861267 0.004495187 0.47578898
0.07100152 0.519143 0.35478732 -0.36398906 0.261636 -0.4086498 -0.24536803 0.17079328
0.19020651 0.43352786 -0.18543331 0.0021331753 0.2987527 -0.55785733 0.4184092 -0.478338
0.0077482443 -0.09626884 -0.30373394 0.07865477 0.4789204 -0.16855662 -0.34325904 -0.2129059

fc1.bias f4 [256]
00000000: 27c4 e1be c6ac 2bbe 3394 403e 1391 01bf
00000010: 284e a13e 452d 9a3e 34cf b73e 7d7c bcbe
00000020: ea4e 133f 1666 aebe fe93 133f cc75 0dbf
00000030: d11d 04bf a409 b63e fd09 763d f955 083d
00000040: a655 a4be 3034 76be 4c61 2cbe ea82 0fbf
00000050: 457c f33c ead3 d53d 9391 833a 7952 3f3e
00000060: a132 0c3f af7e 1f3e 6ac6 5abe fa35 73be
00000070: 6453 bdbe 6f0a cdbe c7de bcbd fe14 d0bd
00000080: 458e 833e 2c7f 7bbe 18d3 ea3e af27 cfbe
00000090: a38b 793b 9048 053f 1935 133f fa9e abbe
000000a0: 03e2 cf3d ba32 893d 00ae 8bbe b647 4fbe
000000b0: 40b6 213e 1591 cebe 6c78 c53d 9d99 823e
000000c0: 7c1b 6cbe 21ad f53e 9da1 20bd b668 883e
000000d0: a727 123f ff58 35be 20b1 9f3e 8e64 29be
000000e0: feeb abbd baf5 cabd acee 67bb 80d0 5fbe
000000f0: 5478 083e 0ee6 ad3c bbc0 ba3e faec f1bd
00000100: 0bf2 6a3d 887c 5bbe e408 f8be 0574 703e
00000110: 1ad3 973d 73c0 6bbe d336 49be cd5a 173e
00000120: 2e31 d7bd 01d0 bf3e dbf8 fa3c 473f 613e
00000130: ac1b 803e da5d 11be f44e 803e fbe0 d93e
00000140: 4448 d33c 467b e93d c952 b83c 8ea3 cd3e
00000150: bd1e 79be daa8 9cbe d153 803e 1078 00bf
00000160: 3955 0a3c b907 87be 55a7 c23e e6ca 09bf
00000170: 2c50 b33e e711 123f 94ca f13d 1d6b 38bd
00000180: 28ce 113f 4533 7dbe 47c3 40bd b5d0 81be
00000190: c46f a5bd 0970 fa3d a2ed 9e3d 999d e0bd
000001a0: fd4e 13bf 08ab f03c b4b0 3dbc 5fc1 ae3d
000001b0: 1d44 e23e ebdc 0f3f 53fe b0be 572a 0cbd
000001c0: 5338 6dbe b218 08bf 374c d7be b8c6 0b3f
000001d0: b4cf ac3e 296d 9f3e 00e3 a33e bc23 ebbe
000001e0: a2f1 713d 7f84 093f 00d4 a4be e250 033f
000001f0: a428 1a3e ef18 d13e 763c 7ebe 8acf 873e
00000200: 3541 03bf 12f1 18bd e977 453e 8f90 313e
00000210: d47e f83e feea 113f 4746 063f 1831 c63e
00000220: 076e d03e ea01 95bd 4c0f e5be 4b99 5abe
00000230: 8d95 8cbd 63a1 a0be d5f7 963e e26b 4b3e
00000240: 849f bf3d 7b72 0e3e 9898 013f e5a4 573e
00000250: d58f 01bf 1950 d7be d243 823e 74a5 a03d
00000260: 090e 903e e0d7 13bf 933e 08bf a956 b73e
00000270: 345c bd3e 9f4d 06bf 29c6 5f3e 46b6 e6be
00000280: 9f6b e03e b9bf 373e b75d 123f b810 12bf
00000290: 6937 0dbf a04f c83e 1e57 033f 0f17 b43e
000002a0: 72bb c33e 3f88 f7be a8c0 d43e 1fa9 0bbf
000002b0: 8964 013e 5250 c3be d6ca 6bbe b5d8 d63d
000002c0: 828b 66be 1140 b9bd 5f0a 0cbf a0d1 0abf
000002d0: b2bf 643e 5cd0 79be a8ab b2be 4f0a 69be
000002e0: 2b7b f2be cbd4 ecbe 8d69 b03e 0d20 963e
000002f0: 5634 9f3d 86bb a2be ab9b 443e 0633 c63c
00000300: bb35 d4be a6c0 023e 5f11 083f 476b 11bf
00000310: 434d 12bf 4d78 943d afbe dd3e a90a b3be
00000320: 0df1 003e 4d06 d03e 21d8 363e 50f2 003e
00000330: 3dfa 123f 0e89 c03e 1998 a6be 12fa 4b3d
00000340: c10a 953e 201d 023f 7745 13bf 83f7 9f3e
00000350: 6a2f 2cbe 9e6d 10bf 5b2a 013e 3e80 9fbe
00000360: afa4 a83d 8ea8 bfbe 6e1b dfbe a6be 3ebd
00000370: ef2b 49be 2b24 ad3e f178 463d 6db2 e63e
00000380: 6452 e33d 7fac 3dbe f8b4 c93e 1fa7 073d
00000390: 9dde e33d 3097 3dbe 8cc1 1f3b 5465 debd
000003a0: 38a3 48bd bb97 e6be d184 bbbb 595b f7be
000003b0: e5d5 00be db80 ab3e 781c cdbe b53d c6be
000003c0: 9ab6 0fbe 4037 21be 6dc9 c83d 7b54 c33d
000003d0: 9782 963e c31d cbbe 7cc4 2abd ba07 a53e
000003e0: beae fd3e 8821 2cbd ae3f aabe 3ad7 283e
000003f0: 1dce a83e 4453 b9be e374 abbe f175 823e
-0.44094965 -0.16765127 0.18806534 -0.5061199 0.3150494 0.30112663 0.3590027 -0.36813727
0.5754229 -0.3406226 0.57647693 -0.5525787 -0.51607996 0.3555423 0.06006812 0.033285115
-0.32096595 -0.24043345 -0.16833991 -0.56059134 0.029722342 0.1044081 0.0010037891 0.18683805
0.54764754 0.1557567 -0.21364751 -0.23751059 -0.36977684 -0.40047023 -0.09222179 -0.10160254
0.2569448 -0.24560231 0.45864177 -0.40459964 0.0038077615 0.52063847 0.57502896 -0.33519727
0.1015053 0.066991284 -0.2728119 -0.202422 0.15792179 -0.40345064 0.09642109 0.25507823
-0.2305736 0.4798365 -0.039216626 0.26642388 0.57091755 -0.1770973 0.31189823 -0.16542265
-0.08394621 -0.0991015 -0.0035390062 -0.2185688 0.13327152 0.021227863 0.36475167 -0.11812778
0.057359736 -0.21434224 -0.48444283 0.23481758 0.07413311 -0.23022632 -0.1964982 0.14780731
-0.10507427 0.37463382 0.030636242 0.21996795 0.25021112 -0.14195958 0.25060236 0.4255446
0.025791295 0.11400466 0.022500413 0.40163845 -0.24328132 -0.30597574 0.25063947 -0.501832
0.00844317 -0.2637308 0.3801829 -0.53825223 0.35022104 0.57058567 0.11806217 -0.045024026
0.56955194 -0.24726589 -0.04706123 -0.25354543 -0.08077958 0.122284 0.077601686 -0.10967559
-0.575424 0.029378429 -0.011577774 0.08532976 0.4419259 0.5619647 -0.34569034 -0.034220066
-0.23166017 -0.5316268 -0.42050335 0.54600096 0.33752215 0.3113797 0.32009125 -0.459257
0.05906833 0.537178 -0.32192993 0.5129529 0.15054566 0.40839335 -0.24827752 0.26525527
-0.51271373 -0.037339278 0.19284023 0.17340301 0.48534262 0.56999195 0.52450985 0.3870933
0.40708944 -0.07275756 -0.44738233 -0.21347539 -0.06864462 -0.31373128 0.29485956 0.19865373
0.09356597 0.13910858 0.50623465 0.21058996 -0.50610095 -0.42053297 0.25442368 0.07844058
0.28135708 -0.57751274 -0.5322048 0.35808304 0.36984408 -0.5246219 0.21852936 -0.4506094
0.43832108 0.1794423 0.5717425 -0.5705676 -0.55162674 0.3912325 0.51304805 0.35173842
0.38228947 -0.48346135 0.41553235 -0.54554933 0.12636007 -0.38147217 -0.23026595 0.10490552
-0.22514156 -0.09045423 -0.54703325 -0.5422611 0.22338751 -0.24395889 -0.34896588 -0.22757839
-0.47359595 -0.46256098 0.3445553 0.29321328 0.07773654 -0.31783694 0.19200008 0.024194252
-0.41447243 0.12768802 0.53151506 -0.5680432 -0.5714914 0.07249508 0.43309543 -0.3496907
0.12591954 0.40629807 0.17855884 0.12592435 0.57413083 0.37604564 -0.32537916 0.049799033
0.29109767 0.5082569 -0.5752787 0.31243524 -0.16814962 -0.5641726 0.12613814 -0.3115253
0.08234536 -0.37433285 -0.43575615 -0.046568535 -0.19645666 0.33816656 0.048455182 0.45058003
0.11099699 -0.18522833 0.3939588 0.033118363 0.111264445 -0.18514705 0.0024376838 -0.108591706
-0.048983783 -0.45037636 -0.00572262 -0.4831188 -0.12581594 0.33496746 -0.40060782 -0.38718954
-0.140345 -0.15743732 0.09804044 0.09537598 0.29396507 -0.39671144 -0.04169129 0.32232457
0.4954738 -0.042024165 -0.3325171 0.16488352 0.32969752 -0.3619634 -0.33487615 0.25480607

fc2.weight f4 [256, 256]
00000000: 3508 9ebb 0c9b 6cbd 8992 11bd ea37 cf3c
00000010: db03 afbc ef57 333d 0be6 4b3d 981c 0d3c
00000020: 2483 95bb d613 a2bc 4af8 64bb d29c 303c
00000030: 9dc1 41bd a327 84bc 2a95 59bd 9406 1f3d
00000040: 9361 20bd e70d 683d 0a0c 8fbc 5a5c 13bd
00000050: df91 ee3c 2109 213c ae2f 333d 504f cd3c
00000060: 6f40 74bd 0735 1d3d 49b0 52bc 6056 e8bc
00000070: d635 223d 9648 393d b89f 5fbd 4b2c e5bb
00000080: 78b2 4d3d badf c83c 7935 543d f5f1 b4bc
00000090: d902 10bd 3a5f 583d 8ba7 cd3c e766 793d
000000a0: e37c dfbc 1658 29bd 743a f6bb 0e00 6cbd
000000b0: da18 cd3c 0eb9 423d 36e2 7a3c 2423 c6bb
000000c0: 67f8 023d d04c 27bd e097 7a3d 252d 81bd
000000d0: c311 79bd 64c3 70bc 6f84 513d cd3b d63b
000000e0: 8618 c83c a9ec 39bd b3c4 c13c f696 f0bb
000000f0: 8f64 cd3c 696a 363d 5aec d63c ee1b a3bb
00000100: 15ff 87bb c493 1bbd 596a afbc 885b 213d
00000110: e60d ccbc 0ae8 1d3d f356 c3bc f5ec 5dbc
00000120: 2547 043b b8e5 68bd 927f d6ba 7e00 eebb
00000130: 1d9f c1bb 0ffe 4dbc d2ae 433d 5ef5 3c3d
00000140: 9437 2cbd 6a71 e93c 01f1 4cbd f616 5dbd
00000150: 23f5 913c b0ea 003b 8ffa f5bc 7c6a 76bd
00000160: 79e3 cebc 99de ad3c 1172 70bd ab1f 7cbd
00000170: 5254 e33b 8544 3dbd d554 5ebd 67cf cfbc
00000180: 1ce6 36bc 85d4 66bd c9a5 2abd b0aa 8b3b
00000190: ad10 73bd f219 20bc 6773 23bd 90c5 33bd
000001a0: a87c cf3c 2975 49bd 1617 44bd 1b2e 0f3d
000001b0: ce7d 443c 8937 653d aec1 83bc fc05 01bd
000001c0: 89b1 b4bb 9e6a 85ba 3236 403d 64e5 7fbd
000001d0: 8798 9cbb 1ca0 da3c ae42 10bd a379 03bd
000001e0: 8be7 f23c f752 74bd bf01 5a3c 21a1 48bd
000001f0: 06b6 fa3c 0a10 59bd 8c3e 1e3d 4eb3 70bd
00000200: 99e9 55bd 2015 8c39 6ad3 443d 2da3 5abd
00000210: 7123 eebc 4378 5e3d 993a 26bc 4fa2 d73c
00000220: 962a 78bd 745e 9dbc 586c 01bd 0405 593d
00000230: c00c d03c 7f28 3dbd e99f 153c ade6 06bb
00000240: fe30 dcbc ecdd 13bd d705 b4bc 6aaa 4c3d
00000250: 960e 35bd 27d5 38bd 635b 9bbc 5812 2d39
00000260: 91f6 843c 8cce d93a 2b31 70bc 2c01 20bd
00000270: 2aaf 2bbc 7b45 cabc 55ec 493d c2c1 79bd
00000280: 354f 26bd 7b16 51bd b829 44bc 2a9f 4c3d
00000290: 0e42 5e3d bd34 63bd 38ff 6abb fd40 173d
000002a0: 5722 d33c 1a18 543d 007b f6ba 91a4 28bd
000002b0: 1d0f 2c3d eb3e a6bc 8d28 fe3c b1e9 6abc
000002c0: b5d0 d63c bfca 603d c523 723d afb7 63bd
000002d0: 2e30 2bbd 4c02 d1bc b0b6 23bd 4d22 6f3d
000002e0: 5caf dcbb 4a06 29bd b847 edbc 8134 0bbd
000002f0: 860a d83c a7a5 5dbd 39b0 71bd adb0 7abd
00000300: 885b e63c 2ae0 f23c 24aa 1ebd c915 863c
00000310: fe2e 403d a750 1a3c b255 69bc c8d0 9d3b
00000320: 90b4 e7bb 35d8 f83c b79d 32bd 3dc7 fc3c
00000330: ae73 083d 7edc 1dbd bd7f 4c3d 11de 763d
00000340: 73b3 ccbc 3a88 94bc 7e22 023d 627b 4bbd
00000350: d143 c63c 26c1 703c 61c2 1c3d 54c5 62bd
00000360: 3541 51bd c393 e33c 5415 c33c 032a 74bd
00000370: dfc5 0cbd ac95 68bd 9b32 34bd ddb5 eebc
00000380: b83c 563d 2082 60bc 28e5 103d fee3 743d
00000390: 595c ed3c 4754 62bd c596 fb3c e0cc b93c
000003a0: cbff 403d 0513 7abd d088 1c3d 9bda 513d
000003b0: 8d99 6abd ba14 b83b 78e9 533d 7399 39bd
000003c0: 94c2 9f3c e40c ec3c 8035 733c c94a 803d
000003d0: 8941 4e3d 3e6f 563d c3f6 12bc a3f1 573d
000003e0: c86a 6cbd 8c65 0bbd 868e 51bc a53d 9ebc
000003f0: 8d9f 6b3d 5023 f73c 28d6 263d 1a0b 303d
-0.0048227557 -0.05776505 -0.035540137 0.025295217 -0.021364143 0.043785032 0.049779933 0.008612774
-0.0045627523 -0.01978485 -0.003493803 0.010779576 -0.047303785 -0.016132182 -0.05312077 0.038824633
-0.039155554 0.056653883 -0.017461795 -0.035976745 0.029122291 0.009828837 0.043746643 0.025062233
-0.05963176 0.03838065 -0.0128594125 -0.0283615 0.039602123 0.04523524 -0.05459568 -0.0069938055
0.05021903 0.024520744 0.051808808 -0.02208803 -0.035158966 0.05282519 0.025104305 0.06088915
-0.02728123 -0.04134377 -0.0075142924 -0.05761724 0.025036264 0.047539763 0.015312722 -0.0060466696
0.031975176 -0.04084474 0.061179996 -0.06307439 -0.060807955 -0.014695022 0.05115169 0.0065378905
0.024425756 -0.045391712 0.023653364 -0.0073422147 0.025072364 0.044535074 0.026235748 -0.0049776947
-0.004150281 -0.037982717 -0.021413015 0.03939393 -0.024908971 0.038551368 -0.023845172 -0.0135452645
0.0020184007 -0.056859702 -0.0016364923 -0.0072632423 -0.0059088604 -0.012572779 0.047774144 0.046132438
-0.04204519 0.028496463 -0.050034527 -0.053976975 0.017817086 0.0019671135 -0.030026702 -0.060160145
-0.025254952 0.021224307 -0.058702532 -0.06155364 0.006937542 -0.046207923 -0.05428012 -0.025367452
-0.011163261 -0.05635502 -0.04166201 0.004262291 -0.059342075 -0.009771811 -0.039904978 -0.043889582
0.025327995 -0.049184 -0.04787358 0.03495608 0.011992885 0.055961166 -0.016083565 -0.031499848
-0.005514328 -0.0010178869 0.046926685 -0.062474623 -0.004778925 0.026687674 -0.03521984 -0.032098424
0.029651424 -0.059649434 0.01330608 -0.04898179 0.030604374 -0.05299381 0.038633868 -0.05876475
-0.05222473 0.0002671862 0.048053183 -0.053378273 -0.029069634 0.05431391 -0.010145807 0.026322512
-0.060587488 -0.019210078 -0.031597465 0.0529833 0.025396705 -0.0461812 0.009132364 -0.002058427
-0.02687883 -0.036100313 -0.02197544 0.049967207 -0.044203363 -0.045125153 -0.018964475 0.00016505399
0.016230853 0.0016617342 -0.01466016 -0.039063618 -0.010478774 -0.024691334 0.04929765 -0.060975797
-0.04060288 -0.05104683 -0.011972837 0.04995648 0.054262213 -0.055470217 -0.0035857689 0.036927212
0.02577321 0.051780798 -0.0018804967 -0.041172568 0.0420066 -0.020293674 0.031025195 -0.014337943
0.026222566 0.054880854 0.059116144 -0.055595096 -0.041793995 -0.02551379 -0.039969146 0.05838232
-0.0067347717 -0.041265763 -0.028964862 -0.03398562 0.026372205 -0.054113057 -0.05900595 -0.061203647
0.028119817 0.029647905 -0.038736477 0.01636781 0.046919815 0.009418643 -0.014241623 0.0048161484
-0.0070710853 0.030376533 -0.04360744 0.030856723 0.033313446 -0.038540356 0.04992651 0.060270373
-0.024987912 -0.018131364 0.031771176 -0.049678214 0.02420226 0.014694488 0.03827131 -0.055363968
-0.051087577 0.02778042 0.023813881 -0.059610378 -0.034368392 -0.056783363 -0.043993574 -0.029139454
0.052304 -0.013702899 0.03537479 0.059787743 0.028974699 -0.055256154 0.030711541 0.0226807
0.047118943 -0.061053295 0.038216412 0.05123387 -0.057275344 0.005617705 0.051736325 -0.045312356
0.019501962 0.02881474 0.014844298 0.06264264 0.050355468 0.052352183 -0.008969965 0.052720677
-0.057719022 -0.03403239 -0.012790328 -0.019316504 0.057525206 0.030168205 0.04073158 0.042979337

fc2.bias f4 [256]
00000000: c52c e23c b4d7 fe3a 7c1f 153b a85e 433d
00000010: 8218 40bb 9722 df3b cb6b c2bb 6021 743d
00000020: 7f1f 7fbd 38ff b83c 1d8e 01bd c6b1 2a3c
00000030: 9e5c 413d f2c4 173d 8e40 013d 23a3 a83c
00000040: 0c3b 293d 9669 783d 900f 773d a1cc 4fbc
00000050: 7d47 4fbd 34fb 57bc a058 5a3d 8ce9 203d
00000060: d542 2bbd 533c b63c 70e3 e0bc e62e 643d
00000070: ad43 7a3d b649 0bbd fdcf c7bc 8f49 bbbc
00000080: 0ab5 dc3c 273f 3b3d cb55 91bc 78fb 50bc
00000090: 116c 693c b885 d83c 5f38 883c 2884 193d
000000a0: 75b5 4b3d afae 9b3c c7b0 00bd 6e64 813b
000000b0: 1ee1 12bd 3067 073d a902 703d 0350 e43c
000000c0: f74e e23c 799d 4abd bed8 2f3d 3d5f 18bd
000000d0: 8214 723c cb15 093d 30ca 1c3d ed53 05ba
000000e0: a92e aebc 00e3 363d 2711 e0bc c291 1a3d
000000f0: 1382 833d 25a5 18bb a4da a13c 5fe6 503d
00000100: 3ba2 febc 2870 1c3c 2b4e 86bd 5308 afbc
00000110: 2041 ee3c e9f8 043d 7e50 fd3c 832f 513d
00000120: 26d8 d23c fd86 2f3d b05a d9bc 38db f3bb
00000130: ac6a 3e3d 616d 5fbc 214f 163d afa4 d93c
00000140: 519f 5d3d babf 7f3d 00ab 6a3d 5fdf 4c3d
00000150: fc81 2c3d f5b6 ee3c 594e c1bc 6523 dd3c
00000160: 33e4 50bd 58db 8abc ad0d 20ba 2f7c a1bc
00000170: 29fd f7bc b60c 283d 9e06 c63c 59e0 4c3d
00000180: d055 233d 3842 10bd 6ce8 f5b9 e0e9 48bd
00000190: 08bf debb c04c a1bc 8971 6d3d 4ea1 53bd
000001a0: 336c 983c 6bfc 4ebd 7a0f 0dbd 65c0 423d
000001b0: f2f2 a63a 8533 58bd 23e8 81bc 99d6 8b3c
000001c0: 1d16 48bd c1d9 c53c 602d 80bc 11de 733d
000001d0: 3c07 1ebd 8f36 11bb 5a4a 8abc 70b0 13bd
000001e0: 8a24 5b3c 362c 7cbd 9f27 2f3b b73e f83c
000001f0: 1cd3 dabc b506 44bc 1475 d9bc 3fec 51bd
00000200: 6448 2fbd cbe6 0e3d 7e5e 68bd 57d0 253c
00000210: 6daa 643c 7a1b 49bd daf4 7bbd b9f3 98bc
00000220: 90ec 60bb 3384 c9bc ef62 21bb 7a0f 34bc
00000230: be25 b2bc bf34 d53c d828 753c 20ef 6cbd
00000240: 682e 6ebd 2967 ba3c fe09 61bd 5723 d6bc
00000250: 74c9 093d 4b10 a93c 58c4 be3c 7295 dd3b
00000260: 7a9f acbc 9e5e 723d 8227 153d 974b 6e3d
00000270: 0a18 433c 600e 78bc 2733 b43b d5cc 103d
00000280: 7b53 2d3b a75b 983b 0c69 5c3c 7bbb 27bd
00000290: 4dd6 c23c 3519 3c3d b6c0 7b3c f716 7abd
000002a0: ebc0 22bd 2cfd c8bc f5e8 3bbd 7578 f0bc
000002b0: 179c c33b 8099 773d 2ad2 463c 98cc 9b3c
000002c0: d5ed 923c ad96 283d 3623 e93c 36e0 34bd
000002d0: be96 853c d9d2 623d f500 7c3d a94e 353d
000002e0: 462e 26bd f11c 0bbd bc31 c53c b4ef 343d
000002f0: 2d8b 13bd 057d 3d3d 10a7 adbc 32af 303d
00000300: c6f7 eb3a f615 fe3c 79ec 6dbd 7396 f8bc
00000310: bca0 40bd 730b 383d b22a 6dbd 479f 1b3d
00000320: 8c8f 68bc 7710 043d 61a6 243d 42d4 1f3d
00000330: 7914 28bd fee0 073d da44 46bd ed40 85bc
00000340: 3981 4fbd ba3f a73c 85ef 76bd f84f 4b3d
00000350: 4ddb 86bc 8a4d c6bc 59ff 37bd 21d2 9a3c
00000360: 5a64 16bc 852a 48bc 897f 7f3c d034 57bd
00000370: fa68 ed3c 76f3 12bc ce04 053c f920 ba3b
00000380: 6796 0f3d e7ca f73b aa11 573c 7323 73bd
00000390: d754 363a f7d3 043d 6f7f c03c c9e9 a2bb
000003a0: 741b 16bc e423 2e3d 12e4 9c3c 6f34 0fbd
000003b0: e79e 4cbd 853f 4f3c 36e1 6e3d ce85 6b3d
000003c0: a508 51bd cc2b fb3a a24d 74bd fb70 0abd
000003d0: a2af 4ebd 3d6c 48bc bfb8 563d 4085 d23c
000003e0: 1b79 cf3b 4271 6b3c 41ae 55bd c873 d739
000003f0: b612 373d a7b9 b93c f8d0 1cbc 10f7 5e3d
0.027609238 0.0019442947 0.0022754362 0.047697693 -0.0029311483 0.0068095434 -0.00593326 0.05960214
-0.062285896 0.022582635 -0.03162967 0.010418361 0.047207467 0.037053056 0.031555705 0.020585602
0.041316077 0.06064757 0.060317576 -0.012683065 -0.050605286 -0.01318245 0.053307176 0.039285228
-0.041811783 0.022245562 -0.0274522 0.05570879 0.061099697 -0.034005843 -0.024391169 -0.022862224
0.026941795 0.045714524 -0.017741105 -0.012755267 0.014246956 0.02643095 0.016628442 0.03747955
0.049733598 0.019004194 -0.031418588 0.0039487397 -0.03585922 0.03305739 0.058596287 0.027870184
0.027625544 -0.049466584 0.04293131 -0.0372002 0.014775397 0.03346805 0.03827876 -0.0005086053
-0.021262484 0.044650078 -0.027351929 0.03773666 0.06421294 -0.0023291793 0.019757576 0.05100095
-0.031083217 0.0095482245 -0.06557878 -0.021366274 0.029083788 0.03246394 0.03092217 0.0510707
0.025737833 0.042853344 -0.026532501 -0.0074419044 0.04648845 -0.013636918 0.036696557 0.026567785
0.054107014 0.062438704 0.057291985 0.05001771 0.04211615 0.029139975 -0.02359693 0.026994416
-0.050998878 -0.016950294 -0.00061055535 -0.019712536 -0.030272083 0.041027747 0.024173077 0.050018642
0.03987676 -0.0352194 -0.0004690321 -0.049051166 -0.006797675 -0.019689918 0.057969604 -0.051667504
0.01860628 -0.050533693 -0.034438588 0.047546763 0.0012737198 -0.052783508 -0.015857762 0.017070102
-0.048849214 0.024151685 -0.015646636 0.05953795 -0.038581118 -0.0022157764 -0.016881157 -0.036056936
0.013375411 -0.0615656 0.0026726497 0.030303342 -0.026711993 -0.01196449 -0.026545085 -0.051250692
-0.042793646 0.03488807 -0.05673074 0.010120473 0.013956648 -0.04909847 -0.061512806 -0.018670904
-0.003432069 -0.02459917 -0.002462562 -0.010990018 -0.021746513 0.026026128 0.014963351 -0.057845235
-0.058149725 0.022754269 -0.05494117 -0.026139898 0.033639386 0.020637652 0.023286983 0.0067622
-0.021072138 0.059172265 0.03641463 0.058177557 0.011907587 -0.015140146 0.005499262 0.035351593
0.0026447463 0.0046495977 0.0134527795 -0.04095028 0.023783827 0.045922477 0.01536577 -0.061057057
-0.039734762 -0.024534784 -0.045876462 -0.029354313 0.005969535 0.060449123 0.012135068 0.019018456
0.017935673 0.04115932 0.028459173 -0.044159137 0.016307231 0.05537686 0.06152435 0.04426447
-0.040571474 -0.033963148 0.024071567 0.04417391 -0.0360214 0.046261806 -0.021197826 0.04313583
0.0018002919 0.031016331 -0.058086846 -0.030345177 -0.04702829 0.044932794 -0.057902046 0.037993696
-0.0141943805 0.032242265 0.040197734 0.039020784 -0.04103515 0.033173554 -0.048405506 -0.01626631
-0.050660346 0.02041613 -0.060287017 0.04963681 -0.016461993 -0.024206895 -0.044921253 0.018899025
-0.009179199 -0.012217169 0.015594372 -0.0525406 0.02898072 -0.008969178 0.008118821 0.0056802
0.035055544 0.0075620296 0.01312677 -0.05935998 0.0006955391 0.032428708 0.023498265 -0.004971717
-0.009161819 0.042514697 0.019151721 -0.034962114 -0.04995623 0.012649422 0.058320247 0.057500653
-0.051033635 0.0019162833 -0.05964435 -0.033799153 -0.050460465 -0.012232837 0.05242228 0.025698304
0.0063315756 0.0143702645 -0.052168135 0.0004109426 0.04469558 0.022671534 -0.009571306 0.054434836

smallfc.0.0.weight f4 [32, 256]
00000000: 3bfe 3fbd 6532 f9bc 7ae0 8ebc 19c5 4f3d
00000010: de97 283d 62de 52bd 223a 553d c81b 61bd
00000020: b19d 74bd e7c1 bbbc d2eb 74bd 3262 223d
00000030: bbd2 153c e513 ee3c 2507 65bc c23f 683d
00000040: bf88 4cbd e694 efbc c59f 46bd 37b0 86bc
00000050: cb3c 6fbd 5e45 1fbd c312 233d 54de b03c
00000060: 2bb3 57bd b3a3 903c ec69 463c 8bf4 353d
00000070: e14a 623d e8ac 823c ceaa 9fbc 21c9 ae3c
00000080: 5024 46bd e741 933c 687b b7bc bea8 c0bc
00000090: 63fa 9a3c 3fa0 f9bc a1ff 06bd 713b 3abd
000000a0: dbbe b0bc a153 283d 8368 4f3d e4e9 1b3d
000000b0: 4212 b3bc 7fff edbc 9472 41bc 5e1a 03bd
000000c0: 20a3 053d 74e3 e3bb df66 12bd 65eb 0e3c
000000d0: d042 2a3b 4e92 193c d500 f23c 6f8b 9e3c
000000e0: 425d b83c ef4a b53c ec4b 3bbd fc84 ea3c
000000f0: b0ca 81bc 3af5 4abd 4c79 81bc 2198 63bc
00000100: 4297 14bc 574e 183d 86d8 bfbc e330 15bd
00000110: 96c5 07bd 25ee 08bd 4f01 2f3d ba9b 023d
00000120: 47c8 963c 4bcd 1c3d 5af7 95bb 9803 3ebd
00000130: a345 7d3d 0f21 3bbd 8e9d 6c3d 040c 3a3d
00000140: 4d84 2b3c 3988 513d a40a 303d eb9f 50bd
00000150: 3ed2 72bd 3b78 fc3b cd58 5bbd 15cb b33c
00000160: a7a2 2e3c 6900 60bc c515 203d b08e 003d
00000170: 37b4 ccbc 3d67 4d3d 1288 83bb 1378 f3ba
00000180: b0b9 d439 2a67 a7bc 1d53 4dbd 47f5 4a3d
00000190: c505 88bc 17d5 30bd 91f2 b63c 8bac a53c
000001a0: a939 403d 4cbe abbc 1d76 b6bc 1026 093d
000001b0: a89f 06bd 9426 f9ba 22fe 9c39 389d 663c
000001c0: 531d 753d 2345 7b3d aa53 423d 84f6 55bd
000001d0: 9248 e8bc c505 5abd e9eb d4bc 158f 623d
000001e0: e417 423d c100 06bc 28fa 65bb c2b3 efbb
000001f0: f630 2bbd 5877 7ebd 9037 793b 79f3 6f3d
00000200: 0482 8dbc a16e 113d 0a56 b43c 836b 58bd
00000210: 42d0 a4bc 13c1 e73c 7acb a6bc 536a 77bd
00000220: 7d29 5b3d ee04 cc3c 9f78 16bd 3142 72bd
00000230: acbf 58bc 6a18 7e3d 928d 31bd 8383 7dbc
00000240: ac91 2c3d d6ca 67bd 5e73 d439 8629 1abd
00000250: 412e 463d 37ce 993c 30a1 0dbd c420 59bd
00000260: ff0b 21bd 90e9 d03c a204 253c 454e eb3c
00000270: 1785 ac3c 8f3a 813d badc 38bd 2754 08bc
00000280: e6ba 9fbc e92a 60bd ae01 93bc 956e 69bd
00000290: df81 973c a165 0dbd 4da3 273d 2128 61bd
000002a0: 2b4b 8fbc 99ed 73bc 176d 6b3d d571 253d
000002b0: e2a8 603d 1707 293d bc42 31bd 524f 6cbd
000002c0: 126d 30bd fe39 d93c 23de 523d fd3d 2c3c
000002d0: cb18 b83c e3fc 23bd ac45 9a3c 32aa 673d
000002e0: 3f56 63bc 5cac 18bd 7c66 a83c 0dc6 b6bc
000002f0: 822c ad3c 69c5 0bbc c9fa 8dbc 4519 803d
00000300: 477c 08bd d3c7 e83c 932f 1e3d 5800 26bc
00000310: cc4b 8c3c bbfd be3c ca36 9cbc 74c2 653d
00000320: 0526 743d 0a7b 183d a7b2 7dbd 593d a7bc
00000330: cbe1 ff3c cb83 acbc 1d56 c33c 83c2 96bb
00000340: 9b30 d8bc 5903 2cbd bca4 013d 1543 013d
00000350: 981c 673d 44aa 71bc 7b3b d0bc 2d90 15bd
00000360: 890d 6f3d 121e 873a a985 74bd 2e2b 59bd
00000370: fbb1 f63c 8d42 60bd b6c1 7abd e4fa 1cbd
00000380: 813b 113a f4cc a03c da69 5fbd 2ecf 25bd
00000390: 4164 363d a0f8 58bc 5c7e 6a3d 8c52 83bb
000003a0: 8cfe 1b3d 130e fdbc 1469 c83c 0b7b 323d
000003b0: b917 2bbd f1fb 353d c871 5c3d 8400 493d
000003c0: f1ae 5a3d e4df e9bc 69ef 523d cc3c d33c
000003d0: 93a7 8abb ba37 ecbc db10 55bd 4556 5f3d
000003e0: 27ff 51bc a43a 68bd ed1b 7c3d 1e41 193d
000003f0: 9536 663d f03b a1bb 76c0 0d3d 8258 4d3d
-0.046873312 -0.030419538 -0.017441023 0.050725076 0.041160457 -0.051481612 0.052057393 -0.054958135
-0.0597207 -0.022919608 -0.05979521 0.039644428 0.00914448 0.02906222 -0.013978754 0.05670143
-0.0499351 -0.029245805 -0.04849221 -0.016441448 -0.058407586 -0.038884513 0.039812814 0.02159039
-0.052661102 0.017656183 0.012110215 0.044422667 0.05524719 0.015951589 -0.019490626 0.02133614
-0.048374474 0.01797576 -0.022397712 -0.023517963 0.018918222 -0.03047192 -0.03295863 -0.045466844
-0.021575382 0.04109538 0.05063678 0.038064852 -0.021859292 -0.029052494 -0.011807103 -0.032007568
0.03262627 -0.0069546048 -0.035742637 0.008723115 0.0025979765 0.009373261 0.029541412 0.019353596
0.022505406 0.022130458 -0.0457267 0.028627865 -0.01584372 -0.049550273 -0.01580491 -0.013891251
-0.009069266 0.037184086 -0.023418676 -0.036423575 -0.033147417 -0.033430237 0.042725857 0.031886794
0.018406047 0.03828172 -0.0045766057 -0.046390146 0.06183399 -0.045685824 0.057767443 0.045421615
0.010468555 0.051155303 0.042978898 -0.05093376 -0.059282534 0.0077047623 -0.053551484 0.021947423
0.0106588965 -0.013671973 0.03908326 0.031386077 -0.024988277 0.050147284 -0.0040140236 -0.0018575214
0.0004057414 -0.020434935 -0.05012809 0.04955032 -0.016604314 -0.04317197 0.022332462 0.020223876
0.04692999 -0.020964764 -0.022273118 0.033483565 -0.032867104 -0.001900869 0.00029943982 0.01407557
0.05984242 0.06134523 0.04744307 -0.05223705 -0.028354917 -0.05322816 -0.025991397 0.055312235
0.047386065 -0.008178891 -0.0035091732 -0.00731513 -0.04179474 -0.062125534 0.0038027503 0.058581803
-0.01727391 0.035505895 0.022013683 -0.052836906 -0.020118836 0.028290307 -0.020360697 -0.060404133
0.053506363 0.024904694 -0.036736127 -0.059145156 -0.013229292 0.062035 -0.043347903 -0.015473249
0.04213111 -0.056589924 0.00040521746 -0.037637256 0.048383955 0.018775089 -0.03457755 -0.053009763
-0.03931808 0.025501996 0.010071905 0.028723845 0.021059556 0.06309997 -0.045132376 -0.008320845
-0.0194983 -0.054728422 -0.017945137 -0.056990225 0.018494545 -0.03452075 0.04092722 -0.05496991
-0.017491898 -0.014888191 0.057477083 0.04039176 0.05484856 0.041266527 -0.043276533 -0.057692833
-0.043072768 0.02651691 0.051481377 0.010512826 0.02247276 -0.040036093 0.01883205 0.056558795
-0.013875543 -0.03727375 0.02055668 -0.022311235 0.021139387 -0.008530953 -0.017331498 0.0625482
-0.033321645 0.028415596 0.03861959 -0.010131918 0.017125987 0.023314347 -0.019069094 0.056093648
0.05960657 0.037226714 -0.061937954 -0.020414995 0.031235596 -0.021058938 0.023844773 -0.0046008243
-0.026390364 -0.04199538 0.031651244 0.031558115 0.056423753 -0.014750067 -0.025418987 -0.03651445
0.058362518 0.0010308644 -0.05969778 -0.053019695 0.030114165 -0.054750968 -0.061219893 -0.038325205
0.0005540178 0.01962898 -0.054544307 -0.040480785 0.044529203 -0.013242871 0.057249412 -0.004007643
0.03808455 -0.0308905 0.024464168 0.043574374 -0.04177067 0.044429723 0.053819448 0.049072757
0.053389493 -0.028549142 0.05149785 0.025785826 -0.004231402 -0.028835166 -0.052018028 0.054525632
-0.012817181 -0.05669655 0.06155007 0.037415616 0.056204397 -0.004920475 0.034607373 0.050133236

smallfc.0.0.bias f4 [32]
00000000: 9fe8 623c 59bc 94bc c85c ae3c c08d cbbb
00000010: 23c0 2b3a 6737 80bd 4a58 253d e570 83bd
00000020: cf62 bc3b c068 3abd 9c7b 6c3d 4494 ea3c
00000030: 1264 d5bc 170e cdb9 02de f13c 968c 13bd
00000040: 7f61 323d 4557 7a3d 71b8 c6bc 07de 1c3d
00000050: 9e24 3a3d 4646 5abd 7d51 e7bc 3463 77bd
00000060: c731 2cbd 32d0 60bd fbd2 16bb 623e 283d
00000070: 5f7c b23c 0dc5 4cbb b624 713d 812f 51bd
0.0138494065 -0.018156217 0.021284476 -0.0062119663 0.0006551763 -0.06260567 0.040367402 -0.06418017
0.0057490836 -0.045510054 0.05773507 0.028635152 -0.026048694 -0.00039111145 0.029524807 -0.036022745
0.04355001 0.061118383 -0.02425787 0.03829768 0.045445077 -0.053289674 -0.028237099 -0.06039734
-0.04203966 -0.05488605 -0.0023013938 0.041075118 0.02178782 -0.003124538 0.0588729 -0.051070694

smallfc.0.2.weight f4 [3, 32]
00000000: 3b11 08be 336a 0e3e c201 f3bd 2bcb 2c3e
00000010: 97cf 70bd 303f 1fbe d057 06be 975b c83d
00000020: 55bc 80bc 863b a3bd b4d1 a3bb 7400 093c
00000030: f0eb 2ebc 5337 c93d b2f5 14bd df87 93bd
00000040: d224 f83d a072 083e d757 15bd 8801 b3bd
00000050: af63 623d 4472 b43d 03fe 69bc 1e1d a1bd
00000060: 00e2 e9bd 5713 35be 7299 0ebd 1faa 8dbd
00000070: cd82 9bbc be40 01be 4f86 a1bd 83f9 073e
00000080: 4031 28be 6e42 babd d4e5 063e 174c 7e3d
00000090: bcec 203e 2261 663c 49fa dd3d 21ff ef3d
000000a0: 193f 133e 0f77 01bc 46cb 03be e55f 0bbe
000000b0: ff2b 10be fe8e d43d db8d 31be b66d 833c
000000c0: 463c 443d 1ffb c13d 4875 0b3d 2de5 c53d
000000d0: 7e40 563d 92d1 283e 8cd8 6f3d ae7c 0bbd
000000e0: 14ba 84bd 29d7 18be b214 0abd a742 2cbb
000000f0: 0405 b23d f33c a1bd 38bf 17be 65ab a1bd
00000100: da2b dfbd 959c dc3d e368 24be ce4a 31be
00000110: 9dc9 14be cd20 be3d 13c1 2bbe b23e 873c
00000120: 6eea 43bc db9d 113e 0877 0dbe 8cc3 233e
00000130: a70c 4cbd 3792 b43d fdd7 81bd 3f42 3b3d
00000140: e6cd 0c3e de61 c6bd e0e8 14be 4121 ef3a
00000150: 8a36 b53d 06df 633d 085a 6fbd 661e 2ebe
00000160: c238 21be dd25 e13d b94d f83d d4c8 b4bd
00000170: ed2b 223e 0d49 24be 8110 223e 8c29 c1bd
-0.13287823 0.139077 -0.1186557 0.16874377 -0.058791723 -0.15551448 -0.13119435 0.097830944
-0.015714804 -0.079703376 -0.004999364 0.008361924 -0.010676369 0.098250054 -0.036367126 -0.0720365
0.12116398 0.13324976 -0.036460724 -0.087405264 0.055270847 0.08810857 -0.0142817525 -0.07866882
-0.11420059 -0.17683159 -0.034814306 -0.06917214 -0.01898327 -0.12622353 -0.078869455 0.13278775
-0.16425037 -0.09094702 0.1317361 0.062084284 0.15715307 0.014061244 0.10838754 0.11718584
0.14379539 -0.007901921 -0.12870511 -0.136108 -0.14079283 0.10378836 -0.1733927 0.016043525
0.047909044 0.09471726 0.034047395 0.096628524 0.0523076 0.16486195 0.058556125 -0.03405445
-0.06480804 -0.14925827 -0.033711143 -0.0026284845 0.08692363 -0.07872953 -0.14819038 -0.07894019
-0.10897036 0.10772053 -0.16055636 -0.17313692 -0.14530034 0.092836 -0.1677287 0.016509388
-0.011957748 0.14220373 -0.13814938 0.15992564 -0.049816754 0.08816951 -0.063400246 0.045717474
0.13750419 -0.096866354 -0.1454196 0.0018244163 0.08848293 0.055632614 -0.05843547 -0.17003784
-0.15744308 0.1099355 0.121241994 -0.088273674 0.15837069 -0.16043492 0.15826608 -0.094317526

smallfc.0.2.bias f4 [3]
00000000: c867 90bd a4c7 21be f704 063e
-0.07051045 -0.15798813 0.13087831

smallfc.1.0.weight f4 [32, 256]
00000000: bdcd 68bd c75a 2e3c a151 febc 98e6 2dbd
00000010: 71c5 173d 4daa 263d 2f61 8cbc 8ed7 603d
00000020: c291 53bd ce43 28bc 16f3 37bc d778 313c
00000030: 4ee8 843c 9efd 5c3d 2d8f 563d 5719 cdbb
00000040: 78d4 30bd 1154 693d 2fb9 9cbc 1c6c 593d
00000050: 7948 6bbd e105 513d 3135 253d 8e14 d8bb
00000060: 9114 38bd 948f 36bd 6315 72bb e7a5 113d
00000070: 6a49 95bc c76c 42bd c545 bfbc c420 4ebd
00000080: 2f0d 4bbd 54ad 0a3d 67b9 dc39 ccaa 74bc
00000090: f50d 29bd 3b06 4a3c d907 fa3c 05a9 cbbc
000000a0: 412d 273d e85d 1cbd 5807 15bc cb95 c9bc
000000b0: a5d6 79bd 0f75 81bd a6c1 7d3d f4bf 99bc
000000c0: d35e 18bc 9904 2a3d 1a95 71bd 3c45 9a3c
000000d0: 0432 df3c 1013 79bd 5f0f 843d f5c4 ae3c
000000e0: baba 87bc 6c36 573d 5763 6bbd 42c9 3c3d
000000f0: 456e c9ba 8e05 82bb c2fc 63bd 8cc2 863b
00000100: 4a49 f4bc 6501 6a3d 1139 7abd 8f57 94bc
00000110: b307 1d3b 7970 8e3c 0eaf 4a3d 4628 f63c
00000120: a607 a03c 0e8d 04bd 3245 57bd a4f4 54bd
00000130: 3621 d33b 6047 303d 846e ca3c b7f8 433c
00000140: b35b a43c 22d6 6e3d 60b1 203a f43a 1e3c
00000150: 00ed f0bc a505 603c cf3e 3ebb 6575 21bd
00000160: 3e98 2a3d 4f43 c03c 2b59 6c3d 6cfb 08bd
00000170: 9dca a63c 797e 70bd e9d2 f23c 92d8 1f3d
00000180: 7747 1dbd f546 c53c 4da4 b4bc b76d 583d
00000190: e062 07bd c69a 52bc a1ea 543d 8cd9 23bc
000001a0: e18f 3cbd be10 153d 01fd d0bc 3854 c3bc
000001b0: 6e42 29bd af73 723d fb65 38bd 818b 713d
000001c0: 26a6 d4bb 3495 72bd 1583 8e3b 35bb 3fbc
000001d0: 9f32 44bd 5625 d8bb 111a 78bb d874 88bc
000001e0: e3e4 34bd 6c2b 033d 874a 5ebd cb50 503c
000001f0: e0d3 41bd 885e 8dbc 305b 6ebd f9ca c63b
00000200: c331 2f3d 51ac d6bc aa54 b23c b075 0bbd
00000210: c8bb 80bb 8225 633b f00f 22bd 20bd 743d
00000220: de22 4cbd 1d98 64bc dd89 2fbd 0a61 4b3d
00000230: 4bdb 013d a15f 573d d333 483d ad98 443d
00000240: 7be1 bb3c ac92 5e3d 4cf9 043c 74f2 0f3d
00000250: 94ec b6bc b6b5 42bd f512 6fbd 043e 1b3d
00000260: 3947 643d bfe0 1dbd 9ec6 e33b 5fa8 3a3c
00000270: 8e79 53bc 1ce6 fcbc 6e1f b2bc cbb5 093d
00000280: 995f 953c a21a 31bd fdbe d93c 8b36 7f3d
00000290: a3c7 a63c d620 a53b 089e 45bd e85e 8d3c
000002a0: 744f 113d 8be4 f2bc 2cf9 c9bc 96fd 9abb
000002b0: e087 d1bb 4020 fd3c 2ec5 363d 6910 56bc
000002c0: 1a71 0abd 4e25 7ebd c8c8 f83c d050 3abd
000002d0: 0297 3b3d b289 3ebd 98e1 8abc e111 483d
000002e0: aaa3 6a3d 35fb 35bd cf4e 79bd fa42 433d
000002f0: ef5b 91bc 3dae 153d 2e72 663d 1b62 0bbd
00000300: 21f6 2b3d 69b1 303d 094a a0bc fe42 2d3d
00000310: f3dc a3bb ec21 01bd a5f8 8e3c 80cf aa3c
00000320: 0afd 5cbd 8e90 643d 616f cabc c4c2 393d
00000330: c2bc 2abd 6276 2d3d f68d 713d 5b80 723d
00000340: e8da b43c 37cf 3fbc 61f9 5a3d 2280 513d
00000350: b88e ae3c 56a1 4c3d f1db 6e3d 5505 3d3d
00000360: 37d3 83bc f05a e8bc 8203 3cbd 1ebb 483d
00000370: 7205 5a3d 93cc f3bc 74ca f53c f523 5b3c
00000380: adf8 b13c 3c1b 07bd d74b 563d c675 a93c
00000390: 78bd 37bd 1eb7 f1bc d991 5b3d 1c1a 74bc
000003a0: 83ce 153d 442a 24bd c5bb e3bc 377f dd3c
000003b0: 166d 7b3d e816 dfbc 26d2 023d 0391 303c
000003c0: 31e5 72bd bd97 1bbd 6e7f 68bd d113 7e3d
000003d0: a886 753d 075f 6d3d 6aa7 a9bb a067 b4bc
000003e0: 73fd 58bd 6b9c debc 1fb1 49bd 74af bfbc
000003f0: bfa8 363d 1974 43bd 7cb0 553d 723f 64bd
-0.056836832 0.01064176 -0.031044783 -0.04245624 0.03705353 0.040689755 -0.017136184 0.05489307
-0.051652677 -0.010270072 -0.01122739 0.010832033 0.016224053 0.053952806 0.052382637 -0.0062591243
-0.043171376 0.056964938 -0.019131271 0.053081617 -0.057442162 0.051030997 0.04033393 -0.006594247
-0.04494149 -0.04457052 -0.0036939017 0.035558607 -0.018223483 -0.04746702 -0.023348698 -0.050324216
-0.04957312 0.033856705 0.00042099805 -0.014933299 -0.041273076 0.012330587 0.03052132 -0.024860868
0.040814642 -0.038175493 -0.009095989 -0.02460756 -0.060995717 -0.06321155 0.061952256 -0.018768288
-0.009299952 0.04150829 -0.058980085 0.018831842 0.027245529 -0.060809195 0.06448244 0.02133415
-0.01656853 0.052542135 -0.057467785 0.046090372 -0.0015367946 -0.0039679473 -0.05566097 0.0041125473
-0.029820103 0.057130236 -0.06108958 -0.018108157 0.0023960888 0.017387616 0.04948335 0.0300485
0.019534897 -0.032361083 -0.052556224 -0.05199112 0.006443168 0.04303682 0.024710901 0.011961154
0.020063257 0.05830968 0.00061299466 0.00965761 -0.029409885 0.013673221 -0.0029029136 -0.039418597
0.041649096 0.023469595 0.057702225 -0.0334429 0.020360285 -0.058714364 0.029641585 0.039024897
-0.038398232 0.024081687 -0.022051001 0.052839007 -0.03305328 -0.012854284 0.051981572 -0.010000598
-0.04603565 0.03639292 -0.025511267 -0.02384387 -0.041323118 0.059192356 -0.04501913 0.058970932
-0.006489533 -0.059224322 0.0043491223 -0.0117023485 -0.04789984 -0.0065962477 -0.0037857334 -0.016657278
-0.044163596 0.032023832 -0.054270294 0.012714575 -0.0473212 -0.01725699 -0.058192432 0.0060666767
0.042772066 -0.026205214 0.021768887 -0.034047782 -0.0039286353 0.0034659808 -0.03956598 0.059750676
-0.04983794 -0.013952282 -0.042856086 0.04965309 0.031703275 0.052581433 0.04887755 0.047997165
0.022934666 0.054339096 0.008116078 0.03514333 -0.022329606 -0.047536574 -0.05836769 0.03790094
0.055731986 -0.038544413 0.0069511672 0.011392682 -0.012907399 -0.030871443 -0.021743502 0.033620637
0.018234061 -0.04323829 0.026580328 0.062307876 0.020358866 0.0050393147 -0.048246413 0.017257169
0.035476163 -0.029649993 -0.024654947 -0.004729937 -0.0063943714 0.030899167 0.04462164 -0.013065436
-0.03379927 -0.062047295 0.030369177 -0.045487225 0.04579831 -0.046518035 -0.016953275 0.048845176
0.05728499 -0.044429023 -0.060866173 0.047671296 -0.017744033 0.03654312 0.056261234 -0.034029108
0.041982774 0.04313794 -0.019566553 0.042300217 -0.0050007044 -0.03152649 0.017452547 0.020850897
-0.053952254 0.05580192 -0.024711313 0.04535176 -0.04168392 0.042349227 0.058973275 0.05920444
0.022077039 -0.011707119 0.053460483 0.051147588 0.021308288 0.04995855 0.05831522 0.046147663
-0.016091926 -0.028363675 -0.045901783 0.049006574 0.05322785 -0.029760635 0.030003764 0.013375272
0.021725023 -0.032984957 0.05231842 0.020686042 -0.044858426 -0.029506262 0.053605888 -0.014898803
0.036573898 -0.04007937 -0.027799496 0.0270382 0.06138333 -0.027232602 0.031938694 0.010776761
-0.059300605 -0.037986506 -0.05676215 0.062030617 0.05994287 0.057951953 -0.005177428 -0.022022069
-0.052976083 -0.027174195 -0.04924118 -0.023399092 0.044594523 -0.04771814 0.05217026 -0.05572457

smallfc.1.0.bias f4 [32]
00000000: e589 a33c 4f83 803d c2b1 5a3c 580e 5a3b
00000010: 8502 173b 2840 13bc 7c76 963c 90e9 3d3c
00000020: 8ba1 803d 702a 05bd d54d 07bd 7cc8 613d
00000030: 23a6 0f3d 1259 c83b e8c3 533d 4705 85bb
00000040: abc0 b53c acd2 833c 3148 703b 5832 163d
00000050: dba3 05bd cc81 9bbc a55e 383d bc1a 183d
00000060: 5b29 a83c 1a4b 003d 670c 293d 4a4a 65bb
00000070: f52a 753d 3a1f 893c fd3d 4bbc 1eee d73c
0.019963214 0.06275045 0.013348045 0.003327271 0.0023042273 -0.008987464 0.018367045 0.01159133
0.06280812 -0.032511175 -0.03303321 0.055122837 0.03507055 0.0061141336 0.051700503 -0.004059467
0.022186598 0.016091667 0.0036664123 0.036669105 -0.032626968 -0.01898279 0.045012135 0.03713487
0.020527532 0.031321622 0.041271593 -0.0034986907 0.05985542 0.016738523 -0.012404916 0.02635866

smallfc.1.2.weight f4 [3, 32]
00000000: 3cb7 793d 8b0f 09be de0c fa3b 3e8a 2e3d
00000010: 73fe 013e 75ba 12be bc59 03be 30e5 09be
00000020: 6767 c93d 534a 0cbc 52f1 29be e442 eabd
00000030: 4898 1b3e b82a b53d a628 073e ebc0 32be
00000040: 7370 8dbd cc37 453d 670c a73d 25cc 173e
00000050: eb24 2abe 9b7f c23d 4c97 f43c 88e9 313e
00000060: 83c4 17be 5f3f 113c 48ea 2ebe 5bc8 4abd
00000070: 6df1 b93d d61c ee3d 5889 26be 78be 8e3c
00000080: 63c6 173e 8837 1bbd c4a1 f0bc a340 bb3c
00000090: c301 2cbc 143d d5bb 6a90 1f3e 4842 81bd
000000a0: 6d9b 26be 907b 163e 7dc9 82bd e23b a3bd
000000b0: cdec 7cbd 6b8e df3d ba11 173c 65a3 cb3d
000000c0: 919d f0bd faf4 8dbd 295b f8bd 1ca2 083e
000000d0: ea58 23be ac37 29be 1d19 cf3d d0d1 cfbd
000000e0: 970a 1a3e c692 11be f361 09bc 81c9 a33d
000000f0: 1b69 db3d 201b 8fbd 84e5 35bd 6963 823d
00000100: b44f babd e5af d0bd 4a57 c03d 286e 343d
00000110: 2f00 21be 4156 eebb 2e7d 8d3d 4361 2dbe
00000120: e92f a6bd 4f0e 23be b609 33be b07a 9abd
00000130: 68f4 213e c72c e838 ad8b 3cbc 4443 083d
00000140: 6786 143d d0be 3cbb d42c 943d 87e3 58bd
00000150: c86e 313e 4cad 533c cef6 71bd 846d 6ebc
00000160: 02b4 d33d 5351 f0bd 1580 273e 719f a6bc
00000170: a8f0 60bc 7b83 93bd 3406 d13d 4a4c 753d
0.06096576 -0.13384835 0.0076309284 0.042612307 0.12694721 -0.1432894 -0.128272 -0.13466334
0.098341756 -0.008562642 -0.16595963 -0.114385396 0.1519481 0.088460386 0.131991 -0.17456405
-0.069062136 0.048148915 0.081566624 0.14823969 -0.16615646 0.09496995 0.0298573 0.17374241
-0.14821057 0.0088652065 -0.17081559 -0.04950748 0.090792514 0.11626594 -0.1626333 0.017424807
0.14821772 -0.037894756 -0.02937401 0.02285797 -0.010498467 -0.006507525 0.15582433 -0.0631147
-0.16270228 0.14695573 -0.06386087 -0.07970406 -0.06174927 0.10915836 0.009220535 0.099432744
-0.117488034 -0.06931491 -0.121267624 0.1334309 -0.15951887 -0.16525143 0.10112212 -0.101474404
0.15043102 -0.14216146 -0.008385169 0.07997418 0.10713407 -0.069875956 -0.044408336 0.06366617
-0.090972334 -0.10189799 0.09391649 0.044050366 -0.15722726 -0.007273466 0.06908642 -0.16931634
-0.08114607 -0.15923427 -0.17484173 -0.07542932 0.1581589 0.000110709625 -0.011507911 0.033267274
0.03626099 -0.0028800257 0.07235113 -0.052951362 0.17327416 0.012919735 -0.059073262 -0.014552478
0.10337068 -0.11734261 0.16357453 -0.0203397 -0.013729252 -0.07202812 0.10206261 0.059887208

smallfc.1.2.bias f4 [3]
00000000: 3435 813d 3728 85bd d12e dcbd
0.06308976 -0.06501811 -0.10751117
