LPSDA/exp_burger/1/deltamodel.pt (torch, 476706 bytes, 28 tensors)

fc1.weight f4 [256, 3]
000000 31 b4 98 3e 13 57 83 be e9 38 e6 bd ea 3d 8b 3e
       0.29824975 -0.2565237 -0.112413235 0.27195674
000010 fd dc 0b bf fa e0 b1 3e 2c 1c f2 bd fe e7 96 3e
       -0.54634076 0.34741956 -0.118217796 0.2947387
000020 79 34 a5 3d 38 51 8e bd c5 cf 24 3e 4c 42 f5 3c
       0.08066649 -0.06949085 0.16094883 0.02993884
000030 aa 0b 57 3e be d6 64 be 4e f5 26 bd 40 5c 44 bd
       0.21000543 -0.22347543 -0.040761285 -0.04793954
000040 97 3d ae 3d f2 c6 fa ba ae 08 01 3f e3 49 37 3e
       0.08507841 -0.0019132777 0.5040387 0.1789928
000050 07 15 5c be c6 6c b2 be 33 02 c0 bd aa ec 7d be
       -0.21492396 -0.34848613 -0.093754195 -0.24797311
000060 4b c3 3b be 4e 1f ed 3c b3 d1 b0 3e ab 0e a0 3e
       -0.18336217 0.028945591 0.34534988 0.3126119
000070 92 5b 10 bf 16 f2 b6 3e b5 38 28 3e 01 a3 0c 3f
       -0.56389725 0.35731572 0.16427882 0.54936224
000080 ef 78 c4 3e 3c 66 06 bf c8 1d 0c bf 7f 2c 8d be
       0.38373515 -0.5249975 -0.5473294 -0.2757301
000090 94 53 01 3f fd 70 c3 bd 1d af 7d 3e f4 02 89 be
       0.50518155 -0.09543035 0.24773832 -0.26760066
0000a0 53 3b 11 3f 66 f3 79 be 9b 63 de 3e 2b 67 ff 3b
       0.56731147 -0.24409255 0.43435368 0.007794281
0000b0 44 bd 9c be be fd 96 3e 47 4f 9d be e9 91 2c 3e
       -0.30613148 0.29490465 -0.30724546 0.16852535
0000c0 34 16 2a be e5 72 82 bd b2 20 0e bf 87 16 8d be
       -0.16610032 -0.06369571 -0.5551864 -0.2755625
0000d0 b4 21 a0 3e b0 79 0f be b8 05 13 3f 10 87 ec 3e
       0.31275713 -0.14011264 0.574306 0.46196795
0000e0 db a3 c9 bc 47 08 c5 be e1 82 b4 3e a4 c5 37 3e
       -0.024614265 -0.38482878 0.35256103 0.17946488
0000f0 59 b3 c0 be ce e4 bf 3e e2 7c b2 3e 58 97 03 3f
       -0.3763683 0.37479252 0.34860903 0.5140281
000100 52 5e a5 be c5 b6 bd bd 4a cd 2b bc 2d 8f ab 3d
       -0.32298523 -0.09263376 -0.010485956 0.08376918
000110 a3 04 e0 be 20 31 d2 be 90 61 9f 3e df 8b 0b be
       -0.43753538 -0.41053104 0.31129122 -0.13627575
000120 c6 6e 8f 3e ca 9e 01 3d 84 f9 41 3e b6 0f 02 3e
       0.280142 0.031645574 0.18942839 0.12701306
000130 89 b5 56 3e 2f 76 92 3e ac 8a 08 bf b5 dd 95 3e
       0.20967688 0.28605792 -0.53336596 0.29270712
000140 77 0f d0 be ae b6 de be 2f cf 10 3d 43 22 ca bd
       -0.406368 -0.4349875 0.035353836 -0.09869816
000150 f5 2e ad 3e e4 00 ab be fa 8b 03 bf d4 74 d7 3e
       0.33824888 -0.33399117 -0.5138546 0.4208132
000160 6c 42 ae bd 36 86 a6 3e df a0 3e 3e fe 6b dd be
       -0.08508763 0.3252427 0.18616055 -0.43246454
000170 eb fa ee 3d fc 37 0f 3e 4e 2b c6 be b8 38 8c be
       0.116689526 0.139862 -0.38704914 -0.27387023
000180 9f a2 48 3e 40 76 d3 3d 5d 2e 7c be 00 2c 31 be
       0.19593285 0.10325289 -0.24627061 -0.17301941
000190 95 9d 07 3f 8a dd d7 bd 23 50 a7 3e a2 a2 80 3e
       0.52974826 -0.10540302 0.32678327 0.2512408
0001a0 f5 12 bf be 32 26 fb be 7d 24 0e 3f 7c 55 00 3d
       -0.3731915 -0.49052578 0.55524427 0.031331524
0001b0 a5 21 ca 3e 6a ce f2 3d df 4b 3c 3e fa 10 dd 3e
       0.39478794 0.118557766 0.18388318 0.43177015
0001c0 c7 80 0c 3f c1 30 c4 be c7 44 96 3d 6e 65 dc 3e
       0.54884 -0.38318446 0.07337337 0.43046135
0001d0 59 1a d6 3e c3 74 b7 3e b3 b5 d5 be 1b c6 d5 be
       0.41816977 0.3583127 -0.41740188 -0.41752705
0001e0 22 3b b3 be 64 3c 90 3d 5e 1a 13 3f ef 03 ba be
       -0.35006052 0.070427686 0.5746211 -0.36331126
0001f0 29 2c 9e 3e 90 15 a3 be 58 60 0b bf 7f 60 fa bd
       0.30893067 -0.31852388 -0.54443884 -0.122254364
000200 c9 8e aa 3e fe 56 09 3f ad ce b6 be b8 73 01 3e
       0.3331206 0.53648365 -0.35704556 0.126418
000210 b4 41 ff 3e c7 39 c4 3e 37 fd b9 3e 97 c0 d2 3e
       0.49854815 0.3832533 0.36326 0.4116256
000220 08 c4 b9 3e 58 29 19 3e a0 6d c9 be a2 fc f6 be
       0.36282372 0.14957178 -0.3934145 -0.4823962
000230 28 65 86 be 91 c3 83 bd 16 dc b5 be 75 cf 58 3e
       -0.2624905 -0.06433786 -0.35519475 0.21172889
000240 50 78 35 3e 58 75 05 be c8 a1 62 3e 8c cd 3f 3e
       0.17721677 -0.13033044 0.22132027 0.18730754
000250 70 33 b5 3e 6c 14 c8 3e 5f 8d 46 be 20 65 10 3f
       0.35390806 0.3907808 -0.19389866 0.56404305
000260 d4 63 87 bd 8b 5e 9b bc 29 dc 0b bf c6 f5 bd be
       -0.066108376 -0.01896598 -0.5463281 -0.37101573
000270 69 17 af be 33 40 7e be 8b 25 d1 3e 42 1e 41 be
       -0.34197548 -0.24829178 0.40848956 -0.18859199
000280 15 1a dd be 02 de 62 3e 21 41 3d 3e 2c e5 bf 3e
       -0.43183962 0.22155002 0.18481876 0.37479532
000290 0f 71 98 be e3 18 05 3e 78 ae 57 be 82 78 03 be
       -0.29773757 0.12997775 -0.21062648 -0.12838939
0002a0 4a 03 ec be b1 d0 85 be 24 af 33 be 5a 01 7d 3e
       -0.4609626 -0.2613578 -0.1754728 0.24707547
0002b0 5b ea d9 3d 21 9a 11 3e 21 84 13 3f 42 87 10 3f
       0.10640403 0.14218952 0.5762349 0.5645639
0002c0 0d 91 c9 3e fc 68 9c 3c 13 1d cd be 7b 21 e7 3e
       0.39368477 0.01909303 -0.40061244 0.4514273
0002d0 d1 6d 15 be ca 3c 40 bd dd 45 ff be 9c b6 e8 bd
       -0.14592673 -0.046932973 -0.4985799 -0.11362955
0002e0 6f 11 be be b8 02 08 3f dc 82 00 bf 35 d7 e5 be
       -0.37122676 0.5312915 -0.50199676 -0.44890752
0002f0 8f 95 ae bc e9 8c 9f be eb 7f 54 3e d7 22 62 be
       -0.02131155 -0.31162193 0.20751922 -0.22083603
000300 ec ed 89 be fe 66 f8 3c 40 07 d6 3e 6f 88 cf be
       -0.26939332 0.030322548 0.41802406 -0.40533778
000310 b5 0d 8b 3e 71 52 be 3e 3a cd 10 3f 5d 05 cf be
       0.27158895 0.37172273 0.5656315 -0.4043378
000320 7c 2a 0f 3e 7f eb d9 be 8d 5b fc 3e 53 d0 65 be
       0.1398105 -0.42562482 0.49288598 -0.2244275
000330 7c 01 b2 3e 54 79 8e 3c a4 fb 31 bd 0d 60 95 bc
       0.34766757 0.017391838 -0.043452874 -0.018234277
000340 3c 0c cb 3d aa 24 8b 3e 15 31 bb 3d 74 40 33 3e
       0.09914443 0.2717641 0.09140221 0.17505056
000350 74 b6 04 bf af 1a d7 3e 74 12 01 3f de 47 f4 3e
       -0.518409 0.42012545 0.5041878 0.4771108
000360 5e 2a da 3e b1 70 d5 be 49 b5 5c be a1 d2 02 3f
       0.4261045 -0.4168754 -0.2155353 0.51102644
000370 bb 65 e0 be 45 76 06 3f 33 5d e9 be c0 f8 ce be
       -0.43827614 0.52524215 -0.45578918 -0.40424156
000380 e6 3f 90 3e c7 f3 d5 be 9c 25 08 be 1e cf d5 3e
       0.2817375 -0.4178755 -0.13295597 0.4175958
000390 4b b3 ea 3e 4e 6f 0b 3f bd 73 f1 bd 5f a7 e5 be
       0.45839915 0.5446671 -0.117896535 -0.44854257
0003a0 4b a5 11 3f 9c 17 fa bd 28 ed 72 be 83 64 0f 3e
       0.5689284 -0.122115344 -0.2372328 0.14003186
0003b0 88 45 cf be 1e 66 c1 3e 61 e4 b8 3e da ce e9 be
       -0.40482736 0.37773222 0.3611174 -0.45665628
0003c0 a2 e5 f4 be 61 5e 52 bd 49 4c 75 3e 29 9c 75 bc
       -0.47831446 -0.051359538 0.23954882 -0.014990845
0003d0 1f 44 96 be 0c 63 76 3c fb cb 0a bf ea 35 d1 be
       -0.29348847 0.015038263 -0.542175 -0.40861446
0003e0 52 f6 c3 be 27 60 f3 3e 84 63 02 3f 4a ce 48 be
       -0.38273865 0.47534296 0.509331 -0.19609943
0003f0 98 3e d0 3c d4 9d 83 3e ed 43 8f 3d c3 ab 93 be
       0.025420472 0.2570635 0.06995378 -0.2884198

fc1.bias f4 [256]
000000 6d 38 bb bd fd bd 6b 3e 2d bd e2 be 20 92 a5 3d
       -0.09141622 0.23021694 -0.44284955 0.08084512
000010 56 f7 06 bf d8 8f b8 3e ca 74 0f 3f 10 ac 52 be
       -0.52721155 0.36047244 0.5603758 -0.20573449
000020 db d3 b0 3d 4f c2 98 be 3b c1 bb be d5 25 95 be
       0.08634158 -0.29835746 -0.3667086 -0.29130426
000030 70 50 8d be 5b 3f e2 3d e3 d9 81 bd a8 92 1d 3d
       -0.2760043 0.1104724 -0.06340387 0.03846994
000040 1c 55 e2 be 48 7f b9 be 88 50 00 bf b9 17 d4 be
       -0.44205558 -0.3622992 -0.5012288 -0.4142435
000050 6b 5c f6 3e 9c 1b 5c 3e b8 d0 0c bf 55 1d c9 bd
       0.48117384 0.21494907 -0.5500598 -0.09820048
000060 5c 05 36 3d de e8 9d 3e 2e 85 09 3f 68 f2 0f 3e
       0.044438705 0.30841726 0.5371884 0.14057314
000070 b3 ce cf 3e 40 d2 52 be 5b 7c 96 bc b1 d2 b1 be
       0.40587386 -0.20588017 -0.018369844 -0.34731057
000080 d0 bc 07 3e d8 b5 08 3f 69 6e ba 3e e6 27 13 3f
       0.1325562 0.5340247 0.3641236 0.57482755
000090 40 ef 85 be 5e f4 90 bd 20 c5 f5 3d 6c 7c ed 3e
       -0.26159096 -0.07077859 0.12000489 0.4638399
0000a0 66 ec 07 bf 28 87 90 be 82 d0 a8 3d f9 29 ab be
       -0.5309509 -0.28228116 0.08242895 -0.3343046
0000b0 4a e0 5c 3e 64 02 21 bd a8 36 18 be fb 11 9f 3e
       0.21569934 -0.03930892 -0.148646 0.31068406
0000c0 21 31 d3 3e d4 f5 0f 3f bd 52 87 3e a7 69 79 bc
       0.4124842 0.5623448 0.26430312 -0.015222943
0000d0 01 20 f0 3e 5f 81 eb 3e 7a 0d 94 be 88 49 89 3e
       0.46899417 0.4599714 -0.28916532 0.26813912
0000e0 7b c9 88 3d 56 68 7f be 43 8b 0c be c7 61 0b be
       0.06679054 -0.24942145 -0.13724999 -0.13611518
0000f0 1c 94 cf be 5b 1f 35 be f4 3b 43 3e 50 14 d9 3e
       -0.40542686 -0.17687742 0.19065839 0.4239831
000100 a0 07 36 3d 93 f1 0e bf 0c 97 9c 3e 55 f5 31 be
       0.044440866 -0.55837363 0.3058399 -0.17378743
000110 f7 d4 03 3f 38 c4 0e bf e5 54 0b be 82 c4 e4 3e
       0.51496834 -0.55768156 -0.13606603 0.44681174
000120 04 10 7f 3e 81 f3 92 be ad 2e 00 bf 64 f4 0b bc
       0.24908453 -0.28701404 -0.5007122 -0.008542154
000130 27 be 65 3e 00 03 f5 be b4 38 f7 be 31 65 14 bc
       0.22435819 -0.4785385 -0.4828545 -0.009057329
000140 d8 55 fb bd 1d 33 bd 3e e2 06 0f bf 6c 29 bd bd
       -0.12272233 0.3695306 -0.5586988 -0.09236416
000150 05 66 e5 be d3 af ab bd a1 18 97 be bd 53 39 3e
       -0.44804397 -0.08383145 -0.29510978 0.1809835
000160 f9 d6 f6 be 16 50 e9 be 3b fd a7 be 0e 68 01 bf
       -0.48210886 -0.45568913 -0.32810387 -0.505494
000170 ff 4e ba 3e 05 7d ac bd e2 38 a4 be aa 68 ce 3e
       0.36388394 -0.08422283 -0.32074648 0.40314227
000180 5b 55 06 be 16 a3 98 3e bb 63 36 be a0 59 f7 be
       -0.13118498 0.29811925 -0.17811482 -0.48310566
000190 5e 5b 00 3e a4 bd b7 3e d1 db 0f bf 6a b9 7e 3d
       0.12534854 0.35886872 -0.5619479 0.062188543
0001a0 1d 65 ed 3d 69 ab 85 3d 02 dc 82 bc 49 99 37 be
       0.115915515 0.065268345 -0.015974049 -0.17929567
0001b0 e8 b4 e5 be 09 b5 bd 3d 69 65 c6 be 73 53 f4 be
       -0.44864583 0.09263045 -0.38749245 -0.47719917
0001c0 cc 8b 3f be 41 39 c9 be e6 1b 37 3e 3c e1 d2 3e
       -0.18705672 -0.39301494 0.17881736 0.41187465
0001d0 0b 0f e6 3e d2 e7 b6 be 5f 4d a1 3e 23 83 d2 3e
       0.44933352 -0.3572374 0.31504342 0.41115674
0001e0 2a d8 d9 3b a6 9b 79 3e 21 1d a6 3e fc a7 e0 3e
       0.006648083 0.24375781 0.324441 0.43878162
0001f0 4e 55 9e 3e 2f c1 7b 3e 55 07 62 be d5 2a a5 be
       0.30924457 0.24585412 -0.2207311 -0.3225924
000200 be 4c 8c be 30 00 f3 3e b1 f4 0f be db 6a 9c 3c
       -0.274023 0.4746108 -0.14058186 0.019093921
000210 65 ea 09 bf c5 ac d2 bc 16 ad 25 be 15 92 be be
       -0.5387328 -0.025717149 -0.16179308 -0.37220827
000220 49 ef e5 3e 79 af ef be 18 d6 a7 bd de 38 29 bd
       0.44909123 -0.46813563 -0.08195132 -0.041314
000230 41 af 05 bf 9f 4f b2 3e 55 b1 3c be 52 75 85 3e
       -0.5222054 0.3482637 -0.18427022 0.2606607
000240 01 77 a5 3e c8 89 02 3f e6 c8 12 3e 8a 0d dd 3e
       0.32317355 0.5099149 0.14334449 0.43174392
000250 7a 7c 08 3f 15 11 ea 3d c1 fc f0 bd 67 78 22 be
       0.53314936 0.114290394 -0.11766959 -0.15866242
000260 b8 d8 c1 3d 4b fb 55 3e 17 89 0b bf 0b 6c de 3e
       0.09465164 0.20896642 -0.5450606 0.43441805
000270 64 74 ba 3d fb b1 09 bf ef f4 3d 3e 77 36 bb 3e
       0.09104231 -0.537872 0.18550466 0.3656499
000280 db 29 5c 3e c0 eb f1 3e 5f a1 3c 3c 48 f7 f4 be
       0.21500342 0.47250175 0.011513083 -0.4784491
000290 d3 24 02 bb 7a 7f d5 3e f3 5f 8e be 98 78 7d 3e
       -0.0019858375 0.4169882 -0.27807578 0.24753034
0002a0 db 15 07 3e 2f fb c3 bd 58 e3 c1 3b d4 dc 7c 3e
       0.13191931 -0.09569394 0.005916994 0.24693614
0002b0 42 4b ca be 7d 01 bb 3e 79 a2 c7 3e 72 bf a5 3e
       -0.39510542 0.36524573 0.38991144 0.32372624
0002c0 03 04 14 3f 55 08 d1 bc b7 ce d0 be 54 c0 d1 3c
       0.5781862 -0.025516668 -0.4078271 0.025604405
0002d0 cb 99 2a be 0d 9a 4f 3e 08 3a fb 3e f4 1e a2 be
       -0.1666023 0.2027361 0.49067712 -0.3166424
0002e0 d9 2d d0 3c ce 08 10 3f d9 e7 ec be ef 5c ce bd
       0.025412487 0.56263435 -0.46270636 -0.100763194
0002f0 80 cd 0f 3f 35 48 ce 3e f9 f5 2d 3e 80 06 80 be
       0.56172943 0.40289465 0.16988362 -0.2500496
000300 4d 1b 60 bd 01 d2 03 bf 03 f3 0a bf 4c 63 0a bf
       -0.054713536 -0.51492316 -0.54277056 -0.54057765
000310 55 51 0e 3f f4 25 e9 3e 06 7d 6a 3e 07 95 14 be
       0.5559285 0.45536768 0.22899255 -0.14509974
000320 2d e3 fd 3e ff 44 1d be 66 e8 cc 3e f8 15 8e bc
       0.49587384 -0.15358351 0.40021056 -0.01734446
000330 b2 b0 89 be 45 53 24 be 26 d9 fc bd f7 a3 07 bf
       -0.2689262 -0.1604739 -0.12346105 -0.52984565
000340 eb 36 30 3e d1 77 31 be 9f b2 87 3e 47 e5 bd 3e
       0.1720845 -0.17330863 0.26503465 0.37088987
000350 04 e7 b8 bd a0 5f 8f 3e 42 3c ed 3d 6a 26 c6 3e
       -0.09028438 0.28002644 0.11583759 0.38701183
000360 28 54 be be ca bb 50 bd 8f 0a 45 be 76 88 00 3f
       -0.3717358 -0.05096034 -0.19242309 0.5020822
000370 9a 50 04 bf c9 50 a6 be 87 c3 83 3d 94 2b 03 3f
       -0.5168549 -0.3248351 0.06433778 0.5123837
000380 7d 33 c8 3e a8 58 0a bf 2c 87 d0 be 1f 2a 0f 3f
       0.39101782 -0.5404153 -0.40728128 0.55923647
000390 c1 82 ad 3d 45 27 fd be 2a 9d 39 be 2c a6 81 3e
       0.08472205 -0.49444023 -0.1812636 0.25322092
0003a0 ae 7d f6 bd 9e 04 e2 be e5 36 b6 be 7e 41 99 be
       -0.1203569 -0.44144148 -0.35588756 -0.2993278
0003b0 a5 87 b7 bc e8 3e 68 3e 06 80 8c 3e 52 0d 8f be
       -0.022403548 0.22680247 0.27441424 -0.2793985
0003c0 bf 81 c6 bd 23 7b e6 be 65 3e e0 3e df 72 12 3f
       -0.09692716 -0.4501582 0.43797603 0.5720653
0003d0 52 bb 0f 3f ef bc 71 3e 02 88 fb bd a6 a4 6d bc
       0.56145203 0.23607229 -0.12281801 -0.014504587
0003e0 2a 99 54 3e a7 7c 00 bf ab 5b 05 3d 4b d8 ef be
       0.20761552 -0.50190204 0.032558125 -0.46844706
0003f0 b8 af 13 bf a5 c9 a3 bc 9b fd 3b be d4 89 bb be
       -0.5769 -0.019993613 -0.18358462 -0.36628592

fc2.weight f4 [256, 256]
000000 0d ab 4a 3c 42 9c 48 3b 88 32 19 3c a8 15 1a bd
       0.012369883 0.0030610715 0.0093504265 -0.03761831
000010 42 82 6a bd 4b 2d 4a bb 96 fd ec bc 73 de 9b bc
       -0.05725313 -0.003084975 -0.028929513 -0.01902697
000020 c6 31 37 3d 05 c9 3b 3c 3d 6e dc 3c 4f 8f 69 bc
       0.044725202 0.011461501 0.026908034 -0.014255359
000030 76 f2 49 bd 79 8e 32 3c bc 3b 2a bd 0a bf 0e 3c
       -0.049303494 0.010898226 -0.041560873 0.008712539
000040 64 9d 44 bd b6 98 48 3d 84 f0 32 bd 8e 01 5a 3d
       -0.048001662 0.04897376 -0.043686405 0.05322414
000050 d0 0f 2c 3d 47 62 44 3d 03 f1 1f 3d 8f 17 7c 3c
       0.042007267 0.047945287 0.039048206 0.015386476
000060 93 0d 7b bb b4 33 21 bb 5f a9 d6 bc 07 df 69 bd
       -0.0038307651 -0.0024597468 -0.02620381 -0.05709746
000070 1d f2 65 3d 75 0e 4c 3b e2 2a 01 3d 5a a7 8f 3b
       0.0561391 0.0031136547 0.031535037 0.0043839635
000080 7e 58 8b 3c e7 77 2f bd 9a 47 4f bd c9 de 34 3d
       0.01700997 -0.042838957 -0.050605394 0.044157777
000090 5a b8 bd 3c 81 6f ee 3c 35 7f 82 bd 71 ca 6e 3b
       0.023159195 0.029105904 -0.06371919 0.0036436582
0000a0 9f 6c 73 bd cf 4f b2 bb fc dd 8e bb 40 ef 28 bd
       -0.05942976 -0.005441643 -0.0043599587 -0.04124379
0000b0 59 8c 81 bd ca ab 90 ba 1e d7 6f 3d c0 52 67 3d
       -0.06325597 -0.0011037525 0.05855476 0.0564754
0000c0 79 39 1f bd 08 37 50 bc 24 77 64 bd a8 ff 43 bd
       -0.03887317 -0.012708433 -0.055777684 -0.047851235
0000d0 2c c4 94 bc 5e a2 78 3d c0 62 85 bc e1 de 75 3b
       -0.018159948 0.06070172 -0.01628244 0.003751688
0000e0 20 2b 77 3d 14 07 2e 3c c3 35 49 3d 04 1c 2a 3d
       0.06034386 0.010621805 0.049123537 0.041530624
0000f0 6d 4e 74 3d b1 cc 2a 3c c5 41 48 bd 61 ab 63 bd
       0.059645105 0.010424779 -0.048890848 -0.05558336
000100 cd 88 09 bd 48 c9 4d 3d 4b be 15 3d 6d 25 9f 3c
       -0.03357773 0.050240785 0.03655843 0.019427026
000110 ca fe 4f bd 92 9b 3e bd bd b3 4f 3d ac 02 03 bc
       -0.050780095 -0.046535082 0.05070852 -0.0079962425
000120 6b a3 7c bd b9 19 f3 bb ed e3 55 bc da 64 c6 b6
       -0.061679285 -0.007418838 -0.01305483 -5.9126005e-06
000130 9b 3a bf 3c 3d dd d9 3c 1f 4a 3c bd 2a a0 fd ba
       0.023343375 0.026594752 -0.045969125 -0.0019350101
000140 0b ce 00 bd b7 18 2f 3d 23 d8 0d 3d c2 22 04 3d
       -0.031446498 0.04274818 0.034629952 0.03225971
000150 bd 30 67 3d 47 e1 ec 3c 42 8f 81 bd 09 54 7c 3c
       0.056442965 0.028916014 -0.063261524 0.015400895
000160 c6 15 2b bd 75 44 2a 3c 41 7c a3 b9 89 68 83 3d
       -0.04176881 0.010392298 -0.0003118236 0.06416423
000170 1e 34 2f bd f5 1f 7b bd a8 de 86 bc 3a 99 1d 3c
       -0.042774312 -0.061309773 -0.016463593 0.009619052
000180 bb b3 3b 3d b8 0d 47 3d 85 f6 4b 3d 3a bd b6 3c
       0.0458257 0.048597068 0.049795646 0.022307027
000190 73 75 94 bc 87 8e 61 bc 47 d7 08 bd 1d 60 41 3c
       -0.01812241 -0.013766891 -0.03340843 0.0118027
0001a0 ba a3 35 bd 84 49 a9 3c f8 c8 1d 3d a8 68 5f 3d
       -0.044345595 0.020664938 0.038521737 0.054543167
0001b0 99 f8 74 bd 78 a1 57 3d cc 52 25 bd f7 22 f5 ba
       -0.059807394 0.052644223 -0.040362164 -0.0018702437
0001c0 eb 16 74 3d e6 84 11 3d ec 22 bb bc f2 9c 15 3d
       0.05959217 0.035527132 -0.0228438 0.036526628
0001d0 8a a3 7c bd f0 d8 50 3d 73 00 73 3d d4 08 d1 bb
       -0.0616794 0.050988138 0.0593266 -0.006379226
0001e0 cd be 2e 3c 87 53 91 bc c2 8a 24 bd a0 a9 e2 bc
       0.010665608 -0.017740024 -0.040171392 -0.027668774
0001f0 5c 5b 99 bb 88 f5 53 bd 50 40 4a bd 3c ab 14 3c
       -0.0046800803 -0.05174783 -0.04937774 0.009074029
000200 c8 99 2d bd 20 89 11 bd 3e 92 1d bb e3 64 11 bd
       -0.042382985 -0.035531163 -0.0024043466 -0.035496604
000210 dc 7f 69 3d 2b 9e b8 bc 89 c0 04 bd 55 bb 64 bc
       0.0570067 -0.022536358 -0.03241018 -0.013960679
000220 9e 6d 5a bd c4 45 07 3d c4 99 59 3d 56 48 0f bd
       -0.053327195 0.033025518 0.053125158 -0.034981094
000230 8d e4 be bc 2f bb 6a 3d 94 e1 2d bd 14 93 87 3c
       -0.02330234 0.05730742 -0.042451456 0.016549625
000240 39 67 57 bd 2c fe 72 bd 6f 56 d8 ba 70 d4 10 bd
       -0.052588675 -0.05932443 -0.0016505251 -0.035358846
000250 5a 37 00 3d d4 ce a3 bc a9 c1 42 ba 88 32 0d bd
       0.031302787 -0.019996084 -0.00074293703 -0.03447202
000260 1a 3e d3 3c e4 10 6a 3d e7 9c e2 bb 9a 39 1c bd
       0.025786448 0.057145014 -0.006915677 -0.03814087
000270 40 f0 74 bd f5 40 6e 3d c0 60 c8 3c de 26 c6 3c
       -0.059799433 0.058167417 0.024460196 0.024188455
000280 81 e8 3c 3c 66 a6 e6 3c aa ca a2 3c f5 d6 02 3d
       0.011530043 0.028155517 0.019872028 0.03194328
000290 a6 f5 29 3d c8 ad c1 3b 3b 2c 61 3d a2 4e 23 3d
       0.041494034 0.005910609 0.054973822 0.039869912
0002a0 b2 41 99 ba 09 63 db bc 16 24 92 3b 05 a6 40 3d
       -0.0011692552 -0.026780622 0.004459868 0.04703333
0002b0 58 a0 2f 3d cc c1 d1 bc dc 93 61 bc 29 83 a9 3c
       0.042877525 -0.025605105 -0.013768163 0.020692425
0002c0 d8 f3 bc 3c e7 d2 6d 3d 13 8d fe 3c 54 87 a0 3c
       0.023065493 0.05806246 0.031073129 0.01959578
0002d0 e5 5d 80 3c 23 52 71 bd 5f b2 d6 bc a8 d2 fc 3b
       0.015669772 -0.058916222 -0.0262081 0.007715542
0002e0 94 11 30 bd 87 b6 6f bd b4 db 3a 3d 44 02 b7 3c
       -0.042985514 -0.05852368 0.04561968 0.022339948
0002f0 34 34 55 bd bf 5e 32 bb d3 a4 13 3d 66 a6 1e 3d
       -0.052051738 -0.0027217118 0.03604586 0.03873291
000300 56 14 69 3d 94 bd d3 bc 14 3d d7 3c f1 f9 4c bd
       0.05690416 -0.025847234 0.026274242 -0.05004305
000310 aa d0 32 bc 95 34 2a bd d4 35 6a bc 4e 55 0d 3d
       -0.010914007 -0.041554052 -0.01429506 0.03450518
000320 ea 3f f7 3c 5f 90 06 bd cc 59 97 bc cd 50 4e bc
       0.030181844 -0.032852527 -0.018475436 -0.012592507
000330 50 b7 c8 bc ed 22 10 bd b4 ac 37 3d 58 be 2f 3d
       -0.024501473 -0.035189558 0.044842437 0.042906135
000340 cb fa 49 3d 24 5c 0e bd 06 10 3b 3d 7c 0f 9a bc
       0.04931144 -0.03475584 0.045669578 -0.018806212
000350 b1 98 72 bc d8 5b 89 bc d8 c7 91 bb b2 a2 e2 bc
       -0.014806912 -0.016767427 -0.004448872 -0.02766547
000360 06 b2 35 3c d4 ae 20 bd 3c af e5 3c 74 4c 5b bd
       0.011089807 -0.03922923 0.02803766 -0.05353971
000370 9e 40 a1 bc b5 b2 29 bd b2 33 2a 3d 7d 28 17 3d
       -0.019684132 -0.041430194 0.041553207 0.036903847
000380 99 be 5f bd 41 a7 03 bd 26 04 67 3d d8 cf 91 3c
       -0.054625127 -0.032141928 0.05640044 0.017799303
000390 b6 9c 36 3d a0 b4 3a bd e4 ad ea 3c b1 69 20 3d
       0.044583045 -0.045582414 0.02864737 0.039163295
0003a0 18 31 72 bc 46 02 99 ba ba b9 3d 3d 7c 11 7e 3c
       -0.014782213 -0.0011673651 0.0463197 0.015507098
0003b0 24 89 a2 3c 39 7e e9 ba 5a e1 d8 bc 0b d8 19 bd
       0.019840784 -0.0017814107 -0.026474643 -0.03755955
0003c0 12 60 79 3d ed fc d0 bb ec 89 60 3d b9 b5 49 3d
       0.060882635 -0.0063778074 0.054819033 0.04924557
0003d0 88 70 07 bd f8 60 2b 3b 6e 2a 83 bc 6e 13 48 bb
       -0.033066303 0.0026150327 -0.016011443 -0.003052916
0003e0 31 f5 20 3d e4 74 0e 3d cd 45 17 bd 1c 5f 00 bd
       0.039296333 0.034779444 -0.0369318 -0.031340703
0003f0 03 5e 33 bd c5 ca 54 bd 3d 71 2c 3d 54 ec 12 bd
       -0.04379083 -0.05195119 0.04210018 -0.03586991

fc2.bias f4 [256]
000000 9a a2 1e 3c 67 72 d6 bb 90 75 59 bd 9c 4c 3c 3d
       0.009682322 -0.0065443995 -0.053090632 0.045971498
000010 19 79 30 bb ef d0 86 bc d4 a1 38 39 37 b1 f4 3c
       -0.0026927649 -0.01645705 0.00017607893 0.029869659
000020 52 26 02 bd 81 3d 1e bc 4f e9 51 3d 93 bd 26 3b
       -0.031774826 -0.009658218 0.05124789 0.0025442585
000030 6b d3 23 bc ef 16 cc bc 02 f4 32 bd d1 2d 39 3d
       -0.009999136 -0.02491328 -0.043689735 0.04520971
000040 61 fd 50 3d f9 13 fb bc 8b a9 a9 bb 10 87 24 b9
       0.05102289 -0.030649172 -0.005177682 -0.00015690573
000050 13 f8 92 3c 7b 58 01 bd a3 ef 22 3c 8c cd 1e 3d
       0.017940557 -0.031578522 0.009944829 0.038770244
000060 a7 81 62 bd dc c3 e7 3c a2 34 25 bd f6 25 1c 3c
       -0.055299427 0.028291635 -0.040333398 0.009530535
000070 ee 4f 5d bb 89 e5 fd 3c 05 c1 18 bc ca 52 63 bc
       -0.0033769566 0.03099324 -0.009323363 -0.013874719
000080 b6 be 7b 3b 07 ab eb 3c af 69 91 bc c4 8f 16 3d
       0.0038413233 0.028768076 -0.01775059 0.0367582
000090 5b 71 40 bd 47 ed 28 3d 62 81 55 3d 69 e6 24 3d
       -0.046983104 0.04124191 0.052125342 0.0402588
0000a0 2c 0f 51 bc 78 f6 1a bd 53 ad 71 3d 85 e4 c8 3b
       -0.012759965 -0.037832707 0.059003185 0.0061307573
0000b0 68 41 2c 3d 99 c7 70 bd 4c be f9 3b d7 33 0c 3c
       0.042054564 -0.0587841 0.007621562 0.008557281
0000c0 e3 de 3f bd ef 60 14 3d fd 0c 40 3d 25 1f 6a bc
       -0.04684342 0.036225256 0.046887387 -0.014289652
0000d0 24 03 fc 3c 3b de 27 bd cb f8 39 3d 63 d6 c8 3c
       0.030763216 -0.04098342 0.045403283 0.02451629
0000e0 4e 70 7d bd 88 3e 2d bd 85 ff e4 bc 4a c5 3d 3c
       -0.06187468 -0.042295963 -0.027953872 0.011582682
0000f0 31 66 54 bd 0a e3 2d 3d 1e e2 3e bd df b7 2c bd
       -0.05185527 0.04245285 -0.04660236 -0.04216754
000100 55 56 07 3c 38 de 51 3d c9 0e 2d 3d a4 65 37 3a
       0.008260329 0.051237315 0.04225043 0.00069960416
000110 c7 ca 1c 3d e2 cc 61 bd d7 af 5c 3d b1 28 5a 3c
       0.03827932 -0.055127032 0.05387863 0.013315366
000120 53 10 18 bd 83 6f 75 3d fc 5e 1f bd 91 8a 66 bd
       -0.037124943 0.0599208 -0.038908944 -0.05628449
000130 0f 23 54 3d 91 56 a7 bc 14 5d 9e bc 23 6a 3f bd
       0.051791247 -0.02042702 -0.019331492 -0.04673208
000140 bc e9 87 3c 43 5e 25 3d 55 f5 9f bc a2 6b 08 3c
       0.016590945 0.040373098 -0.019526163 0.008326443
000150 5d 0b b3 3c 72 0b 3f 3d 3d 4b 47 bd c0 a6 fc bb
       0.021856004 0.046641774 -0.048655737 -0.007710308
000160 d6 05 5f 3d 7e 28 1a 3d 83 78 10 3c 15 e1 02 3d
       0.054448925 0.037636273 0.008817795 0.031952936
000170 c2 98 86 3c 45 d1 fa 3c 19 e1 77 bd 03 28 25 bc
       0.016430262 0.030617366 -0.060517404 -0.01008034
000180 d5 68 01 3c 7c 01 f3 bc 48 cd 0b bd 27 f9 10 3d
       0.007898529 -0.029663794 -0.03413132 0.03539386
000190 02 9c 7b bd 2d 28 43 bc 5d 0b cd bb 3b 7c 36 3d
       -0.061428078 -0.011911434 -0.006257458 0.04455207
0001a0 f3 9d 77 3c 55 8d 5e bd 11 82 54 3d cc 50 b3 bc
       0.015113342 -0.054334003 0.051881853 -0.021889113
0001b0 b5 c0 73 bd 04 e7 64 bd aa ad 23 bd eb fb 2a bd
       -0.05950995 -0.055884376 -0.03996054 -0.041744154
0001c0 69 e1 3a 3d b7 0e 20 bd c1 9d c8 3c a4 97 74 3d
       0.045625124 -0.039076533 0.024489285 0.05971493
0001d0 9b 4a 4d 3d f8 6e 75 bd 04 3e 0b 3d 19 b0 92 bb
       0.050119977 -0.05992028 0.03399469 -0.004476559
0001e0 2d da bb bc 3c b9 f2 3c 89 9e 0c 3d 06 b5 74 3c
       -0.022931183 0.029629342 0.03433088 0.0149357375
0001f0 97 ea 83 3d 2a fb a1 bb c8 34 24 bd 93 11 51 bc
       0.06441229 -0.004943271 -0.0400894 -0.012760538
000200 5b 25 e2 bb aa 3e db bc 6a a4 46 3d 90 1b 74 bd
       -0.006901426 -0.026763279 0.04849664 -0.0595966
000210 8a 39 85 3c 5b eb 95 bb 11 a8 65 3d 17 0d 68 3d
       0.016262788 -0.0045751757 0.056068484 0.05665311
000220 6d 74 c7 3c 9e a4 3d 3d 20 ed 47 bd 04 b2 14 3d
       0.024347508 0.04629957 -0.048810124 0.03630258
000230 24 39 ca bb 3a 0a f0 bb 70 9b 26 3d 66 37 c9 bc
       -0.0061713625 -0.007325438 0.04067558 -0.024562549
000240 89 11 37 bd 0d cc 38 bd a7 7d 6b bd af 20 f7 3c
       -0.044694457 -0.045116473 -0.05749288 0.030166952
000250 fd fb 17 bc 73 e4 d3 bc 29 cd 3f bc a9 9e 65 bc
       -0.009276387 -0.025865769 -0.011706629 -0.014014878
000260 ff f3 41 3d b9 25 8d bc 10 54 0c 3d 8d d9 aa 3c
       0.047351833 -0.017229902 0.034259856 0.02085569
000270 bd 8a 07 bd ba 78 31 bd 2b 99 de bc 41 01 14 bd
       -0.033091296 -0.043328024 -0.027172646 -0.03613401
000280 30 0d 02 3d bf 95 32 3d b3 91 52 3d 70 35 ec bc
       0.031750858 0.04359984 0.05140848 -0.028834075
000290 20 c9 6e 3d 31 54 a8 bc 09 3f 28 3c db 34 79 3d
       0.058297276 -0.020547958 0.010268935 0.060841423
0002a0 8a 1d cb 3c f2 11 8a bc 46 e3 3e bd 38 e9 45 bd
       0.024794359 -0.01685426 -0.046603464 -0.048318118
0002b0 e2 b8 13 bc 2d aa 70 3d ff d9 f1 3c 46 92 47 3d
       -0.0090162475 0.058756042 0.029522894 0.04872348
0002c0 79 43 5d bc 4c 1a 2c 3d 04 b8 ce 3c 45 17 b7 3c
       -0.013504856 0.042017266 0.02523423 0.022349963
0002d0 2f e7 af 3c 83 cc 1d 3c 38 47 f9 bc ea ea b4 3c
       0.021472542 0.009631279 -0.030429468 0.022084672
0002e0 3e 2f 43 bc 71 16 06 3d 9b e9 1c 3d 20 79 34 bd
       -0.011913119 0.032736246 0.03830872 -0.044060826
0002f0 0b 03 6a bd 56 65 1d bd 99 49 2c 3d 43 85 01 bd
       -0.05713181 -0.03842672 0.042062376 -0.03162123
000300 6b 44 4f 3d 74 af 0f bd 79 5e 62 bd 84 cd 05 3d
       0.050602358 -0.035079435 -0.055265877 0.032666698
000310 d2 0d 4b bd 4a ad 14 3d 08 0b 95 bc fb fc 6e 3d
       -0.049573727 0.036298074 -0.018193737 0.05834673
000320 62 36 0f 3d 0f e4 84 3c 0e 23 24 3d 8d bc 80 bd
       0.034963973 0.016222028 0.040072493 -0.06285963
000330 a3 eb 6a 3d aa c2 44 bd 73 f9 59 bd e0 0d 02 bc
       0.057353627 -0.04803721 -0.05321641 -0.007937878
000340 10 44 f8 3c 30 43 38 bd 2d ed 81 bc bb 55 40 bd
       0.030305892 -0.04498595 -0.015860165 -0.04695676
000350 65 3c 5b 3d b1 e4 6f bc 9f 13 a8 3c 28 ff 3c bc
       0.053524394 -0.014641927 0.020517169 -0.011535443
000360 0c 96 2f bc b2 6a f6 3c d8 84 b1 bc e5 2e e9 ba
       -0.010716926 0.030080173 -0.02166979 -0.0017790465
000370 90 fa 71 3d 07 e4 4b 3d 96 60 56 bd c0 ad 3b bd
       0.059076846 0.04977801 -0.052338205 -0.045819998
000380 2c 9e 52 3c 25 39 ab 3c a4 f3 a0 bb 20 46 0c bd
       0.012855094 0.020901272 -0.0049118567 -0.034246564
000390 d4 fd 83 3d 9f e4 35 3c b4 f4 1e 3d 00 4b 19 3d
       0.06444898 0.011101871 0.038807586 0.03742504
0003a0 07 82 42 bc 23 b3 63 bd 48 da 9a 3c e4 d9 31 3d
       -0.011871821 -0.05559076 0.018902913 0.043420687
0003b0 96 62 7d 3c 98 e8 4a 3c 8f 6b df b9 4f 5f 66 bc
       0.015465399 0.012384556 -0.00042614012 -0.014060809
0003c0 28 76 4c bc 44 5a f9 3c a8 de 6a 3d dd ee 22 bd
       -0.0124793425 0.03043855 0.057341248 -0.03977858
0003d0 d7 fa 46 3d b6 ce bc bb d9 5e 6f 3d 4c a0 4c 3d
       0.048579063 -0.0057619466 0.058440063 0.04995756
0003e0 6f 27 45 ba 5b d8 b9 3c 67 ac 4f bd e8 c9 4a bd
       -0.00075208297 0.022686174 -0.050701525 -0.04950896
0003f0 df ab da bc 10 f9 79 3d 75 5e da 3c a5 11 ab 3c
       -0.026693283 0.06102854 0.026656369 0.020882437

smallfc.0.0.weight f4 [32, 256]
000000 77 4a 57 3d b8 17 1a bd 66 d5 2e 3b 60 3d 75 3d
       0.05256125 -0.037620276 0.0026677488 0.059872985
000010 d9 12 33 3d 42 02 e1 bb 11 d1 23 bd 20 f0 74 bd
       0.043719146 -0.006866724 -0.039994303 -0.059799314
000020 23 cc ab bc ee 13 59 3d 8c 84 17 3c 27 49 0f bd
       -0.020971363 0.052997522 0.00924791 -0.034981873
000030 e7 1e ca ba 07 71 e1 3b 91 2e ce 3c 40 e6 34 3d
       -0.0015420587 0.006879929 0.025168689 0.044164896
000040 38 1e 70 3d 51 1f 58 bc 35 d6 57 3c 3c b1 1b 3d
       0.05862257 -0.01319106 0.0131736295 0.03801082
000050 b9 56 36 bc 26 0b 80 3c 5e da 51 bd a8 88 2f 3b
       -0.011129075 0.015630316 -0.05123364 0.0026784334
000060 4d 13 29 bb 42 b8 e1 3c 35 5a c3 3c d7 14 56 3d
       -0.0025798858 0.027553681 0.023846725 0.05226597
000070 39 c4 64 3d d3 f2 56 3d 73 dd 11 3d e1 98 0c bd
       0.055851195 0.05247767 0.03561158 -0.034325484
000080 c7 7e 3d 3d 09 09 b3 3c 7a c2 7e bd 6b 36 0f 3d
       0.046263482 0.021854894 -0.062197186 0.034964006
000090 1c 21 b2 bb d9 27 32 bc 53 c2 09 bc e3 ae 33 bd
       -0.005436076 -0.010873758 -0.008408147 -0.043867957
0000a0 bc df 35 3c 4d 0a fc 3b fe c4 03 bd 66 43 cc 3c
       0.011100706 0.0076916576 -0.03217029 0.024934482
0000b0 d2 ca 46 3d 3e 22 d5 bc 8a 8f 43 3b 18 31 27 bc
       0.04853327 -0.026017305 0.0029840195 -0.010204576
0000c0 71 65 11 3d e3 c8 15 3d 28 9a 75 bd 3e c4 5b bd
       0.035497133 0.036568534 -0.059961468 -0.053653948
0000d0 58 66 47 3b 69 34 96 bc af 8b 0a bd 97 d4 01 bd
       0.0030425992 -0.018335538 -0.03382462 -0.031696882
0000e0 aa e9 ac 3c 0e 68 54 3d 5e 97 56 bd 53 a5 a9 bc
       0.021107513 0.051857047 -0.05239045 -0.020708716
0000f0 9f 16 91 bc 28 89 01 bd 65 11 65 bc 60 70 fb 3b
       -0.017710982 -0.031624943 -0.013981198 0.0076733083
000100 40 f7 85 bc 47 46 41 bc 27 c6 b5 3c c9 8c 8b 3b
       -0.01635325 -0.011796541 0.022189213 0.0042587263
000110 fe 89 bf 3c e0 94 37 3d 6e a5 ea bc 4a fa 22 bd
       0.02338123 0.044819713 -0.028643336 -0.039789476
000120 95 77 c1 bc f5 70 3d bd db 79 2b bd 67 ae 6b bc
       -0.023616591 -0.046250302 -0.041864257 -0.0143848425
000130 59 52 bf ba 69 17 26 bd d4 7d b5 3c 07 bd 4c 3d
       -0.0014596685 -0.04054967 0.022154726 0.049984958
000140 70 a8 7b bd f9 fa 46 3c 21 50 da bc 30 5e 21 bd
       -0.06143993 0.0121447975 -0.026649537 -0.039396465
000150 8b a4 b8 3c c9 93 76 bd ab a4 67 bd dd 88 0d 3c
       0.022539398 -0.060199533 -0.056553524 0.008638588
000160 d3 f9 8c bc e3 7b 83 bc f3 94 6e 3d df 0d b1 bc
       -0.01720897 -0.016050285 0.058247518 -0.02161306
000170 11 52 00 3d fc 62 b0 3c 06 90 3f 3d 73 03 2b 3d
       0.031328265 0.021531574 0.04676821 0.041751336
000180 c3 39 ab bc 22 0a 90 3c 65 28 4b 3d 39 f8 5a 3c
       -0.020901566 0.017582957 0.04959907 0.013364845
000190 b3 88 99 3c 9f de 26 bc a2 b6 2f bd b8 b0 1d bc
       0.018741941 -0.010184913 -0.04289878 -0.009624653
0001a0 7d c7 52 bd 06 11 72 3d 11 55 69 3d 6c fb 0a ba
       -0.051459778 0.059098266 0.05696589 -0.0005301747
0001b0 83 17 9e bc 79 00 0f bd a6 d1 a8 bc 9f 5c 1d bc
       -0.01929832 -0.03491256 -0.02060778 -0.009604602
0001c0 8b 9e 6a bc cb 51 72 3d b4 d1 12 bd 89 46 2d 3d
       -0.014320026 0.059160035 -0.03584452 0.042303596
0001d0 a8 e9 92 bc 09 aa 44 bd 81 78 7a 3c ae 4e 0e 3c
       -0.017933682 -0.04801372 0.015287519 0.008685751
0001e0 6d a6 5c 3d 47 b0 71 bd 73 70 b0 3b b9 6e 48 bd
       0.053869653 -0.059006 0.0053844987 -0.04893372
0001f0 46 d0 30 bc d5 70 7a bb 9a b1 7d bd b0 90 ba bc
       -0.010791844 -0.0038214226 -0.061936952 -0.02277407
000200 fe 56 c9 bc ab fd 72 3d 4c 51 a3 bc 69 ff a5 bc
       -0.024577614 0.059323948 -0.019936226 -0.02026339
000210 dd 87 25 3d ce 11 40 3d f0 29 37 3d fe 0a 3f bc
       0.040412772 0.04689198 0.04471773 -0.011660336
000220 39 63 fe bc df 7f 43 bd ae 05 42 bd c8 ea 0b bc
       -0.031053172 -0.04772937 -0.047368698 -0.008539863
000230 03 41 80 3d 8d 94 00 3a b2 a9 16 bc 07 20 6a 3c
       0.062624 0.00049049483 -0.009195732 0.0142898625
000240 ef c4 eb 3c f9 54 4b bc 6e 18 41 3d 83 9c f7 3c
       0.028780429 -0.012410396 0.04714244 0.030225998
000250 93 c3 d0 3a 16 cb f0 3c fb 93 20 bd d4 c3 02 bc
       0.0015927426 0.029393714 -0.039203625 -0.007981259
000260 16 93 d8 3c ce d0 bc 3c a8 24 e4 b6 bf 84 9e bc
       0.026437324 0.023048785 -6.799197e-06 -0.019350408
000270 7c 94 1e 3c 00 66 41 ba bc e3 7a bd f1 8c 4c 3d
       0.009678956 -0.0007377565 -0.06125234 0.0499391
000280 22 67 0d bd 5c 06 36 3d 0e ec 1a 3d b7 29 d2 bc
       -0.034522183 0.04443966 0.037822776 -0.025654657
000290 18 2e f7 3b e2 0f ce bc 13 8e db 3c a1 53 e0 39
       0.0075433366 -0.025154058 0.026801145 0.00042786918
0002a0 e3 02 4c 3d 4a c0 0c bd b5 62 63 3d 2d 10 df 3c
       0.04980744 -0.03436307 0.055514056 0.027229393
0002b0 b4 47 77 3d 74 48 80 3c ee 39 32 3c a6 4b 34 3d
       0.060371116 0.015659548 0.010878069 0.044017456
0002c0 f3 0c 7b bd 3d 30 20 3c d0 39 b1 3c 75 4e 48 bd
       -0.061291646 0.009777126 0.021634012 -0.048902947
0002d0 d1 c2 2b bd c3 ac 82 bc c0 29 f4 bc 66 28 5c 3d
       -0.04193384 -0.01595152 -0.029805064 0.053749464
0002e0 e7 42 c5 3c 9a af 5d bc 01 ac 45 3a 45 d9 7b bd
       0.024079753 -0.013530636 0.0007540584 -0.0614865
0002f0 40 b9 8b bc bf be 0b 3d f6 c7 b5 b9 8c 16 8b 3b
       -0.017056108 0.034117457 -0.00034671993 0.004244631
000300 03 10 87 3a 4f e8 19 3c 8d 3b 2f 3c 26 1e 2c 3c
       0.0010304454 0.009393766 0.01069535 0.010505235
000310 81 d0 ea 3b 26 45 7c 3d 0b 98 6c 3c cc 73 53 3d
       0.007165969 0.061589383 0.014440547 0.051624104
000320 b1 45 a9 bb 96 30 2f 3d 5e b1 0b 3d 29 a0 a8 bc
       -0.0051657786 0.042770945 0.034104697 -0.020584183
000330 87 1a aa bc 5c 45 1f bd db 17 68 3c 84 b1 1c 3d
       -0.020764602 -0.038884506 0.014165844 0.03825523
000340 ac 17 0e bd 6c 81 1a bd 46 e6 03 bd 65 98 ec bc
       -0.034690544 -0.037721083 -0.032202028 -0.028881261
000350 17 75 19 3d 52 99 52 3d 84 17 c0 bc 5d 69 88 bb
       0.03746518 0.05141575 -0.023448713 -0.004162951
000360 41 ce 9e 3c 23 f1 93 bc f2 89 70 3d 6f d6 ec bc
       0.019385459 -0.018059319 0.058725305 -0.028910844
000370 ac d2 94 bc a0 7a 3c bd d9 d0 33 bd 6f b9 a1 bb
       -0.018166862 -0.04601538 -0.043900345 -0.0049354355
000380 1c 49 7c bd 3c 16 72 bd 1c 41 6a 3b 61 99 48 bd
       -0.06159316 -0.059103236 0.0035744375 -0.0489744
000390 77 61 15 3d 2c e1 4b bd 44 66 7a 3d 8c b6 b5 38
       0.036469903 -0.049775288 0.061132684 8.6647546e-05
0003a0 73 d5 d4 3c 56 d2 cb bb 8d 23 8f 3c d6 9f 0d 39
       0.025980687 -0.0062201424 0.017473007 0.00013506351
0003b0 9a 04 66 bd 97 93 7c 3d fe c3 8d bb 85 d8 f2 3c
       -0.056156732 0.06166419 -0.0043263426 0.02964426
0003c0 b4 af e5 bc 1c e3 11 3c 3b 9a 99 3c 1b f1 6d 3d
       -0.028037883 0.008904245 0.0187503 0.058091264
0003d0 50 31 6f bd da 8b 74 3d a0 5d 83 3b f6 f7 9e bc
       -0.058396637 0.059703685 0.0040089637 -0.019405346
0003e0 6e 6d 0e 3c 65 23 6c 3d 63 55 c7 3b 89 1d 98 bc
       0.008693082 0.057650942 0.006083177 -0.018568771
0003f0 1e f0 76 bc 02 ef 3f bd 99 21 73 bd ea 06 7e 3d
       -0.015071897 -0.046858795 -0.059358213 0.062018313

smallfc.0.0.bias f4 [32]
000000 94 d8 65 bc ff df ba bc bb db 24 bd 41 ee 74 3d
       -0.014028687 -0.022811888 -0.040248614 0.05979753
000010 18 c9 59 bd 2d 8b df bc 2a 18 93 bc 3e 1f 68 3d
       -0.053170294 -0.027288044 -0.017955858 0.05667042
000020 fb e3 4c bd 92 dd 43 bd 40 29 c7 bc d8 b7 62 3d
       -0.050022107 -0.047818728 -0.024311662 0.05535111
000030 5b 36 4e bc 1f 8a dc 3c 08 af 6f 3c 95 2d 0c bd
       -0.012586202 0.02692133 0.014629133 -0.034223158
000040 3f 4b 07 3c 59 13 60 3d 6c f3 aa bc d5 1a c3 3c
       0.008257686 0.05470595 -0.020868026 0.023816505
000050 4b 87 d9 bc 50 4f dd 3c b4 56 1b bd cc 0f 5a bc
       -0.02655377 0.027015358 -0.037924483 -0.01330943
000060 74 3a 60 bb 4e f4 93 3b 1d 6b 35 3d 91 48 36 3d
       -0.0034214528 0.0045152074 0.044291604 0.0445028
000070 dc 38 38 bd a9 ee 6a bd 02 a8 32 3d c3 8d 13 3d
       -0.0449761 -0.05735651 0.043617256 0.036023866

smallfc.0.2.weight f4 [3, 32]
000000 73 81 0c be de 92 31 3e 57 a1 01 3e 4d 0a 9d 3d
       -0.13721256 0.17341182 0.12659203 0.0766798
000010 aa 42 e1 bd 5a 2f e3 bd 34 d4 1b 3c 31 04 dc bc
       -0.10999043 -0.11093016 0.009511042 -0.026857467
000020 9c 46 c4 3d 85 5e fa bd 7e ca 1d bc bb d3 ad 3d
       0.0958378 -0.122250594 -0.009630797 0.0848765
000030 07 2f 55 bd 09 1c 15 be 21 83 a5 3d 8e 32 0d be
       -0.052046802 -0.14561476 0.080816515 -0.13788816
000040 f0 d8 40 3d c1 b1 00 3e 6c 9c 25 3d d8 be 01 3e
       0.047081888 0.12567808 0.04043238 0.12670457
000050 dd 92 15 bd 75 96 2a be b5 04 32 3e b1 e3 34 bd
       -0.036517013 -0.16658957 0.17384608 -0.044162456
000060 82 ea 8b 3d 11 e2 22 be fb cb 92 bd e4 c6 6b 3c
       0.06831838 -0.1590655 -0.071678124 0.014390681
000070 ac df d8 3d 42 b9 ec bd 6e e6 e9 3d 0a 1d 4f bd
       0.10589537 -0.115587726 0.11420904 -0.050564803
000080 74 8f 4f bd a6 6b 23 be 61 21 11 3e c6 84 84 bd
       -0.050673917 -0.15959033 0.1417289 -0.06470637
000090 44 9a a5 bd 79 b4 8e bd 40 60 8d bd bf 04 16 3b
       -0.080860645 -0.06968016 -0.06903124 0.0022891012
0000a0 80 9d 10 3e ad 12 8d bb 23 c9 6a 3c 23 db 31 be
       0.14122581 -0.004305205 0.014330181 -0.1736875
0000b0 d0 dc d5 bd 76 c2 dc bc 12 2f fd bc 3b ce ab 3a
       -0.10442507 -0.026948195 -0.030906234 0.0013107726
0000c0 bf fe 13 3d b5 ae cb 3c a0 e6 9a 3d 29 ce d3 3d
       0.036131617 0.02486358 0.075635195 0.10342056
0000d0 59 a6 1f be d0 af cb bd 62 7b 4c 3c 82 da 26 3e
       -0.155908 -0.09945643 0.012480589 0.16294292
0000e0 25 05 34 3e 31 2d 10 3c 73 41 fe 3c 23 4b 04 be
       0.17580087 0.008799837 0.031037068 -0.12919287
0000f0 00 9c b2 3d ff d8 ed 3d ec bd 5a bd f2 ae d4 bc
       0.08721161 0.11613654 -0.05340378 -0.025962327
000100 31 d0 1a bd 44 d9 01 3e ee d8 c1 bd f5 11 69 3c
       -0.037796203 0.12680537 -0.09465204 0.014225473
000110 a0 ca 1c 3e 77 0b 27 be 6d 2e 04 be df b2 33 be
       0.1531167 -0.16312967 -0.12908335 -0.17548703
000120 e6 e7 ba bd 8e 93 a5 3d 41 9a ea 3c 70 c5 22 3d
       -0.09126262 0.080847844 0.028638007 0.039739072
000130 09 79 e4 bd 6d 81 21 bc 5c 41 1e 3e b5 c0 1f 3e
       -0.11155898 -0.009857518 0.1545462 0.15600856
000140 86 0f be 3d 61 9f 86 bd 85 34 30 3e 01 30 d3 bd
       0.092803046 -0.06573368 0.17207535 -0.103118904
000150 42 49 19 be 3a 8b f0 bc 33 27 ab 3d 3d 11 43 bd
       -0.14969352 -0.029363263 0.08357086 -0.04762386
000160 18 0f 85 bd e3 96 f7 bd 5a 56 42 bd 23 c7 30 be
       -0.064970195 -0.12089326 -0.047445633 -0.17263465
000170 22 c4 ba bb 54 6e 02 3d f1 38 81 bd 19 6e dc bd
       -0.0056996504 0.0318435 -0.06309689 -0.10763187

smallfc.0.2.bias f4 [3]
000000 e5 f4 1c be 7a df b9 3d 21 7f 16 be
       -0.15327795 0.09075828 -0.14696933

smallfc.1.0.weight f4 [32, 256]
000000 a2 9b 98 bb d7 17 c5 3c 64 a0 55 3d 3b e6 57 3d
       -0.0046572248 0.02405922 0.052154914 0.0527098
000010 07 a2 fe 3c 1a 61 1a bc bc 7a 0e 3d fd 68 4f bd
       0.03108312 -0.009422565 0.034785017 -0.050637234
000020 f0 4f 48 bd 49 65 28 3d e4 5a 84 3c e7 57 50 bd
       -0.04890436 0.041112218 0.016156621 -0.05086508
000030 b8 ac f6 3c 5c 8c f3 bc 54 94 d5 3b a9 8e aa bc
       0.030111656 -0.029730015 0.006517926 -0.020819979
000040 59 73 bd ba 14 78 57 3d 1d 4b 7b bd 61 f1 cb 3c
       -0.0014453932 0.05260475 -0.06135093 0.024895372
000050 a5 55 3d bd 6c b6 a7 ba be a9 ef 3b 28 82 f5 bc
       -0.046224255 -0.0012795455 0.007313936 -0.02996929
000060 3e 46 f7 bb 48 29 b4 3b c2 81 1b bd 80 56 13 bd
       -0.0075462153 0.005498085 -0.037965544 -0.035971165
000070 21 24 4a bc 92 50 d9 3b a8 16 98 3c b2 9f be bc
       -0.012337715 0.006631919 0.01856549 -0.023269508
000080 51 34 fa 3c 0d 5d ea bb 8a 35 25 bc 0a e1 5e bd
       0.030542525 -0.007152206 -0.0100835655 -0.054413833
000090 63 90 47 bd fd 4b 0b bd 7d 06 5f 3c 73 e5 47 3d
       -0.048721682 -0.034008015 0.013612387 0.048802804
0000a0 57 04 56 bd 37 74 39 3d 3a 9d 61 3b b6 2a 77 3d
       -0.052250233 0.045276847 0.003442599 0.060343467
0000b0 84 17 1b 3b 15 5a 62 3d cb c9 40 3d f6 7f f3 3c
       0.002366514 0.05526169 0.047067445 0.029724102
0000c0 ee 3b 77 bd 04 78 3c bc 4d 1d 01 3b ca e1 56 bd
       -0.060359888 -0.011503223 0.0019701303 -0.052461423
0000d0 2b 09 11 bd d2 b0 7c bc 80 27 b1 3b b3 9b 63 bd
       -0.035409134 -0.015423017 0.00540632 -0.05556841
0000e0 b7 62 fa bb 4a 84 12 bc c2 82 6c bc 2b e2 fa bc
       -0.0076411623 -0.008942673 -0.014435472 -0.030625423
0000f0 2b f9 41 bd c2 c7 da bc 5e 6c 7d 3d ba cf bd 3c
       -0.047356766 -0.02670658 0.061870925 0.02317034
000100 ab 60 77 3d bb 1c 19 3d 41 4b 31 3d 1c 2c 6c bd
       0.060394924 0.037380915 0.04328466 -0.057659253
000110 19 75 11 bd 0a fa 1b bd 59 6f 90 bb c9 14 00 3d
       -0.035512064 -0.038080253 -0.004407805 0.031269822
000120 94 8a 0b bd 02 90 d8 3c e5 de 37 bd b1 79 f5 3c
       -0.034067705 0.026435856 -0.044890303 0.029965254
000130 a7 1e 70 bd 37 52 f5 bc 77 43 41 ba 58 d6 7a 3d
       -0.058622982 -0.02994643 -0.0007372419 0.06123957
000140 15 70 e5 bc 92 76 28 bd f7 45 66 3d cd 74 cc 3c
       -0.028007546 -0.041128702 0.056219067 0.024958039
000150 5f c4 7c 3b 12 d3 da 3c e2 5e 69 bd 38 13 02 3d
       0.0038569195 0.026711974 -0.056975253 0.03175661
000160 a6 88 4c 3d 11 76 72 bd 2f 69 0f bc ef 46 1c bd
       0.049935006 -0.05919463 -0.008753105 -0.038153585
000170 10 c6 1d 3d 7d 90 2c 3d 2a d0 c9 3a e3 7d 2e bd
       0.038518965 0.042129982 0.0015397121 -0.042600524
000180 e5 7f 45 3d 71 a6 6e bc 40 be de bb d8 e2 ea bc
       0.048217673 -0.01456605 -0.006797582 -0.02867262
000190 12 f7 65 3d cc e5 92 3c 04 aa cd 3c 1e 7d 12 bc
       0.056143828 0.017931841 0.025105484 -0.008940963
0001a0 eb 25 41 bc 19 e5 5d 3c 0f 40 80 3b b7 e7 4d bd
       -0.0117888255 0.013543391 0.0039138864 -0.05026981
0001b0 e3 d6 39 3d 9d 81 58 bd 5a d6 48 bb ab 95 7a 3d
       0.045370948 -0.052857984 -0.0030645342 0.06117789
0001c0 b0 c5 72 bd da e4 84 bc d4 4d d4 3c 59 2f 93 bc
       -0.05927056 -0.016222406 0.025916018 -0.017966913
0001d0 24 16 6a 3d 51 34 7b 3c 5b 7f 01 bd f1 5a 74 bd
       0.05715002 0.015332297 -0.031615596 -0.05965704
0001e0 4b b2 a5 3c d0 69 3c 3c 21 99 e4 3c e3 26 62 bd
       0.020226618 0.011499837 0.027905049 -0.055212867
0001f0 b8 11 fe 3c e2 e2 4b 3d a8 cf dc 3c 71 61 32 3d
       0.031014308 0.04977692 0.026954487 0.04354996
000200 85 0b 8e 3a 62 4f 9f bc c8 45 04 bc b9 dc 26 3d
       0.0010837173 -0.019447032 -0.008073278 0.04073784
000210 a3 e0 fd bc 0b db 3d 3d 4c 2d 9e bb 11 a7 18 3d
       -0.030990904 0.046351474 -0.004827177 0.037268702
000220 2f 5e 88 3c a6 ab 9f 3c e3 a1 76 3d eb 64 23 3c
       0.016646473 0.019491028 0.06021298 0.009972791
000230 f3 44 d6 bb fa 97 41 bd 2b 72 64 bd 88 ee 88 bc
       -0.006538981 -0.047264077 -0.05577294 -0.016715303
000240 f1 80 23 3d 69 6f 80 3d e4 65 d2 bc 81 33 74 3d
       0.03991789 0.0627125 -0.02568335 0.05961943
000250 3c 1d 0d bd 2a 97 1e bd ab 9b 4e bd 2a e7 58 3c
       -0.03445171 -0.03871838 -0.050441425 0.013238708
000260 4d 8b 65 39 7f 7b 78 3d 0a 8b e1 ba 36 49 21 3b
       0.00021891035 0.06066465 -0.0017207575 0.0024610288
000270 8f 6c 4c 3d 26 de cb 3c a7 1d aa 3b 6b 8d 26 bb
       0.049908217 0.024886202 0.005191523 -0.0025413882
000280 f4 c6 06 3d a3 a0 2e 3d 3b 2f 49 bd 8a ef 5d bd
       0.03290458 0.042633664 -0.049117308 -0.05418352
000290 dd 98 75 3d c7 b4 16 bb 4c ef 86 bc c8 a3 ef bc
       0.059960235 -0.0022995935 -0.016471528 -0.029252902
0002a0 f2 a4 80 bd 26 7d e2 bc f5 98 3a 3d 96 28 2a 3c
       -0.06281461 -0.027647566 0.045556027 0.010385653
0002b0 76 81 5b bd a1 5e ed 3c 3b 2b 54 bd 09 92 c0 3c
       -0.05359026 0.028975787 -0.05179904 0.023507135
0002c0 ee 72 ba bb 8a a5 3b bd bf 0c 1e 3d f4 aa 13 3d
       -0.00568997 -0.045812167 0.038586374 0.036051705
0002d0 7b f0 b8 3b da 65 ec 3c b1 c7 6c bb cf 59 7f bc
       0.005643902 0.02885716 -0.0036129768 -0.015585377
0002e0 9a 2d 31 bd 1d 6c ad 3b 0d 5a 6e bc 39 da ec 3b
       -0.04325638 0.005292429 -0.014547837 0.0072281626
0002f0 32 5e 1e 3d 35 12 6e 3d d4 8f 12 bb fe c6 0b bd
       0.03866405 0.058122832 -0.002236356 -0.03412532
000300 ff d5 ba 3c 34 9e 68 3c 46 36 64 bd 0c 21 72 bd
       0.02280712 0.014197875 -0.05571582 -0.059113547
000310 e3 0f b3 3c 24 f3 64 3d 18 24 43 3d 4b e9 57 3d
       0.021858161 0.05589594 0.047641844 0.05271272
000320 da 87 6a bb 5e c0 1b bd 46 2f 29 bd 04 ed 05 3c
       -0.003578654 -0.038025253 -0.04130485 0.008174185
000330 7d d9 cc 3c 71 67 65 bd a7 7e 78 bd 13 69 df bc
       0.02500605 -0.056006853 -0.06066766 -0.027271783
000340 bc b7 9f 3a c6 06 da bc 77 6a 4b 3d e4 12 33 3d
       0.0012185494 -0.026614558 0.04966208 0.043719187
000350 16 62 da bc e1 62 2c bc 52 f0 41 3d b4 6c 73 3c
       -0.0266581 -0.010521621 0.047348328 0.01485746
000360 96 c7 7d 3b 4a 41 3e 3d b2 6e fc bc 6f 0d 2f 3d
       0.0038723699 0.046448983 -0.030814502 0.04273742
000370 a0 fd da 3a 15 e5 79 bc b4 c3 30 bd c2 0f 39 bd
       0.0016707666 -0.015252371 -0.043155387 -0.045181043
000380 d2 be 40 bd a3 4b 12 bd 8a c5 f6 3b ef 76 fc bc
       -0.04705698 -0.035716664 0.0075308727 -0.03081843
000390 61 c2 69 3c 34 02 8b 3c 57 6a c5 bc a0 5e c6 bb
       0.014267535 0.016968824 -0.024098558 -0.0060537606
0003a0 8b 07 ec 3b f1 cd 68 3c 38 20 73 ba 0e 7f 35 bd
       0.0072030476 0.0142092565 -0.00092745153 -0.044310622
0003b0 17 bb ef bc ca aa ee bc bc 89 c9 bc b2 95 bd 3b
       -0.029264016 -0.029134173 -0.02460181 0.0057856673
0003c0 a9 09 28 3d 26 9b 5d bd 39 6b 7e bd b0 3b 3d 3d
       0.041024838 -0.05410304 -0.062113974 0.0461995
0003d0 52 c6 f2 bc 2e de 6f 3d 15 5c 10 3d c5 bf d0 bc
       -0.029635582 0.058561496 0.035244066 -0.025482068
0003e0 e0 4a 0f 3d 63 42 21 3d 1b c3 72 bd 0b 62 76 bd
       0.034983516 0.039369952 -0.0592681 -0.060152095
0003f0 fe 33 73 3d df e5 1b bd 44 33 79 bb 3e 76 50 bd
       0.059375755 -0.03806102 -0.0038024941 -0.050894015

smallfc.1.0.bias f4 [32]
000000 77 f4 74 3d 9f 3b 55 3d 51 aa 97 ba e6 c7 6d 3c
       0.059803452 0.052058812 -0.0011571144 0.0145129915
000010 6a 03 33 3d fe a9 f6 3c 96 83 df bc 97 68 51 3d
       0.043704428 0.030110355 -0.027284425 0.051125135
000020 c4 e4 15 bd 94 b5 aa 3c 4a 0c 36 3d 8d 0c 50 bd
       -0.03659512 0.020838536 0.044445314 -0.05079322
000030 cc 21 68 3d b2 e0 d1 3c 3c fb 07 3d 17 be 15 3c
       0.056672856 0.025619838 0.03319858 0.009139559
000040 ab ac 0e 3d 3a e0 02 3d 00 ec cf b9 ae 3e 11 3d
       0.034832638 0.03195212 -0.0003965795 0.035460167
000050 85 14 58 3c 1d 1e f4 3c 8c a4 4c bd 08 a8 7a 3d
       0.013188486 0.029799515 -0.04996161 0.061195403
000060 84 47 15 3d dc 17 06 3c 25 03 8a bb f5 1c 22 3d
       0.036445156 0.008184399 -0.0042118006 0.039578397
000070 18 5e d6 3c de c5 8b 3b 48 78 22 bd 2f 47 b6 bc
       0.026167914 0.004265531 -0.03966549 -0.02225074

smallfc.1.2.weight f4 [3, 32]
000000 d5 47 1b 3e 63 80 37 3d 08 a9 b5 3c e7 da d3 bd
       0.1516412 0.044800173 0.022175327 -0.10344487
000010 51 92 2f bd 8d 37 8a bd 32 d0 07 3e 7f 2c 0d 3e
       -0.042864148 -0.06748877 0.13263014 0.13786505
000020 56 74 3f bd 48 b2 23 be 4e 3c b9 bd 07 06 d6 bb
       -0.046741806 -0.15985978 -0.09044705 -0.0065314802
000030 c4 7b 9f bd 77 b6 a9 bd 25 d1 61 bd fb e7 ba bd
       -0.07787278 -0.082867555 -0.055131096 -0.09126278
000040 7a 38 f8 3d 4b 21 d8 bc e2 30 da 3d 6d 71 80 3d
       0.12120147 -0.026383063 0.10653855 0.06271634
000050 da d7 2a be 86 64 c3 bc f7 ce 50 bc 9a eb ab 3c
       -0.16683903 -0.023851644 -0.012744657 0.020986367
000060 9b be 10 3e 61 64 55 bd 14 cc 30 3e e5 5b 19 3e
       0.1413521 -0.052097682 0.1726535 0.14976461
000070 f1 74 1b 3e f6 39 19 be b3 a4 f1 bd 15 4d d1 3c
       0.15181328 -0.14963517 -0.11798992 0.02554945
000080 65 4e c8 3d f1 43 19 3e 69 3b cd 3d 06 14 f0 bc
       0.097805776 0.14967324 0.10021097 -0.029306423
000090 a6 b7 0b be d5 65 24 3e 30 a0 7c bd 20 ea cf bb
       -0.13644275 0.16054471 -0.061676204 -0.0063450485
0000a0 cd c6 0c 3e 5c 18 ee 3d cb b9 f1 bd bc b5 32 be
       0.13747711 0.1162574 -0.11803015 -0.17452139
0000b0 e3 90 e8 bd f5 38 8e bc c9 dd 2b 3e a0 75 3d bd
       -0.1135576 -0.017361144 0.16783823 -0.046254754
0000c0 ad 04 30 3d bc d1 0a bc f6 9c 41 bd b6 dc 0d bc
       0.04297321 -0.008472856 -0.04726883 -0.008658579
0000d0 f8 74 fa 3d 5e 81 06 bd e0 67 1a 3d 61 54 2f 3d
       0.12229341 -0.032838218 0.03769672 0.04280508
0000e0 c0 04 fa bb 9c 19 91 3d 37 01 16 be 6d 23 ef 3d
       -0.007629961 0.07084963 -0.14648901 0.11676679
0000f0 84 5e 7d 3c 0a cc 46 3d 52 58 11 3e 57 8f 14 bd
       0.015464429 0.04853443 0.14193848 -0.036269512
000100 46 bc 95 3c 51 81 db bd b0 9c 06 3e b5 ab 58 3c
       0.018278252 -0.107180245 0.13145709 0.013224532
000110 a4 aa 43 bd 80 ce f4 bb 93 6a 19 bc 71 a6 12 bd
       -0.047770157 -0.007470906 -0.009363788 -0.035803262
000120 2f 97 12 3d 22 c6 d3 3d 15 13 02 3e a3 24 dc 3d
       0.03578871 0.10340525 0.12702592 0.107491754
000130 15 b2 db 3d ae 56 88 3d c9 d7 81 3d 0a 3a b3 bc
       0.10727326 0.06657158 0.06339986 -0.021878261
000140 32 e6 21 be f0 2b b4 bd 1d 89 d4 3d f9 d7 25 be
       -0.15810469 -0.08797443 0.10377715 -0.16195668
000150 28 71 bc 3c 4e 20 31 3d db 69 1b be a2 63 83 bd
       0.023003176 0.0432437 -0.151771 -0.06415488
000160 dc 37 bb 3d e0 db 00 be 70 89 e1 bd 8a 7e a1 3d
       0.09141514 -0.12583876 -0.11012542 0.078854635
000170 41 76 07 3d 8e 6f 21 3e e2 9f 95 3d 56 ab 8b 3d
       0.03307176 0.15765211 0.07305886 0.06819789

smallfc.1.2.bias f4 [3]
000000 dd 0c bf bb 7c 39 80 bd 8e c6 3d bd
       -0.005830391 -0.06260964 -0.046331935
