saved_models/rd/model_99.pt (torch, 336908 bytes, 8 tensors)

layers.0.weight f4 [200, 12]
0	0x3d9340d8	0.07190102
1	0x3d540ab2	0.051768012
2	0xbdd727e7	-0.10505658
3	0xbd8cdf11	-0.06878484
4	0x3c11b2f7	0.008892766
5	0xbcc86358	-0.024461433
6	0xbea87179	-0.32899073
7	0x3de12731	0.10993803
8	0xbbc74684	-0.006081404
9	0x3e18bdb2	0.14916113
10	0x3cde44d4	0.02713243
11	0xbdc9f07e	-0.09860323
12	0xbe4510f0	-0.19244742
13	0xbba8cc5c	-0.0051513147
14	0xbd477bb7	-0.048701968
15	0xbcf9ec9c	-0.030508332
16	0xbc23b228	-0.009991206
17	0x3d8ce5e1	0.068797834
18	0xbe6d551c	-0.23176998
19	0xbd5bef51	-0.053695027
20	0xbcf5850f	-0.029970674
21	0x3d18d444	0.037311807
22	0xbd397083	-0.045273315
23	0x3d870576	0.065928385
24	0x3d921d99	0.071345516
25	0x3c2d63de	0.010582892
26	0x3da80592	0.082041875
27	0xbdecb4b2	-0.115579024
28	0xbd747d3d	-0.05968975
29	0xbd074f13	-0.033034395
30	0xbe88d777	-0.26726887
31	0x39ea04d1	0.00044635547
32	0xbdc4aaf5	-0.0960292
33	0xbc86d474	-0.016458727
34	0xbd544849	-0.05182675
35	0xbe4f6587	-0.20253573
36	0xbe9b46eb	-0.30327544
37	0x3d61004f	0.054931935
38	0x3cde6d00	0.027151585
39	0x3df74f49	0.12075669
40	0xbc636872	-0.013879882
41	0xbd24229d	-0.040072072
42	0xbc8dd2b4	-0.017312385
43	0xbd460d06	-0.048352264
44	0xbd45847f	-0.04822206
45	0xbd7e008d	-0.062012244
46	0x3e06f94a	0.13181034
47	0x3dfe741a	0.12424488
48	0xbddb8791	-0.107192166
49	0xbcb42166	-0.021988582
50	0x3d523d8c	0.051328227
51	0x3dc3201a	0.09527607
52	0xbb6bdf56	-0.0035991273
53	0xbd0a1417	-0.033710565
54	0x3e519f7b	0.20470993
55	0x3c667f27	0.014068401
56	0xbbee86c7	-0.0072792503
57	0xbd3d84c7	-0.046269204
58	0xbd90db30	-0.07073057
59	0xbca451d9	-0.02005856
60	0x3e1dbea6	0.15404758
61	0x3cf5e2ec	0.030015431
62	0xbd2c160e	-0.04201322
63	0x3da326bb	0.079663716
64	0x3dc7d40b	0.09757241
65	0xbdb0a1af	-0.08624589
66	0xbe3cb658	-0.18428934
67	0x3d9d57b6	0.07682745
68	0x3d1d7ab2	0.03844709
69	0x3e3d74cc	0.18501586
70	0xbde1e376	-0.11029713
71	0xbe439c2c	-0.19102544
72	0x3e35e177	0.1776179
73	0x3d3e2563	0.046422374
74	0xbabde69b	-0.0014488281
75	0x3e38fe99	0.18065871
76	0x3c5a2538	0.013314538
77	0xbdb9ce80	-0.0907259
78	0xbd9ecf0b	-0.07754334
79	0x3d684726	0.056708477
80	0xbdb7da95	-0.08977238
81	0x3e8084b7	0.25101253
82	0x3e291986	0.16513643
83	0xbe388640	-0.18019962
84	0x3d04fe47	0.03246906
85	0x3c82a6e5	0.015948722
86	0xbcc314d5	-0.023813644
87	0xbd06a0a4	-0.032868043
88	0x3d223ec5	0.039610643
89	0xbd3d4e86	-0.046217464
90	0x3e6bc0b5	0.2302273
91	0x3cbfc09c	0.023407273
92	0x3c5e06cd	0.013551426
93	0x3d6b6282	0.05746699
94	0xbdd189ed	-0.102313854
95	0xbd9bb1fe	-0.07602309
96	0x3e7f4fe7	0.24932824
97	0x3d7b4893	0.06134851
98	0xbd37d739	-0.044882987
99	0xbdcf8ea9	-0.10134632
100	0x3e0ce8e2	0.13760713
101	0x3e11a504	0.14223105
102	0xbe187630	-0.14888835
103	0x3be5c0d4	0.0070115123
104	0xbdc07850	-0.09397948
105	0xbc3cf456	-0.011532864
106	0xbe37c85c	-0.17947525
107	0xbd5f1d93	-0.054471564
108	0x3d5e7b30	0.0543167
109	0x3daa2148	0.08307129
110	0xbc810cf1	-0.015753241
111	0x3d66840e	0.05627828
112	0xbdb0625c	-0.086125106
113	0x3e818cc5	0.2530271
114	0x3ebbf159	0.3670757
115	0xbd1d6541	-0.03842664
116	0xbd21b802	-0.039482124
117	0x3c9f0ea3	0.019416159
118	0x3cb05b95	0.021528045
119	0x3bc61f77	0.0060462314
120	0x3e73dc06	0.23814401
121	0x3da30a19	0.0796091
122	0xbca329e6	-0.01991744
123	0x3d8b30d5	0.06796423
124	0xbe3dfd71	-0.18553711
125	0xbda7171c	-0.08158705
126	0x3d1eba69	0.038751993
127	0xbd0e8176	-0.034791432
128	0xbc3bd1ce	-0.011463596
129	0xbde120a4	-0.10992554
130	0xbc7ecc7b	-0.015551682
131	0xbbef5b74	-0.0073046032
132	0xbebe2658	-0.3713863
133	0xbd895086	-0.06704812
134	0x3d451017	0.048111048
135	0x3b357092	0.0027685505
136	0xbd73e23f	-0.059541937
137	0xbcb52eb7	-0.022117002
138	0x3dbd64b7	0.092477255
139	0x3d34d6f2	0.0441503
140	0x3dab2bab	0.083579384
141	0x3d0b33b6	0.033984862
142	0x3d827629	0.063701935
143	0xbd337530	-0.04381293
144	0xbe213d5d	-0.15746064
145	0x3c94638e	0.018113878
146	0x3cce51a6	0.025185417
147	0xbd0539b1	-0.032525722
148	0xbe090140	-0.13379383
149	0xbd55a6d9	-0.05216107
150	0xbe99b177	-0.30018207
151	0xbe1f1503	-0.15535359
152	0xbd32fb54	-0.043696716
153	0x3cfebd60	0.03109616
154	0x3d527c80	0.051388264
155	0xbd950dda	-0.072780326
156	0x3e1d069c	0.15334553
157	0xbc8fc3a7	-0.017549349
158	0xbc3fd6bd	-0.011708912
159	0xbce6fd57	-0.028196974
160	0xbc355131	-0.011066721
161	0xbd2eb9e9	-0.042657766
162	0xbe8437c2	-0.2582379
163	0xbd2274a0	-0.039662004
164	0xbd2ff58d	-0.042958785
165	0xbd2c5f26	-0.042082928
166	0xbd979f9b	-0.07403489
167	0x3d8978e9	0.06712515
168	0xbe29d053	-0.16583376
169	0xbd66110b	-0.056168597
170	0x3da1e447	0.079048686
171	0xbde16831	-0.11006201
172	0x3d6c392a	0.057671703
173	0x3d978687	0.07398706
174	0xbea1480f	-0.3150029
175	0xbc4c2fcb	-0.012462567
176	0xba910925	-0.0011065347
177	0xbe170bb7	-0.14750563
178	0x3e359967	0.177343
179	0xbda05e79	-0.07830519
180	0x3dc3a612	0.0955316
181	0xbd35a34b	-0.04434518
182	0x3d319861	0.04335821
183	0x3d0d94ca	0.034565724
184	0x3d42993c	0.047509417
185	0x3ad5bca3	0.0016306828
186	0xbe35741a	-0.1772007
187	0x3c2d2536	0.010567954
188	0xbd26cc09	-0.040721927
189	0x3d20dacd	0.039271165
190	0x3df23a31	0.118275054
191	0x3ccb116e	0.024788585
192	0xbe68172a	-0.22665086
193	0x3cf3d367	0.02976389
194	0xbd7f06a1	-0.06226218
195	0xbd90b2b0	-0.07065332
196	0xbe002b04	-0.12516409
197	0x3dc9a134	0.098452
198	0xbe47c0dd	-0.19507165
199	0x3cee571a	0.029094268
200	0xbcb73c8a	-0.022367734
201	0x3d825411	0.06363691
202	0xbdfc751a	-0.12327023
203	0x3c8d8083	0.017273193
204	0xbe92d4b7	-0.28677914
205	0x3ce02d12	0.027365241
206	0xbc987679	-0.01861118
207	0x3dba6907	0.091020636
208	0x3bd9cbb0	0.006646596
209	0xbc5f7b63	-0.0136402575
210	0x3d4dfa83	0.050287735
211	0xbd10ef44	-0.03538443
212	0xbafc7069	-0.0019259575
213	0xbcfeab23	-0.031087464
214	0xbd41b4a2	-0.047291405
215	0x3d0b7f78	0.03405711
216	0xbe69ad72	-0.2282007
217	0x3c6264aa	0.0138179455
218	0x3d551652	0.05202324
219	0xbd9ec63f	-0.07752656
220	0xbd1578ee	-0.03649228
221	0x3de2da13	0.110767506
222	0x3dc9336b	0.0982426
223	0x3d087da8	0.03332296
224	0xbcc2778e	-0.023738649
225	0x3dba5f8c	0.09100255
226	0xbd0a88a4	-0.033821717
227	0xbe19632b	-0.14979236
228	0xbdc82544	-0.09772733
229	0x3cd70f9c	0.02625256
230	0xbce8caaa	-0.02841695
231	0x3d268a6b	0.04065935
232	0xbcc3385c	-0.023830585
233	0x3df8e821	0.1215365
234	0x3e9b9a0a	0.3039096
235	0xbd24da57	-0.040247288
236	0x3b4e0137	0.003143383
237	0xbd9d7fa8	-0.07690364
238	0xbd42a118	-0.047516912
239	0x3da0db88	0.07854372
240	0x3dcc44f1	0.09974087
241	0x3c46fde3	0.012145492
242	0xbc1168dc	-0.008875098
243	0x3c12b03d	0.008953151
244	0x3d95f5b4	0.07322255
245	0xbd4e5747	-0.050376203
246	0x3eb0b650	0.34514093
247	0xbdb36acd	-0.08760605
248	0x3d8096d8	0.06278771
249	0x3b875020	0.0041294247
250	0xbd976cc5	-0.07393793
251	0x3d0fd483	0.035114776
252	0x3e69513c	0.22784895
253	0x3b6e2d43	0.0036342896
254	0xbcedbe19	-0.02902131
255	0xbbcd4bf9	-0.00626516

layers.0.bias f4 [200]
0	0x3f2e1b73	0.68010634
1	0x3e807cd0	0.25095224
2	0xbe1de563	-0.15419535
3	0x3ecae7cf	0.3962998
4	0x3e17d2f2	0.14826563
5	0x3dc12ea5	0.09432725
6	0xbc02ea7b	-0.007990475
7	0xbe3ce9d2	-0.1844857
8	0xbd35700f	-0.04429632
9	0x3ed48926	0.41510886
10	0xbddea637	-0.10871547
11	0x3ef2d618	0.47428966
12	0x3edf9791	0.43670323
13	0x3dbf9850	0.09355223
14	0x3f1b7e50	0.6073961
15	0xbe6834fb	-0.2267646
16	0xbe5801ac	-0.21094388
17	0x3e913c28	0.28366208
18	0xbea400ab	-0.3203176
19	0x3f1ee439	0.6206699
20	0x3ede517c	0.43421543
21	0xbd837ce8	-0.06420308
22	0xbe8e1b18	-0.27755046
23	0x3ef87e0b	0.48533663
24	0x3e00b146	0.12567624
25	0xbd13d59b	-0.036092382
26	0xbc00c295	-0.007858892
27	0x3cb24dbe	0.021765586
28	0x3ebc7894	0.36810744
29	0x3e039101	0.12848283
30	0x3e91a38c	0.2844509
31	0x3e88694a	0.2664283
32	0x3f01f019	0.50756985
33	0x3f0ad43f	0.5423011
34	0x3f5e066b	0.86728543
35	0x3ea1aaff	0.31575772
36	0x3f669764	0.90074754
37	0x3a5efd4b	0.00085063715
38	0x3e207864	0.15670925
39	0xbc201cf2	-0.009772526
40	0x3eb3b4e0	0.35098934
41	0x3f3a8502	0.72859204
42	0x3e6da455	0.23207219
43	0xbe4dea82	-0.20108989
44	0xbe819008	-0.253052
45	0x3f4fd49d	0.811838
46	0x3e8b6446	0.2722494
47	0x3e3a5130	0.18195033
48	0x3ca77888	0.020443216
49	0x3e852523	0.26004896
50	0x3e76a147	0.2408496
51	0x3f082176	0.5317606
52	0x3d3e4d84	0.046460643
53	0xbe1bb146	-0.15204343
54	0x3f38891d	0.7208422
55	0xbdd63fc1	-0.10461379
56	0xbe14cbe2	-0.145309
57	0x3e8f4580	0.27982712
58	0x3f523b19	0.82121426
59	0x3ec14bd8	0.37753177
60	0x3f1ec39b	0.6201722
61	0xbc309569	-0.01077781
62	0x3f2bc020	0.67090034
63	0x3d318692	0.043341227
64	0x3f05b05e	0.5222224
65	0x3e6cf805	0.23141487
66	0x3ed60088	0.4179728
67	0x3e1bdd73	0.15221195
68	0xbe22f5f5	-0.15914138
69	0x3f371fb6	0.7153276
70	0x3e8cd32d	0.27504864
71	0xbd9fdc16	-0.0780565
72	0xbd2d4d8c	-0.042310283
73	0x3e436204	0.19080359
74	0x3f269ce4	0.65083146
75	0xbcc9806e	-0.024597373
76	0x3f8d9a79	1.1062766
77	0x3dd99657	0.10624378
78	0xbe25054a	-0.16115299
79	0x3f4af79f	0.7928409
80	0xbe1cd778	-0.1531657
81	0x3e2023c0	0.15638638
82	0x3e0cc2ce	0.13746187
83	0x3e7b48a0	0.24539423
84	0xbea1e4e6	-0.31619948
85	0xbe2bd50d	-0.16780491
86	0x3f109f12	0.5649272
87	0x3e781667	0.24227296
88	0x3e1db27b	0.15400116
89	0x3ec3184e	0.3810448
90	0xbd87aeec	-0.066251606
91	0x3e960232	0.2929855
92	0x3e2232e8	0.15839732
93	0x3f2a5388	0.6653371
94	0xbe210fee	-0.15728733
95	0x3ea109ca	0.3145278
96	0x3ebea3e9	0.3723443
97	0x3f2ed42b	0.6829249
98	0x3da7e66d	0.08198247
99	0x3ef7a28f	0.4836621
100	0x3f0a5b13	0.5404522
101	0x3f307957	0.6893515
102	0xbe522f36	-0.20525822
103	0x3f824c8b	1.0179609
104	0x3dd9c7d0	0.10633814
105	0xbe7b3183	-0.24530606
106	0x3e8cf589	0.27531078
107	0x3f6582da	0.8965279
108	0x3e084de0	0.13310957
109	0x3ee7631e	0.45192808
110	0x3d8263cb	0.0636669
111	0x3f0b379e	0.5438174
112	0x3f4543d8	0.77056646
113	0x3f0bf196	0.54665506
114	0xbe9e7fba	-0.30956823
115	0x3e82c066	0.25537413
116	0x3f0a2cab	0.5397441
117	0xbe04f659	-0.12984599
118	0x3f099972	0.53749764
119	0xbe945983	-0.28974542
120	0xbd643f6b	-0.055724543
121	0x3f047767	0.51744694
122	0xbee3f754	-0.44524634
123	0xbe8c75da	-0.27433664
124	0x3f095693	0.53647727
125	0xbe4e79fd	-0.20163722
126	0x3e90b285	0.282612
127	0xbcebdbf3	-0.028791403
128	0xbd8aa564	-0.06769827
129	0x3e394a43	0.18094735
130	0x3f0b75eb	0.54476804
131	0xbc19107e	-0.009342311
132	0x3ef6911a	0.4815758
133	0x3ecb4607	0.39701864
134	0x3f2c455d	0.6729334
135	0xbd5802ad	-0.052736927
136	0x3e0b31c3	0.13593201
137	0x3f087198	0.5329833
138	0x3efa9084	0.48938382
139	0x3c262926	0.0101416465
140	0xbeaaff5f	-0.33397958
141	0xbdac1b18	-0.08403605
142	0xbd6bb904	-0.05754949
143	0x3d6fdea1	0.058561925
144	0xbf1674d9	-0.58772045
145	0xbeb1e550	-0.34745264
146	0x3ebb3c76	0.36569566
147	0x3ef536d6	0.478934
148	0xbe569c56	-0.20958075
149	0x3d4d47ef	0.05011743
150	0x3eb0082a	0.3438123
151	0x3e48abb6	0.19596753
152	0xbd88a101	-0.06671334
153	0x3e9fd500	0.31217194
154	0x3f81774c	1.0114532
155	0x3ee5cb69	0.44881752
156	0xbee4fabb	-0.44722542
157	0x3ed19694	0.40935194
158	0x3d4d277f	0.050086495
159	0xbe206584	-0.15663725
160	0xbea08e7b	-0.31358704
161	0xbd38308c	-0.044968173
162	0x3ee069fc	0.4383086
163	0x3cbd4000	0.023101807
164	0x3d432be9	0.047649298
165	0x3ed5681b	0.4168099
166	0xbd55c5e6	-0.052190684
167	0x3ed33fc7	0.41259596
168	0x3f7fb3a4	0.99883485
169	0xbd9fbaad	-0.077992775
170	0x3eb508be	0.35358232
171	0x3ed8c232	0.4233566
172	0x3f56d315	0.83915836
173	0x3f268000	0.6503906
174	0x3e637b02	0.22214893
175	0x3dbd904a	0.092560366
176	0xbd5c7d72	-0.05383057
177	0x3edbda9b	0.4294022
178	0x3f267db4	0.6503556
179	0xbddb0c85	-0.10695747
180	0xbdf958ea	-0.12175162
181	0x3f2bbb96	0.6708311
182	0xbd850191	-0.064944394
183	0x3ec46661	0.3835936
184	0x3d5d219f	0.05398714
185	0x3f4df424	0.80450654
186	0x3f77f1ea	0.96853507
187	0x3e7843ab	0.24244563
188	0x3e606f71	0.21917512
189	0x3ecef2ab	0.40419516
190	0x3f3d5ffa	0.73974574
191	0x3ef8ce31	0.48594812
192	0xbea2a78c	-0.31768453
193	0x3e9c8528	0.3057034
194	0xbd292b93	-0.04130132
195	0x3f17b21c	0.5925615
196	0x3f6dafb2	0.92846215
197	0x3efb39e2	0.490676
198	0x3ee4ed2f	0.44712207
199	0x3e832807	0.25616476

layers.2.0.weight f4 [200, 200]
0	0x3f1baaab	0.60807294
1	0x3f1151b1	0.56765276
2	0x3eb50755	0.35357156
3	0x3e31332d	0.17304678
4	0xbe13a85b	-0.14419691
5	0x3eb236cc	0.34807432
6	0x3ea74d4d	0.32676163
7	0xbe79dc9c	-0.24400562
8	0x3dbbee30	0.0917629
9	0xbe7ebe6e	-0.2487733
10	0xbe1026c6	-0.14077291
11	0x3e3dd600	0.18538666
12	0x3f40485f	0.7511043
13	0x3ec85abc	0.39131725
14	0x3f396775	0.7242349
15	0x3eb5d9b6	0.35517663
16	0x3ec12bc1	0.37728694
17	0x3d2d26e8	0.042273432
18	0x3d38db85	0.045131225
19	0xbd803769	-0.06260569
20	0xbe748b34	-0.23881227
21	0x3dbaebf6	0.09127037
22	0x3e8e51d1	0.27796796
23	0x3eaadf49	0.33373478
24	0x3e621a1f	0.22080277
25	0xbd128de2	-0.03577984
26	0xbe30f1e6	-0.17279777
27	0x3e5176c2	0.20455459
28	0xbe724137	-0.2365769
29	0x3e1be8c0	0.15225506
30	0xbd7a501d	-0.06111156
31	0xbdd3846a	-0.1032799
32	0xbe61919f	-0.22028206
33	0x3e6aa94b	0.22916143
34	0x3f57d6d9	0.84312207
35	0x3eb4e5a1	0.35331443
36	0xbe2ad5ef	-0.16683172
37	0xbc326c80	-0.010890126
38	0x3bd114f4	0.0063806716
39	0x3d794757	0.06085905
40	0xbd97006a	-0.07373126
41	0xbe44c7b7	-0.1921681
42	0x3d9e3184	0.07724288
43	0xbdbb07ec	-0.0913237
44	0x3f3929f7	0.7232966
45	0x3f7810e7	0.9690079
46	0xbe5131e9	-0.20429195
47	0xbdfdfa6a	-0.12401278
48	0x3f523f6d	0.8212803
49	0xbde03b10	-0.10948765
50	0x3dd523f3	0.104072474
51	0xbe1da53f	-0.15395068
52	0xbdaebf0f	-0.08532535
53	0xbd13deec	-0.036101267
54	0x3f4abff4	0.7919915
55	0x3ee7c235	0.45265356
56	0xbe697b75	-0.22801001
57	0xbe11bb8b	-0.14231698
58	0x3ee6e492	0.4509626
59	0xbdd4b1ed	-0.10385499
60	0xbe8439f6	-0.2582547
61	0x3e83f61d	0.25773707
62	0x3ee4cb6c	0.4468645
63	0x3f4ac4bb	0.79206437
64	0x3d8cac6d	0.06868825
65	0x3eab47de	0.33453268
66	0xbc8759b7	-0.016522272
67	0x3f390e50	0.72287464
68	0xbd94bbc1	-0.07262374
69	0x3f53586c	0.82556796
70	0x3b20cfab	0.0024537842
71	0xbe4e22d8	-0.2013048
72	0xbe143278	-0.14472377
73	0x3e97bdfd	0.29637137
74	0x3f1dc09a	0.6162201
75	0x3f083455	0.5320485
76	0xbd9c763a	-0.076397374
77	0xbe7a0bb9	-0.24418534
78	0xbcebedc6	-0.028799903
79	0xbdd904ac	-0.10596594
80	0xbe00a53d	-0.12563033
81	0x3e616912	0.22012737
82	0x3d560126	0.05224719
83	0xbc0429a4	-0.0080665685
84	0xbdc8c4b1	-0.09803141
85	0x3eb27baa	0.34859973
86	0x3f4ca9a0	0.7994633
87	0x3d596b8f	0.05308109
88	0xbe218dc8	-0.15776742
89	0xbe772a9c	-0.24137348
90	0xbe38d6d1	-0.18050696
91	0x3f1d731e	0.6150378
92	0x3e90450c	0.2817768
93	0x3ec5a217	0.38600227
94	0x3ec654f1	0.3873668
95	0xbe0aa6ae	-0.13540146
96	0x3e879a72	0.2648502
97	0x3d6e0bf9	0.058116887
98	0xbe5a1d9a	-0.21300355
99	0x3db00351	0.085943826
100	0x3e237d29	0.15965714
101	0x3eb3d14a	0.35120612
102	0xbe30f3bd	-0.17280479
103	0xbe371176	-0.17877755
104	0xbe7551cc	-0.23956984
105	0x3dd4c854	0.10389772
106	0xbcebf184	-0.028801687
107	0xbdce6257	-0.100773506
108	0xbdfbc0d0	-0.122926354
109	0x3d31b960	0.043389678
110	0x3e34ae52	0.17644623
111	0xbe4be05f	-0.1990981
112	0x3f353d4f	0.70796674
113	0x3f541947	0.8285107
114	0x3dd83acc	0.105580896
115	0xbe10b3cb	-0.14131086
116	0xbe4a1650	-0.19735074
117	0xbdf6bd20	-0.120477915
118	0x3ecd4639	0.40092638
119	0x3e1a6816	0.15078768
120	0x3e87feba	0.26561528
121	0x3e8d1090	0.275517
122	0x3ee83990	0.45356417
123	0x3eb01417	0.34390327
124	0x3e76a4ec	0.2408635
125	0x3de664c8	0.11249691
126	0x3e5e565c	0.21712631
127	0xbe9f687d	-0.31134406
128	0x3c4a1f01	0.0123364935
129	0x3e2484cf	0.16066287
130	0x3c7da1ac	0.01548044
131	0xbe645859	-0.22299327
132	0xbddb6f3c	-0.10714576
133	0xbd986f9f	-0.07443165
134	0x3f414515	0.75496036
135	0xbe9c2ecc	-0.30504453
136	0xbe92b297	-0.28651878
137	0xbe2ef9d3	-0.17087488
138	0xbdc3eae1	-0.09566284
139	0xbe0ba62e	-0.13637611
140	0x3f05d525	0.5227836
141	0x3f1e6e8f	0.6188745
142	0xbe5e37d0	-0.21700978
143	0xbc51929c	-0.012791302
144	0xb9b20df4	-0.00033961202
145	0x3cb54065	0.022125432
146	0xbd17ab61	-0.037028674
147	0x3e2d0822	0.16897634
148	0x3e7b3867	0.24533235
149	0x3e03dca3	0.12877135
150	0x3edde1da	0.43336374
151	0x3de82074	0.11334315
152	0x3f3c7b80	0.73625946
153	0x3db0ee10	0.08639157
154	0xbe558b91	-0.20854022
155	0x3ea4f763	0.3221999
156	0x3c66ff32	0.014098929
157	0xbd54ca96	-0.051951014
158	0x3eefebec	0.46859682
159	0x3e03e60c	0.12880725
160	0x3d4b513b	0.049638014
161	0x3f410696	0.75400674
162	0x3e98abe3	0.2981864
163	0x3e0722eb	0.13196914
164	0x3eb311db	0.3497456
165	0xbd264b78	-0.040599316
166	0x3dc1b526	0.094583794
167	0x3eec78ff	0.46186063
168	0xbd0622aa	-0.032747902
169	0x3f2e4dd7	0.68087524
170	0xbe306f58	-0.17229974
171	0x3f4138d5	0.75477344
172	0xbde726fe	-0.11286734
173	0x3f0e6c6e	0.556342
174	0x3dca35ac	0.09873518
175	0x3e29172a	0.16512743
176	0xbe411052	-0.18853882
177	0x3f39f2fc	0.7263639
178	0x3e9b25a2	0.3030215
179	0x3e0b14af	0.13582109
180	0xbe86928e	-0.26283687
181	0x3ea46edb	0.32115826
182	0x3f245c6c	0.64203525
183	0xbe1936c8	-0.14962304
184	0xbdf85829	-0.1212619
185	0xbe47e69a	-0.19521561
186	0xbe43e757	-0.19131218
187	0x3ea2b6f8	0.3178022
188	0xbe8fc754	-0.28081763
189	0x3cdbc4f8	0.02682732
190	0x3f57ffcc	0.8437469
191	0xbe45c3c9	-0.19312967
192	0x3e00d199	0.12579955
193	0xbe9bea12	-0.3045202
194	0xbe10255a	-0.14076748
195	0x3e623a26	0.22092494
196	0xbe3cbfcc	-0.1843254
197	0x3f129c72	0.57269967
198	0x3f3d060e	0.73837364
199	0x3f25acc7	0.6471676
200	0xbe933e3e	-0.28758425
201	0xbe8a772a	-0.2704404
202	0xbe1e7881	-0.15475656
203	0xbdb4ed68	-0.08834344
204	0x3dabff6e	0.08398329
205	0xbd9bd4b6	-0.07608931
206	0xbb9d1e2b	-0.004794856
207	0x3de62c53	0.11238923
208	0xbd6a35f5	-0.057180364
209	0x3e28fb48	0.16502106
210	0xbbb6a28b	-0.005573576
211	0xbcec0f1b	-0.028815797
212	0xbe9992e3	-0.29994878
213	0xbe07ee8a	-0.13274589
214	0xbea7b684	-0.32756436
215	0xbe1ec32a	-0.15504137
216	0xbe64f04b	-0.2235729
217	0xbde1c324	-0.11023548
218	0x3d188fb1	0.03724641
219	0x3d654ab2	0.055979438
220	0x3e090398	0.13380277
221	0x3bd0eaa7	0.006375629
222	0xbdf0d1cf	-0.11758768
223	0xbddf0f86	-0.10891633
224	0xbd2d543d	-0.042316664
225	0xbd3c331e	-0.045947187
226	0x3e037244	0.12836558
227	0xbe09c55b	-0.13454191
228	0x3e481d8b	0.1954252
229	0xbd85674f	-0.06513845
230	0xbb88ae7a	-0.00417119
231	0x3c896733	0.016772842
232	0x3e08d571	0.13362671
233	0xbdb9a0b9	-0.090638585
234	0xbeab7f49	-0.33495548
235	0xbd878e5a	-0.06618948
236	0x3dedcd39	0.11611409
237	0x3d193cdb	0.037411552
238	0xbbf087f0	-0.0073404238
239	0xbc4fe854	-0.012689669
240	0x3d357c4b	0.044307988
241	0x3dfeab10	0.12434971
242	0xbdd91a01	-0.10600663
243	0x3d44e0b3	0.048065852
244	0xbeb282a4	-0.34865296
245	0xbebcd348	-0.36879945
246	0x3db626ac	0.08894095
247	0x3df71246	0.12064032
248	0xbeb0fac8	-0.3456633
249	0x3d3cbe43	0.046079885
250	0xbd4c2d28	-0.04984775
251	0x3e351264	0.17682797
252	0x3d8d2d73	0.068934344
253	0x3d546c71	0.05186123
254	0xbe97c70f	-0.29644057
255	0xbe07b316	-0.1325191

layers.2.0.bias f4 [200]
0	0x3daecef4	0.08535567
1	0xbdacfb01	-0.08446313
2	0x3d48ab2a	0.04899136
3	0x3de12216	0.109928295
4	0x3d5fa0d6	0.054596744
5	0x3d602322	0.054721005
6	0x3dc6a507	0.09699445
7	0x3dacc52b	0.08436044
8	0x3d96855d	0.07349656
9	0x3d880886	0.06642251
10	0x3d751e93	0.05984361
11	0xbd350927	-0.04419818
12	0xbddd6a2b	-0.108112656
13	0xbd9eacec	-0.07747826
14	0x3d8d959b	0.069133006
15	0xbd4d1ce2	-0.050076373
16	0xbd320512	-0.043461867
17	0x3dbef167	0.093233876
18	0xbc096aac	-0.008387249
19	0x3d0f2d19	0.034955118
20	0x3d9410cf	0.072297685
21	0x3db984fe	0.09058569
22	0xbd304ccb	-0.043041985
23	0x3ccc05dc	0.024905138
24	0x3c9a8124	0.018860407
25	0xbb460b94	-0.0030219303
26	0x3c53c522	0.012925418
27	0x3d11b4ed	0.035572935
28	0x3d192139	0.0373852
29	0xbc707854	-0.014677126
30	0x3d4d1723	0.050070893
31	0x3d75bd55	0.059995014
32	0xbdaf25df	-0.08552145
33	0x3c78642d	0.0151606025
34	0xbcd04d84	-0.025427587
35	0x3da6dce3	0.081475995
36	0x3aee79ac	0.001819422
37	0x3d68c3a6	0.05682721
38	0x3dc5032f	0.09619748
39	0x3ab519fc	0.0013816948
40	0x3ca2c05b	0.019867113
41	0x3cd31fe9	0.025772052
42	0x3d8246cb	0.06361159
43	0xbcea7101	-0.028618338
44	0xbda59a56	-0.08086078
45	0x3cf6df27	0.030135704
46	0xbc3238ed	-0.01087783
47	0xbb76488c	-0.0037579862
48	0xbc1eff26	-0.009704387
49	0x3d40d1fd	0.04707526
50	0xbc8113c7	-0.0157565
51	0x3cc74f2d	0.024329746
52	0x3d3ff689	0.046865974
53	0xbdb6714a	-0.08908327
54	0xbc35235d	-0.011055795
55	0xbd985799	-0.07438583
56	0x3d68d99d	0.056848157
57	0xbd6e6e27	-0.05821052
58	0x3ce22afa	0.027608383
59	0x3d1d1774	0.038352445
60	0x3c605d3e	0.013694106
61	0x3bb54f77	0.0055331546
62	0x3c865f2a	0.0164028
63	0x3b4a81d0	0.0030900128
64	0x3cb5495e	0.02212971
65	0x3d2dd986	0.042443775
66	0x3db33b7a	0.08751579
67	0xbca9e323	-0.02073819
68	0xbd85c825	-0.06532315
69	0x3bd1440b	0.006386285
70	0x3d3ceb3b	0.04612277
71	0xbd636c10	-0.05552298
72	0xbbc1ea38	-0.0059178136
73	0xbc6f98d1	-0.014623837
74	0x3c4cd275	0.012501349
75	0x3b00ea6f	0.0019670983
76	0x3b988e6f	0.0046556513
77	0x3d34c38e	0.044131808
78	0xbda969bc	-0.0827212
79	0xbd38d83b	-0.04512809
80	0xbdbeb3d7	-0.093116455
81	0x3c95598d	0.018231178
82	0x3db0a047	0.086243205
83	0x3d153b5f	0.036433574
84	0xbcbd5aca	-0.02311458
85	0xbe167930	-0.14694667
86	0x3ca83ce7	0.020536853
87	0xbcd0234a	-0.025407452
88	0xbb87c004	-0.004142763
89	0x3bce2ac3	0.0062917187
90	0xbd47e627	-0.048803475
91	0x3c03576e	0.00801645
92	0x3ce6ada0	0.028158963
93	0x3ca4b92c	0.020107828
94	0xbcb75b37	-0.022382362
95	0xbde89083	-0.113556884
96	0x3dd9a7a6	0.106276795
97	0x3d31eaeb	0.043436926
98	0xbda9db85	-0.08293823
99	0xbd6c06ef	-0.0576238
100	0x3d88aba9	0.066733666
101	0xbc8525b0	-0.016253322
102	0x3cf1b50b	0.029505273
103	0x3d084bab	0.033275288
104	0xbdb14c74	-0.086571604
105	0xbc6cf28d	-0.0144621255
106	0x3d09873e	0.033576243
107	0x3cf69229	0.030098991
108	0x3db5f2d7	0.08884209
109	0x3cb97d7a	0.02264284
110	0x3dffe3c9	0.124946184
111	0x3d5cf273	0.053942155
112	0x3c0bdc9a	0.008536482
113	0xbc90429f	-0.017609892
114	0xbb8747d5	-0.004128436
115	0xbc75ba4a	-0.014998028
116	0xbcac86b0	-0.021060318
117	0xbc3c18c7	-0.011480517
118	0x3c8ad7f7	0.016948683
119	0x3dc6a621	0.09699655
120	0xbd774a97	-0.06037387
121	0xbb05d5ed	-0.00204217
122	0x3d0640ee	0.032776766
123	0xbd9683fd	-0.073493935
124	0x3d1e2b1f	0.038615342
125	0x3cdeba76	0.02718852
126	0xbdb9bb1d	-0.09068892
127	0xbcf289c9	-0.029606717
128	0x3d80f2a5	0.06296281
129	0x3c8c6000	0.01713562
130	0x3d91d01f	0.07119774
131	0xbb6da76d	-0.0036263124
132	0x3d4433f8	0.047901124
133	0x3d3a84f0	0.045536935
134	0x3bd04814	0.0063562486
135	0xbd7a89ae	-0.061166458
136	0x3c275241	0.010212482
137	0x3cca9a65	0.024731824
138	0x3dc77001	0.0973816
139	0xbda6a96f	-0.08137786
140	0x3d656da7	0.056012776
141	0x3d322349	0.04349068
142	0x3d212d88	0.039350063
143	0xbd6eec7f	-0.05833101
144	0x3d9e18bd	0.07719562
145	0x3b174b5d	0.0023085692
146	0x3c1343f8	0.008988373
147	0xbd93558b	-0.071940504
148	0x3d806ea5	0.06271104
149	0xbd1385fe	-0.036016457
150	0xbdf3a3e1	-0.11896492
151	0xbb77fc06	-0.0037839427
152	0x3dba2d2b	0.09090646
153	0x3c46fe2a	0.012145558
154	0xbb8fd5c7	-0.004389498
155	0xbdcfd4d5	-0.10148016
156	0xbddd5804	-0.10807803
157	0xbc0d73de	-0.008633582
158	0xbd4baefa	-0.049727418
159	0x3e1bd71f	0.15218781
160	0x3dce2f6d	0.100676395
161	0x3d12b916	0.035821043
162	0x3c923712	0.017848525
163	0x3d30d573	0.04317231
164	0xbd43b749	-0.047782216
165	0x3d035bdd	0.03207003
166	0x3be32870	0.0069323108
167	0xbb53ee3f	-0.003233805
168	0x3d710eea	0.058852114
169	0x3ca60a5b	0.02026861
170	0xbe107fee	-0.14111301
171	0xbca4dd24	-0.02012498
172	0xbda3d7fe	-0.080001816
173	0xbc0fa31c	-0.008766916
174	0x3c9b2e1c	0.018942885
175	0xbde483d9	-0.111579604
176	0xbc90c471	-0.017671796
177	0x3db801cc	0.08984718
178	0x3dce432e	0.10071407
179	0xbd4e1e28	-0.050321728
180	0x3c035a48	0.00801713
181	0x3dc02375	0.09381763
182	0x3d871014	0.065948635
183	0x3d073916	0.033013426
184	0x3b5b7ff4	0.0033493014
185	0xbd45005c	-0.048096046
186	0x3a34ee4c	0.0006901964
187	0x3c9054b6	0.017618518
188	0x3c5399ad	0.012915057
189	0xbd8288cb	-0.063737474
190	0xbce28ec2	-0.027655963
191	0xbdb0111c	-0.08597013
192	0x3dd7c244	0.105351
193	0x3b50dac4	0.0031868676
194	0x3de482b2	0.11157741
195	0x3d3c64ec	0.045994684
196	0xbbf89bbe	-0.0075869253
197	0x3cffbeb7	0.03121887
198	0xbd72899c	-0.059213266
199	0xba9a4438	-0.0011769598

layers.3.0.weight f4 [200, 200]
0	0x3dea2174	0.11432162
1	0x3f374c8f	0.71601194
2	0xbf03d0dd	-0.51490575
3	0xbecc0a4a	-0.398516
4	0xbeb30096	-0.34961385
5	0x3ecd5d6d	0.4011034
6	0xbe78e738	-0.24306953
7	0x3ec806ab	0.39067587
8	0xbea1c5cb	-0.31596217
9	0x3e8fc313	0.28078517
10	0xbe96a093	-0.29419383
11	0xbee04a1e	-0.43806547
12	0xbef11bec	-0.47091615
13	0xbff0da29	-1.8816577
14	0x3e8f4ed9	0.27989843
15	0xbeb30659	-0.3496578
16	0x3f7c78e5	0.9862197
17	0x3eb43650	0.35197687
18	0x3fb17357	1.3863324
19	0xbe6d99be	-0.23203179
20	0xbe9b534f	-0.30336997
21	0x3e564a5a	0.209268
22	0xbec2dcf4	-0.380592
23	0xbf89ef4d	-1.0776154
24	0x3fa45b2f	1.2840327
25	0xbe5f3fa8	-0.21801627
26	0xbeca16a0	-0.39470387
27	0xc0184668	-2.3792973
28	0xbe509847	-0.20370589
29	0x3e9794f5	0.29605833
30	0xbe86724f	-0.26259086
31	0x3e98f90b	0.29877505
32	0x3fa85062	1.3149531
33	0xbea6af39	-0.3255556
34	0xbe57d22f	-0.21076272
35	0xbdf8332c	-0.12119135
36	0x3ee64154	0.44971716
37	0x3ecc94c6	0.39957255
38	0x3ea4b6c8	0.321707
39	0xc0016425	-2.0217373
40	0xbee7545a	-0.45181543
41	0xbe8fba0a	-0.28071624
42	0x3e265623	0.16243796
43	0x3e9f0537	0.31058666
44	0xc033b0e8	-2.8076725
45	0xbec22771	-0.37920716
46	0x3f1651ca	0.5871855
47	0x3e0d638c	0.13807505
48	0x3eb06165	0.34449306
49	0x3ee0a050	0.4387231
50	0xbf5a5360	-0.8528347
51	0x3e72484a	0.23660389
52	0xbed839ce	-0.422316
53	0xbee012bd	-0.43764296
54	0x3f60bd6a	0.8778902
55	0xbebd6f50	-0.36998987
56	0x3ea8397b	0.32856354
57	0xbe935f58	-0.2878368
58	0xbf54259f	-0.82869905
59	0x3f7633c1	0.9617272
60	0xbeb5d9ad	-0.35517636
61	0x3ecde7ad	0.40215817
62	0x3e1d0661	0.15334465
63	0x3f6eacf2	0.93232644
64	0xbe7e56dd	-0.24837823
65	0xbdb1b4e0	-0.08677077
66	0x3ec4f9c1	0.38471797
67	0xbdb72160	-0.08941913
68	0x3f887127	1.0659531
69	0xc01a8f93	-2.415013
70	0xbee4644b	-0.44607767
71	0x3ea9b2da	0.33144265
72	0xbfac8193	-1.3477043
73	0x3ea276ba	0.31731206
74	0xbebec96c	-0.37263048
75	0xbe669ece	-0.22521517
76	0xbf055980	-0.5208969
77	0x3fa91ec5	1.3212515
78	0x3f5ff481	0.8748246
79	0xbeea7b64	-0.45797265
80	0xbfdece90	-1.7406788
81	0x3f8826bb	1.063682
82	0x3e488ab3	0.1958416
83	0x3f83b178	1.0288534
84	0x3d5e69e5	0.054300208
85	0x3f906ddb	1.1283525
86	0xbe829631	-0.25505212
87	0xbfdba76b	-1.7160467
88	0x3ed73ce7	0.42038652
89	0x3f6cce24	0.92502046
90	0xbef3cf5d	-0.47619143
91	0x3f390317	0.7227034
92	0xbec5bb36	-0.38619393
93	0x3cf840f9	0.030304419
94	0x3f3b17f4	0.73083425
95	0x3e24c664	0.16091305
96	0xbea88bf9	-0.3291929
97	0xbea8a914	-0.32941496
98	0xc0097912	-2.1480145
99	0x3f008641	0.50204855
100	0xbed9a168	-0.42505956
101	0xbec54dc9	-0.38535908
102	0xbe775293	-0.24152593
103	0xbe551b05	-0.20811088
104	0x3f7199f4	0.9437554
105	0xbeb6aec2	-0.35680205
106	0xbf8dd31e	-1.1080053
107	0xbe96f9bb	-0.29487404
108	0xbe31704d	-0.17327996
109	0x3f7c2e5a	0.98508227
110	0xbed57969	-0.4169419
111	0x3e9ed102	0.31018835
112	0x3ec80f01	0.39073947
113	0xbe9ea9d7	-0.30988953
114	0x3f6e873c	0.931751
115	0xbf356d77	-0.70870155
116	0xbfae52b9	-1.3618995
117	0x3ec1f7c4	0.37884343
118	0xbea598be	-0.32343096
119	0xbe4c558d	-0.1995451
120	0x3e94eff9	0.29089335
121	0x3f9840a4	1.1894727
122	0x3dea0534	0.11426774
123	0xc0319ac9	-2.7750723
124	0xbebfbd84	-0.37449276
125	0xbee79db5	-0.45237508
126	0xc03600d9	-2.8438017
127	0xbe66fd89	-0.22557653
128	0x3ed0b0ea	0.40759975
129	0xbe93cbda	-0.28866464
130	0x3bfd4f91	0.0077304323
131	0xbe8a6143	-0.2702733
132	0x3ec47267	0.38368532
133	0xbce203fd	-0.027589792
134	0x3ec7481a	0.38922197
135	0x3e9dffc7	0.30859205
136	0xbce861ea	-0.028367002
137	0x3e422b6b	0.18961875
138	0xbe9ea1c2	-0.30982786
139	0x3ec4a08e	0.38403744
140	0xbe8e67d9	-0.27813604
141	0x3f687639	0.90805393
142	0xbd8dc5be	-0.06922482
143	0x3f67bb40	0.90520096
144	0x3e57b4d9	0.21065082
145	0x3f75ffcb	0.96093434
146	0xbef18c19	-0.471772
147	0x3fab8081	1.3398591
148	0x3ec72ca8	0.38901258
149	0x3e9af398	0.30263972
150	0x3f77e111	0.968278
151	0x3e9545cc	0.29154813
152	0xbd9f357b	-0.077738725
153	0xbe65cc85	-0.224413
154	0x3ec9656f	0.393352
155	0x3e8467b4	0.2586037
156	0xbe5299ce	-0.20566484
157	0xbe92ed0d	-0.2869648
158	0x3f2a34a9	0.66486603
159	0x3ea6e9b5	0.3260018
160	0xbedb09b3	-0.42780837
161	0x3e892065	0.26782528
162	0xbe86205d	-0.26196566
163	0x3e8a93ee	0.27065986
164	0x3fc12e05	1.5092169
165	0x3eb10a88	0.34578347
166	0xc02224d9	-2.533499
167	0xbf84b56b	-1.0367864
168	0xbef5a54e	-0.4797768
169	0xbe36d6dc	-0.178554
170	0xbf7000e0	-0.93751335
171	0xbc395e95	-0.011314054
172	0x3fbae341	1.4600602
173	0x3e3645fe	0.17800137
174	0xbffb0edd	-1.9613911
175	0xbeb91dee	-0.36155647
176	0xbed6fb65	-0.41988674
177	0x3eb5bd0d	0.35495797
178	0x3ebe1747	0.37127134
179	0x3d650773	0.055915307
180	0x3f77cefa	0.96800196
181	0x3eb9472d	0.36187115
182	0x3ea00a9a	0.31258088
183	0xbe8bbb2d	-0.2729124
184	0x3f244511	0.64167887
185	0x3ec40a1e	0.3828897
186	0xbe5c0dfb	-0.21489708
187	0xbed2fdb0	-0.41209173
188	0xbe83c6f2	-0.2573772
189	0xbe9fb123	-0.31189832
190	0x3ee7d990	0.45283175
191	0x3f48e908	0.7848058
192	0x3eadc23c	0.33937252
193	0x3f9aa9d4	1.2083077
194	0x3ebef928	0.37299466
195	0xbef8d9f6	-0.4860379
196	0xc0172aec	-2.3619947
197	0xbe9b01a2	-0.30274683
198	0x3f6fecf5	0.9372094
199	0x3f3fad8b	0.7487418
200	0xbe148e66	-0.14507446
201	0x3f38034c	0.7188003
202	0x3ecc35dd	0.39884844
203	0x3df68097	0.12036245
204	0x3e270928	0.16312087
205	0x3dadb710	0.08482182
206	0xbe3d4424	-0.18483025
207	0x3dd0537f	0.101721756
208	0xbde611d8	-0.11233872
209	0x3e0926dc	0.1339373
210	0xbecea47b	-0.40359864
211	0x3de8aee9	0.113614865
212	0x3f000adf	0.5001659
213	0xbe61a83e	-0.22036836
214	0x3e364d61	0.17802955
215	0xbd22b3b6	-0.039722167
216	0x3eceb421	0.40371802
217	0xbe5ec301	-0.21754076
218	0xbeae179d	-0.3400239
219	0xbec2e5b7	-0.38065884
220	0xbed74631	-0.4204574
221	0xbe526082	-0.20544627
222	0x3ebc4e67	0.36778566
223	0x3e874dd6	0.26426572
224	0x3e52ba99	0.20578994
225	0xbe0378f5	-0.1283911
226	0xbec984bc	-0.3935908
227	0x3da957c8	0.08268696
228	0x3e73f181	0.23822595
229	0x3b564724	0.0032696212
230	0xbe9805b8	-0.29691863
231	0xbe35e11c	-0.17761654
232	0x3ed77ff3	0.42089805
233	0xbee6d745	-0.45086113
234	0xbd8e90d2	-0.06961216
235	0x3e0c93a7	0.137282
236	0x3d8c59eb	0.06853088
237	0x3d67c29a	0.05658207
238	0x3e7d2756	0.24722037
239	0x3e83623d	0.25660887
240	0x3e9459e7	0.2897484
241	0xbeb35128	-0.35022855
242	0xbe659683	-0.22420697
243	0x3dbb5562	0.09147145
244	0x3e71fcae	0.23631546
245	0xbe6ca62f	-0.23110269
246	0x3f36e438	0.71441984
247	0x3e6b181e	0.22958419
248	0xbe54b8f8	-0.20773685
249	0xbb3efd30	-0.002914261
250	0x3e97cd77	0.29648945
251	0x3e629329	0.2212645
252	0x3e0034a9	0.12520088
253	0x3ecd2af5	0.40071836
254	0x3e4f446a	0.20240942
255	0xbe253d51	-0.16136672

layers.3.0.bias f4 [200]
0	0x3ea00e73	0.31261024
1	0x3d25da24	0.04049124
2	0xbcab2c02	-0.020895008
3	0xbdb71e20	-0.08941293
4	0xbe2dc680	-0.16970253
5	0xbe6a80f5	-0.22900756
6	0x3c647ca7	0.013945735
7	0xbde7165f	-0.11283564
8	0xbdf96210	-0.12176907
9	0xbd98393f	-0.07432794
10	0x3c6d716b	0.014492373
11	0xbda912f0	-0.08255565
12	0x3d145108	0.03621009
13	0xbe27befa	-0.16381446
14	0xbe28e0f0	-0.16492057
15	0x3dce56f6	0.1007518
16	0x3d8158bd	0.063157536
17	0xbd634eee	-0.055495195
18	0xbe5fecb1	-0.21867634
19	0xbdfa31bc	-0.12216517
20	0x3cf2deb7	0.029647214
21	0xbd17b0bf	-0.037033793
22	0xbd0e19fd	-0.034692753
23	0xbe970750	-0.29497766
24	0xbe8bf8e7	-0.27338335
25	0x3e73eefe	0.23821637
26	0xbcb414ad	-0.021982515
27	0x3d167e9d	0.03674184
28	0xbdf04712	-0.117323056
29	0xbe01240b	-0.12611406
30	0x3e0dc296	0.1384376
31	0x3d90f2e9	0.070775814
32	0xbe265321	-0.16242649
33	0xbc4e9d90	-0.012610808
34	0x3e997dc5	0.29978767
35	0xbe075e42	-0.1321955
36	0xbe712453	-0.23549013
37	0xbd042d52	-0.032269783
38	0xbd616340	-0.055026293
39	0x3dc30416	0.09522264
40	0x3d3f70cb	0.046738427
41	0x3ddedf12	0.10882391
42	0x3e94908f	0.2901654
43	0xbd3d9b9a	-0.04629097
44	0x3dcd8b55	0.10036341
45	0xba04de76	-0.00050685497
46	0xbe2ea8c5	-0.17056568
47	0xbe25d8a0	-0.16195917
48	0x3d8e8e5a	0.06960745
49	0xbd992b27	-0.07478934
50	0x3e55af9b	0.2086777
51	0xbcaf5de8	-0.021407083
52	0x3d74ec16	0.05979546
53	0x3bced96a	0.006312539
54	0x3c93ffa2	0.018066231
55	0x3d000b30	0.03126067
56	0x3cd76eeb	0.026298007
57	0x3da72bac	0.081626266
58	0xbde36d0c	-0.111047834
59	0xbd08fce8	-0.033444315
60	0xbe87a7ca	-0.264952
61	0xbe5e798a	-0.21726051
62	0xbdc87ee6	-0.09789829
63	0xbdba53ff	-0.09098052
64	0xbe4ee571	-0.20204712
65	0x3da7b436	0.081886694
66	0x3e9da9ee	0.3079371
67	0xbe9bd048	-0.30432343
68	0xbdb18654	-0.08668199
69	0xbd103fbe	-0.03521704
70	0x3d959ed4	0.07305685
71	0xbe1ad016	-0.15118441
72	0xbcdaa6dc	-0.026690893
73	0x3d5c15bf	0.053731676
74	0x3d23ee08	0.040021926
75	0xbd535d52	-0.05160267
76	0x3de80fa7	0.113311104
77	0x3d47c503	0.04877187
78	0xbe53368e	-0.2062628
79	0x3ccf620a	0.025315303
80	0x3e333d95	0.1750396
81	0xbd46fb44	-0.04857947
82	0x3e2bcb26	0.16776714
83	0xbd380431	-0.044925872
84	0xbe6cfa9d	-0.23142476
85	0x3cbc3889	0.022976177
86	0xbd4ff999	-0.050775144
87	0xbd6a7dc1	-0.057248835
88	0xbe779200	-0.24176788
89	0xbe92a157	-0.28638718
90	0xbddc860b	-0.10767754
91	0x3de49af4	0.111623675
92	0x3cb62b40	0.02223742
93	0xbeae90d5	-0.34094873
94	0xbd23e8ce	-0.04001694
95	0x3d8769f3	0.06612005
96	0xbd357739	-0.044303153
97	0x3b8acc44	0.004235776
98	0xbe586712	-0.21133068
99	0xbdff894c	-0.12477359
100	0x3e1e729d	0.15473409
101	0xbdf93215	-0.121677555
102	0xbdbd1ac1	-0.092336185
103	0x3d2a4d2d	0.041577507
104	0x3dc36c5e	0.09542154
105	0x3e4891d9	0.19586886
106	0xbd7f8f03	-0.062392246
107	0x3d219ea2	0.039457925
108	0xbe41dc2e	-0.18931648
109	0x3dd1c579	0.10242743
110	0xbe123a06	-0.14279947
111	0xbdaf7e9c	-0.08569071
112	0x3e7b7341	0.24555685
113	0xbe90c7af	-0.28277346
114	0x3e525497	0.20540081
115	0xbe0a8bcc	-0.13529891
116	0x3e4d361a	0.2004017
117	0xbe1e9c28	-0.15489256
118	0x3e9486d4	0.29009116
119	0x3b968d6d	0.004594496
120	0xbd5f8f0f	-0.05457979
121	0x3d3fc99b	0.046823125
122	0x3e2a6b57	0.1664251
123	0xbe4c7984	-0.1996823
124	0x3db0513e	0.08609246
125	0xbe27a154	-0.16370136
126	0xbe2677dd	-0.16256662
127	0x3dbc3a41	0.091907986
128	0xbaca36ab	-0.0015427669
129	0xbe15775e	-0.14596316
130	0x3cd334a8	0.025781944
131	0x3e5fb96d	0.21848078
132	0xbd97e7f5	-0.07417289
133	0x3d4781ab	0.048707645
134	0x3e0974fb	0.13423531
135	0x3d203c28	0.03911987
136	0xbe33485f	-0.17508076
137	0x3e7265aa	0.23671594
138	0xbe3ed72f	-0.18636774
139	0x3e2e6d57	0.17033897
140	0xbe34431b	-0.17603724
141	0x3cd9348b	0.026514312
142	0xbc7b524d	-0.015339446
143	0x3e96d06a	0.29455882
144	0x3da897e8	0.08232099
145	0x3bf1ee7a	0.007383165
146	0xbde9c9db	-0.11415454
147	0x3eaa92a9	0.33315018
148	0xbd9ce87d	-0.07661531
149	0x3c2025e9	0.0097746635
150	0xbdbcd7ea	-0.0922087
151	0xbe26d116	-0.16290697
152	0xbd379b56	-0.044825874
153	0x3e5152af	0.20441698
154	0xbcee9d2d	-0.029127682
155	0x3e3148e9	0.1731297
156	0xbdd848ba	-0.105607465
157	0xbd21304f	-0.03935271
158	0xbe15be98	-0.14623487
159	0xbda189b8	-0.07887596
160	0xbd841e89	-0.064511366
161	0x3b9ae595	0.0047270753
162	0xbdac92b9	-0.084264226
163	0xbbbe8f92	-0.0058154548
164	0x3d5d68b4	0.05405493
165	0xbdcb8247	-0.09936958
166	0xbd3a376c	-0.04546301
167	0xbb38546e	-0.0028126496
168	0xbe0f11cb	-0.13971631
169	0x3dd5eca4	0.10445526
170	0x3c810629	0.015750008
171	0x3c77d823	0.015127215
172	0xbe41863c	-0.18898863
173	0x3e32aa88	0.17447865
174	0x3d0ab5e8	0.033864886
175	0xbe486b9c	-0.195723
176	0xbdaa964e	-0.083294496
177	0x3ea8b8e2	0.32953554
178	0xbe515807	-0.20443736
179	0xbe85df81	-0.26147082
180	0xbc1c50b3	-0.009540725
181	0xbdf8b863	-0.12144544
182	0x3e8556e5	0.26042858
183	0xbe16becf	-0.14721225
184	0x3ea6fa60	0.32612896
185	0x3d8c5c73	0.06853571
186	0xbdb94e0e	-0.09048091
187	0x3d00e121	0.0314647
188	0xbd4a118b	-0.049333137
189	0x3d331acf	0.04372674
190	0xbd9b4609	-0.075817175
191	0xbd6f0058	-0.058349937
192	0x3c896719	0.016772794
193	0xbd96e1c4	-0.0736728
194	0xbdeb1471	-0.11478508
195	0xbd472dd7	-0.0486277
196	0x3bd80291	0.006592103
197	0x3dd2ab4b	0.10286578
198	0xbe1a2316	-0.15052447
199	0xbe4f87e5	-0.20266683

layers.4.weight f4 [2, 200]
0	0x40b3ee70	5.622856
1	0x40a5fc38	5.1870384
2	0xc041b412	-3.0266156
3	0x3faa29be	1.3293989
4	0x403b1b7c	2.9235525
5	0x4078c335	3.8869145
6	0xbe83b0a7	-0.25720713
7	0x4083d428	4.119648
8	0x40625f95	3.5370839
9	0xc0184272	-2.3790555
10	0xc0723e70	-3.785061
11	0x403f3512	2.9876142
12	0xc0c40109	-6.1251264
13	0xc05c3851	-3.4409373
14	0x4071278b	3.7680385
15	0xc0b4319d	-5.6310563
16	0xc08b547a	-4.354062
17	0x3e98c68c	0.2983898
18	0x404f3508	3.2376118
19	0x403a4e2b	2.911021
20	0x40b34664	5.6023426
21	0xc08ed410	-4.4633865
22	0x3f3d79c2	0.7401391
23	0xbf3f926b	-0.7483279
24	0x3ff5fc23	1.9217571
25	0x40b46683	5.6375136
26	0xbf830952	-1.0237219
27	0x3d59712e	0.053086452
28	0x4083113e	4.0958548
29	0x406a52d7	3.6613061
30	0xbf8d0e2e	-1.1019952
31	0x40d74a56	6.727824
32	0x407e7050	3.975605
33	0x3fac9526	1.3483016
34	0xc0243768	-2.5658817
35	0xc01e8a65	-2.477197
36	0xc07e5748	-3.9740772
37	0xc0460427	-3.0940034
38	0xc02b9d19	-2.6814635
39	0xc06e1db6	-3.7205634
40	0x404cc9e2	3.199822
41	0xc0af0348	-5.4691505
42	0xc00ffea8	-2.249918
43	0x3f656252	0.8960315
44	0x40a229d6	5.067607
45	0x40a84877	5.258846
46	0x40613285	3.5187085
47	0xbff5d1a6	-1.9204605
48	0x40913be8	4.538563
49	0xc032c02a	-2.7929788
50	0xc0975810	-4.7295
51	0xc07c6518	-3.9436703
52	0x40a54870	5.1650925
53	0xc08f5316	-4.4788923
54	0xc0824ae5	-4.0716424
55	0xc00201ba	-2.0313554
56	0xc0404bd9	-3.0046294
57	0x409206e5	4.5633416
58	0x3fc1b4f2	1.5133345
59	0x3fd09826	1.6296432
60	0x40273ca3	2.613076
61	0xc03ecd87	-2.9812944
62	0xc06608ec	-3.5942945
63	0x404b83f5	3.179929
64	0xc07c79fa	-3.9449449
65	0xc086e579	-4.215512
66	0xc05b7bff	-3.4294431
67	0xc0543e2f	-3.3162954
68	0x4035e2a0	2.841957
69	0xbfb608e9	-1.4221469
70	0x3fcbdc20	1.5926552
71	0x407c72e6	3.9445128
72	0xc037c933	-2.8716552
73	0x4091d175	4.5568185
74	0x406738a2	3.6128316
75	0xc0813147	-4.0372653
76	0xc098cdee	-4.775138
77	0xc0b5a138	-5.67593
78	0xc0502ed4	-3.2528582
79	0xc093fa41	-4.6242986
80	0xc059b520	-3.40168
81	0xc0692ed3	-3.643483
82	0xc0d9ef70	-6.810478
83	0xc07a20f4	-3.9082613
84	0xc050dcb1	-3.26347
85	0x3f17391c	0.59071517
86	0xc066d7aa	-3.606913
87	0xc03fcfa6	-2.9970489
88	0xc0594411	-3.3947794
89	0xbfe3c186	-1.7793434
90	0x4078953d	3.8841088
91	0x3fbb3bf7	1.4627675
92	0x3fc17f0e	1.5116899
93	0x3fe0dede	1.7568014
94	0xbfaf6a0d	-1.3704239
95	0xc086d85d	-4.2139115
96	0xbe4fde4a	-0.2029964
97	0x40bf5ea6	5.980304
98	0xc04d10e6	-3.2041564
99	0xc076c7ca	-3.8559442
100	0x40d73ff4	6.726557
101	0x4078a631	3.8851435
102	0xc079e564	-3.904626
103	0xc0824e8d	-4.0720887
104	0xc037bd6e	-2.8709369
105	0x40e07c57	7.015178
106	0x40639c8b	3.5564296
107	0x40d5b36a	6.678151
108	0xc07fe1a4	-3.998147
109	0xbf1764ac	-0.5913799
110	0x40711863	3.7671134
111	0x408780b6	4.234462
112	0xc0752767	-3.83053
113	0x3fdfb6a6	1.7477615
114	0xc0a23a91	-5.069649
115	0xc06aee74	-3.670804
116	0xc05d18e8	-3.4546452
117	0x407b0854	3.9223833
118	0x406e7089	3.7256186
119	0xbfdf8252	-1.7461646
120	0x3f53b4d1	0.8269778
121	0x40922b96	4.5678205
122	0xc08ec713	-4.461801
123	0xc04d9862	-3.2124257
124	0xc077dbf6	-3.8728004
125	0xc081b457	-4.053264
126	0xc07d94ce	-3.9622073
127	0xc0e42103	-7.1290298
128	0x3f006465	0.5015319
129	0xc03a19be	-2.9078212
130	0xc06dfa1b	-3.7183902
131	0xc029d342	-2.6535192
132	0xc00314e4	-2.04815
133	0xc087c77c	-4.243101
134	0x40ded25a	6.9631777
135	0xc090ad5d	-4.5211625
136	0xc043283b	-3.0493305
137	0x40b9a664	5.8015614
138	0x407a0488	3.9065266
139	0xc02cd9ef	-2.7008016
140	0x4035b93a	2.8394303
141	0x404bb8a5	3.1831448
142	0x402f74fe	2.7415156
143	0x40b2716f	5.576347
144	0xc0684887	-3.6294267
145	0xbf47dab1	-0.7806807
146	0x40555804	3.333497
147	0xc02b514b	-2.6768367
148	0x40b7e6cb	5.746923
149	0x4094e7e7	4.6533084
150	0x40503b47	3.253618
151	0x3fcb5ed3	1.5888313
152	0xc09e8b55	-4.9545083
153	0xc01e302b	-2.47169
154	0x3fdf3dc8	1.7440729
155	0x3f85cf18	1.0453825
156	0x4072417e	3.7852473
157	0x405f3c4b	3.488055
158	0x407bfd82	3.937348
159	0x40418aa1	3.0240862
160	0xc068535d	-3.630088
161	0x40d487a0	6.641556
162	0x3f75c9bc	0.9601095
163	0xc084a161	-4.1446996
164	0x408f83a1	4.484818
165	0xc0803feb	-4.0078025
166	0x4082b51d	4.0846086
167	0x40435ba6	3.0524688
168	0xc03d59a0	-2.9585953
169	0x40915a50	4.5422745
170	0xbf175295	-0.59110385
171	0xc09be9d6	-4.8722944
172	0x40753797	3.831518
173	0xc097d69d	-4.744948
174	0x4032f51f	2.796211
175	0x404eaa72	3.2291532
176	0x40bb5596	5.8541975
177	0x407423a8	3.8146763
178	0x40039870	2.056179
179	0xc06209d1	-3.5318491
180	0xc05b378c	-3.4252653
181	0x40743a0b	3.8160427
182	0x40b2b992	5.5851526
183	0x3fc74c00	1.5570068
184	0x40493ea5	3.1444485
185	0xc0ba7b8f	-5.827583
186	0xbf826810	-1.0188007
187	0xc0932acf	-4.5989757
188	0x40809ff3	4.019525
189	0x4093924f	4.61161
190	0x40929e71	4.581841
191	0x407e1227	3.969858
192	0x400c167c	2.1888723
193	0xbfdee4ef	-1.7413615
194	0xc083d0c7	-4.1192355
195	0x407051fd	3.7550042
196	0x40915ae8	4.542347
197	0xc0a6a484	-5.2075825
198	0xc0814227	-4.039325
199	0x4067f8a6	3.6245513
200	0x40636567	3.553064
201	0xc08b4094	-4.351633
202	0x40353517	2.8313653
203	0xc06e3052	-3.7216992
204	0xc01378eb	-2.3042552
205	0x3ea738c8	0.32660508
206	0x408588ec	4.172964
207	0x3f6e4857	0.9307913
208	0x4007f41b	2.124274
209	0xc08660ea	-4.1993303
210	0x407ff813	3.9995162
211	0x402db982	2.7144475
212	0xc047e187	-3.12314
213	0xbfe0a117	-1.7549161
214	0x3fc91e1f	1.5712317
215	0x407882e6	3.8829894
216	0xbd9bb76f	-0.076033466
217	0xc082ecb3	-4.091394
218	0xbff84895	-1.939715
219	0x402fadbc	2.744979
220	0xc04c1820	-3.1889725
221	0x402a4db7	2.6609933
222	0xc08297eb	-4.0810447
223	0xc072ba85	-3.7926342
224	0xc0556712	-3.334416
225	0x407b0840	3.9223785
226	0xc0cc5cd4	-6.3863316
227	0xc0faaf85	-7.8339257
228	0x3f1eb16b	0.6198947
229	0x40038e0f	2.0555456
230	0x40de9dee	6.9567785
231	0x40137a2a	2.3043313
232	0x3f9004ed	1.1251503
233	0x4072dc67	3.7947023
234	0x40b91040	5.7832336
235	0xc0545129	-3.3174536
236	0xbf1a94c7	-0.60383266
237	0x403a4bc2	2.910874
238	0xc066ed32	-3.6082273
239	0xc00f9343	-2.2433631
240	0xc026f2e6	-2.6085753
241	0xc080b8db	-4.0225654
242	0x40c43224	6.1311207
243	0x4080743b	4.0141883
244	0x4085fbb5	4.186976
245	0xbfa2b38e	-1.2711046
246	0x4009c54a	2.1526666
247	0xc065b683	-3.5892646
248	0xc09dc1ad	-4.929892
249	0x403f0e7f	2.9852598
250	0x408b3284	4.3499165
251	0x3fc1144d	1.508432
252	0xc09178ea	-4.54601
253	0xbfb73dff	-1.4315795
254	0x406cc7aa	3.6996865
255	0xc0dc565e	-6.885543

layers.4.bias f4 [2]
0	0xbdb74107	-0.0894795
1	0x3f356f52	0.70872986
