LPSDA/exp_heat/1/deltamodel.pt (torch, 546018 bytes, 36 tensors)

fc1.weight f4 [256, 3]
0.29257962 -0.25554073 -0.111788526 0.27220246 -0.5436848 0.3473492 -0.1180983 0.29401043
0.082466565 -0.06708348 0.16051146 0.028760552 0.21016073 -0.22273448 -0.040213156 -0.054282077
0.08325302 -0.0032943874 0.50836635 0.17857267 -0.21635859 -0.35023603 -0.09740791 -0.249395
-0.1858259 0.026127025 0.3458239 0.31359997 -0.56363046 0.35937065 0.15774699 0.54663837
0.3793309 -0.52605826 -0.54890156 -0.28031224 0.50354964 -0.096246295 0.24606794 -0.2685376
0.5662483 -0.24454807 0.43474716 0.008508163 -0.30543098 0.2981517 -0.30562192 0.16729183
-0.16735862 -0.06177796 -0.55622536 -0.2748126 0.3115153 -0.13996024 0.5781278 0.46210828
-0.030448098 -0.38655603 0.35068876 0.17764667 -0.37588403 0.37413347 0.3480064 0.51921797
-0.32222164 -0.09570121 -0.010774741 0.084273264 -0.43696696 -0.40975377 0.31307113 -0.13692442
0.27958605 0.032689996 0.18728027 0.123706974 0.20945941 0.28705958 -0.53496 0.29107246
-0.40748176 -0.43809354 0.03633358 -0.09856877 0.34510937 -0.33272287 -0.51273847 0.41690236
-0.08551091 0.32466134 0.18581311 -0.43202522 0.11664836 0.13862893 -0.38614684 -0.2739346
0.19591767 0.104017586 -0.24566445 -0.17528655 0.52728236 -0.10775846 0.3311378 0.24958315
-0.37563977 -0.49281836 0.55354184 0.029562982 0.39497152 0.119804434 0.18336871 0.43033886
0.546975 -0.38439554 0.07440918 0.42978686 0.42028266 0.35516497 -0.41794765 -0.41358483
-0.35051164 0.07196315 0.573454 -0.3670918 0.30766413 -0.3194415 -0.5417862 -0.12165832
0.3341636 0.53892124 -0.3572008 0.12544039 0.5001208 0.3821221 0.3624036 0.41262725
0.36500996 0.1505643 -0.39645076 -0.48448497 -0.26364174 -0.06617462 -0.35319757 0.21336557
0.17927521 -0.13012111 0.22528654 0.18780789 0.35170165 0.39032543 -0.19627647 0.56319135
-0.06422066 -0.018846173 -0.5431629 -0.37546957 -0.34075242 -0.24428628 0.40901473 -0.18727458
-0.42954054 0.22316897 0.18387364 0.37265736 -0.30010688 0.124650784 -0.21034339 -0.1278107
-0.4601558 -0.26473755 -0.17692247 0.24573508 0.10640626 0.1435491 0.5753571 0.5628621
0.39594987 0.01786152 -0.40022114 0.44968596 -0.14271854 -0.04660497 -0.4968176 -0.11512963
-0.37176833 0.53108186 -0.49883503 -0.44965354 -0.020557297 -0.3074582 0.20615244 -0.22318925
-0.2659306 0.0352703 0.42078394 -0.40639472 0.2707472 0.36963364 0.56527644 -0.40385407
0.13874832 -0.42519706 0.4942987 -0.22530478 0.3494219 0.01742098 -0.045982294 -0.016732406
0.09895826 0.27451447 0.09426588 0.17655644 -0.5220303 0.42532742 0.50343204 0.47788244
0.42274493 -0.41604382 -0.21422686 0.5107747 -0.440684 0.526123 -0.45225972 -0.40676862
0.28509662 -0.4164877 -0.13127086 0.4203937 0.4597952 0.54534316 -0.119010225 -0.44847345
0.5698493 -0.12233516 -0.23799144 0.1415667 -0.40459186 0.38250306 0.36136854 -0.4605094
-0.4753504 -0.049040467 0.24356817 -0.016195143 -0.29261371 0.013396645 -0.5423991 -0.408193
-0.38389125 0.47618562 0.50834525 -0.19427128 0.024488674 0.25678697 0.070669405 -0.2876278
00000000: ffcc 953e 3cd6 82be 62f1 e4bd 1f5e 8b3e
00000010: ed2e 0bbf c1d7 b13e 86dd f1bd 8988 963e
00000020: 3be4 a83d 1063 89bd 1e5d 243e 409b eb3c
00000030: 6034 573e 8214 64be 8db6 24bd e256 5ebd
00000040: 8f80 aa3d a6e6 57bb 4c24 023f c1db 363e
00000050: 1b8d 5dbe 2352 b3be cc7d c7bd 6761 7fbe
00000060: 2549 3ebe 5808 d63c d50f b13e 2d90 a03e
00000070: 164a 10bf 6eff b73e 6d88 213e 7ef0 0b3f
00000080: a937 c23e c1ab 06bf d084 0cbf 1685 8fbe
00000090: a1e8 003f c71c c5bd 3cf9 7b3e c37d 89be
000000a0: a6f5 103f cf6a 7abe 2e97 de3e d265 0b3c
000000b0: 7361 9cbe 57a7 983e 7a7a 9cbe 8d4e 2b3e
000000c0: 0f60 2bbe e30a 7dbd c964 0ebf 3db4 8cbe
000000d0: ef7e 9f3e bd51 0fbe 2f00 143f 7599 ec3e
000000e0: 4a6e f9bc acea c5be 7a8d b33e 02e9 353e
000000f0: df73 c0be 6c8e bf3e e52d b23e 78eb 043f
00000100: 3cfa a4be fffe c3bd 8a88 30bc 7697 ac3d
00000110: 22ba dfbe 3fcb d1be dc4a a03e ea35 0cbe
00000120: e725 8f3e f2e5 053d 66c6 3f3e 155a fd3d
00000130: 877c 563e 79f9 923e 23f3 08bf 7307 953e
00000140: 73a1 d0be cc4d e0be 85d2 143d 6cde c9bd
00000150: 2db2 b03e a75a aabe d442 03bf 3a74 d53e
00000160: 5820 afbd 033a a63e cb45 3e3e 6932 ddbe
00000170: 56e5 ee3d bef4 0d3e 0ab5 c5be 2841 8cbe
00000180: a49e 483e 2c07 d53d 768f 7bbe 517e 33be
00000190: fafb 063f 78b0 dcbd e58a a93e ba92 7f3e
000001a0: db53 c0be b052 fcbe ebb4 0d3f 112e f23c
000001b0: b539 ca3e 075c f53d 02c5 3b3e 6055 dc3e
000001c0: 8e06 0c3f 7ecf c4be d763 983d 060d dc3e
000001d0: 4a2f d73e 2fd8 b53e 3cfd d5be 64c1 d3be
000001e0: 4376 b3be 6a61 933d e2cd 123f 75f3 bbbe
000001f0: 2786 9d3e d68d a3be 80b2 0abf ff27 f9bd
00000200: 7e17 ab3e bef6 093f 06e3 b6be 7273 003e
00000210: eb07 003f 82a5 c33e f78c b93e e143 d33e
00000220: 96e2 ba3e 872d 1a3e 98fb cabe 6a0e f8be
00000230: 0dfc 86be 8f86 87bd 50d6 b4be 817c 5a3e
00000240: ec93 373e 783e 05be 84b1 663e b650 403e
00000250: 3d12 b43e bcd8 c73e b3fc 48be 4f2d 103f
00000260: 1f86 83bd 4a63 9abc b90c 0bbf 8c3d c0be
00000270: 1a77 aebe 2f26 7abe 616a d13e e8c4 3fbe
00000280: bdec dbbe 6886 643e 5f49 3c3e f2cc be3e
00000290: 9ca7 99be e948 ff3d 4264 57be cfe0 02be
000002a0: 8b99 ebbe ae8b 87be 2a2b 35be faa1 7b3e
000002b0: 86eb d93d 89fe 123e 9a4a 133f bb17 103f
000002c0: f1b9 ca3e 5352 923c c9e9 ccbe 3d3d e63e
000002d0: cf24 12be dae4 3ebd e05e febe 15c9 ebbd
000002e0: 6b58 bebe fbf4 073f 4e67 ffbe fd38 e6be
000002f0: c767 a8bc 296b 9dbe a019 533e b98b 64be
00000300: 0e28 88be 9777 103d fe70 d73e f812 d0be
00000310: 619f 8a3e 9f40 bd3e f5b5 103f f6c5 cebe
00000320: 0a14 0e3e 6eb3 d9be b814 fd3e 4cb6 66be
00000330: 6de7 b23e 71b6 8e3c ee57 3cbd 6612 89bc
00000340: a1aa ca3d 298d 8c3e 780e c13d 36cb 343e
00000350: c7a3 05bf 84c4 d93e ece0 003f 02ad f43e
00000360: 0672 d83e b203 d5be 495e 5bbe 21c2 023f
00000370: 55a1 e1be ffaf 063f 968e e7be fa43 d0be
00000380: 2ff8 913e e03d d5be de6b 06be d83d d73e
00000390: 476a eb3e 9c9b 0b3f a2bb f3bd 509e e5be
000003a0: a5e1 113f db8a fabd 07b4 73be dcf6 103e
000003b0: aa26 cfbe 71d7 c33e 4c05 b93e e3c7 ebbe
000003c0: 2161 f3be a8de 48bd ef69 793e adab 84bc
000003d0: 77d1 95be 9a7d 5b3c abda 0abf acfe d0be
000003e0: 658d c4be 9ace f33e ea22 023f 0def 46be
000003f0: 799c c83c 9579 833e 1fbb 903d f343 93be

fc1.bias f4 [256]
-0.09631739 0.230934 -0.4417693 0.08310802 -0.5276573 0.3551798 0.5649549 -0.20649548
0.08581721 -0.2978292 -0.37218952 -0.2922348 -0.27787668 0.10887363 -0.06351327 0.041127853
-0.44202077 -0.36385614 -0.49797344 -0.41560394 0.47951227 0.22104292 -0.55021816 -0.09777073
0.042156707 0.30890355 0.5353573 0.13695988 0.41140133 -0.20859484 -0.018929647 -0.34888566
0.13205832 0.53183335 0.36784637 0.57349604 -0.261303 -0.072619356 0.12120217 0.460359
-0.5320955 -0.2861846 0.0851744 -0.33041456 0.2176607 -0.037211616 -0.15092278 0.30989903
0.41315958 0.5625456 0.26047987 -0.015364936 0.46766958 0.46115786 -0.2902261 0.26290375
0.0680573 -0.25066224 -0.13777313 -0.13767958 -0.4033946 -0.17758137 0.19350012 0.42735577
0.048966613 -0.559422 0.30427158 -0.17328918 0.5172075 -0.55615896 -0.13505763 0.4517164
0.24596174 -0.28616375 -0.49693576 -0.007212422 0.22500028 -0.47874272 -0.48312116 -0.006204049
-0.11948234 0.37169886 -0.55999136 -0.09155998 -0.44788206 -0.08220664 -0.2917615 0.1842067
-0.48441088 -0.45366156 -0.32983106 -0.5031305 0.36728427 -0.0834258 -0.31617054 0.40213457
-0.12909032 0.2988145 -0.1772205 -0.482432 0.12460671 0.3595656 -0.5612916 0.058427095
0.11525338 0.068968385 -0.01496053 -0.17607431 -0.4490985 0.094358936 -0.38711214 -0.47779366
-0.18223973 -0.39371273 0.1766364 0.41230384 0.45107895 -0.35576472 0.31425843 0.41474012
0.0071381475 0.2420101 0.32528663 0.4414231 0.30930215 0.24701573 -0.2226817 -0.32332304
-0.27349588 0.47314987 -0.13921273 0.018595884 -0.5390905 -0.023901772 -0.16316856 -0.371029
0.45091572 -0.46209213 -0.0804354 -0.04153025 -0.52306485 0.35127315 -0.18697205 0.2600352
0.32909223 0.51138514 0.14093676 0.4346147 0.53164196 0.116586514 -0.115343705 -0.15798591
0.09444036 0.20808072 -0.5480231 0.43676355 0.09274379 -0.53854156 0.18413287 0.36921784
0.21624893 0.47342235 0.012246753 -0.47563487 0.0012393474 0.4240707 -0.2778041 0.24627613
0.13460562 -0.09429578 0.0049198363 0.24784134 -0.39314854 0.36666968 0.39508837 0.32581478
0.577172 -0.026331112 -0.4106085 0.025377715 -0.1649752 0.20296086 0.48970658 -0.31460345
0.023781152 0.5647776 -0.46169633 -0.09741812 0.56161004 0.4045579 0.16688178 -0.24665059
-0.058367327 -0.5192842 -0.5437522 -0.5404975 0.5591375 0.45697019 0.22598241 -0.14616303
0.49560815 -0.15156999 0.40269232 -0.010818308 -0.26933226 -0.1566525 -0.12613246 -0.528812
0.1734819 -0.1730589 0.26906738 0.36918563 -0.092236735 0.27978447 0.11542839 0.38702488
-0.36992648 -0.049851842 -0.1932287 0.50670433 -0.5179713 -0.32450444 0.06923857 0.5102832
0.3919879 -0.54005796 -0.40654278 0.5600894 0.08302551 -0.4973127 -0.18104592 0.25402138
-0.11872371 -0.44601324 -0.35500494 -0.30103925 -0.0203006 0.22586942 0.27907157 -0.28479543
-0.09518607 -0.4443859 0.436582 0.5771641 0.56227165 0.23850437 -0.1209773 -0.012823946
0.20875221 -0.49947283 0.030574681 -0.46583003 -0.57783866 -0.018708333 -0.18614316 -0.36798656
00000000: 0d42 c5bd f679 6c3e 962f e2be 8a34 aa3d
00000010: 8c14 07bf 20da b53e e2a0 103f 8d73 53be
00000020: efc0 af3d 127d 98be a08f bebe cd9f 95be
00000030: da45 8ebe 23f9 de3d 3f13 82bd ae75 283d
00000040: 8c50 e2be 5a4b babe 60f6 febe 0aca d4be
00000050: a282 f53e 1359 623e 19db 0cbf 053c c8bd
00000060: 83ac 2c3d 9b28 9e3e 2d0d 093f 363f 0c3e
00000070: 32a3 d23e e399 55be 5912 9bbc 24a1 b2be
00000080: 4c3a 073e 3b26 083f 5c56 bc3e a3d0 123f
00000090: 82c9 85be 75b9 94bd d838 f83d 2db4 eb3e
000000a0: 6937 08bf ca86 92be ea6f ae3d 192c a9be
000000b0: 72e2 5e3e 356b 18bd 808b 1abe 16ab 9e3e
000000c0: a789 d33e fd02 103f 9e5d 853e 36bd 7bbc
000000d0: 6372 ef3e e21c ec3e 8498 94be 529b 863e
000000e0: a061 8b3d cd56 80be 6614 0dbe e0fb 0cbe
000000f0: bd89 cebe e4d7 35be e524 463e 60ce da3e
00000100: 3791 483d 4836 0fbf 7cc9 9b3e b872 31be
00000110: b667 043f 6f60 0ebf 8c4c 0abe 5f47 e73e
00000120: 65dd 7b3e 0e84 92be 5d6e febe 2e56 ecbb
00000130: 7966 663e c41d f5be a85b f7be 564b cbbb
00000140: 28b3 f4bd 504f be3e 985b 0fbf cc83 bbbd
00000150: cc50 e5be f45b a8bd c361 95be aea0 3c3e
00000160: b404 f8be 5446 e8be 9edf a8be 29cd 00bf
00000170: af0c bc3e 25db aabd 1be1 a1be 95e4 cd3e
00000180: 4130 04be 37fe 983e 4a79 35be 5401 f7be
00000190: ce31 ff3d fb18 b83e ceb0 0fbf 4051 6f3d
000001a0: f709 ec3d 4c3f 8d3d 031d 75bc d34c 34be
000001b0: 3df0 e5be 423f c13d 9033 c6be 5fa1 f4be
000001c0: 0d9d 3abe b794 c9be 2ce0 343e 7d19 d33e
000001d0: d2f3 e63e cb26 b6be 7be6 a03e d158 d43e
000001e0: 1fe7 e93b 7fd1 773e f88b a63e 3502 e23e
000001f0: da5c 9e3e b1f1 7c3e ac06 64be 998a a5be
00000200: a707 8cbe b340 f23e c88d 0ebe 6556 983c
00000210: d601 0abf a6cd c3bc a915 27be 83f7 bdbe
00000220: 6dde e63e 5797 ecbe 51bb a4bd a01b 2abd
00000230: 94e7 05bf 13da b33e 9a75 3fbe 5523 853e
00000240: c77e a83e 23ea 023f ba51 103e d185 de3e
00000250: b019 083f e9c4 ee3d 5239 ecbd 0fc7 21be
00000260: f369 c13d 1d13 553e 3e4b 0cbf 799f df3e
00000270: 75f0 bd3d dcdd 09bf 548d 3c3e 1f0a bd3e
00000280: 5c70 5d3e 6a64 f23e 9ba6 483c 6a86 f3be
00000290: 9971 a23a cb1f d93e 573c 8ebe cf2f 7c3e
000002a0: 0ed6 093e 251e c1bd 9436 a13b 1fca 7d3e
000002b0: c44a c9be 21bc bb3e 0649 ca3e 32d1 a63e
000002c0: 8bc1 133f 58b4 d7bc 473b d2be ede4 cf3c
000002d0: 42ef 28be f9d4 4f3e d2ba fa3e b413 a1be
000002e0: b1d0 c23c 4495 103f 7663 ecbe 2783 c7bd
000002f0: adc5 0f3f 3722 cf3e 0fe3 2a3e f991 7cbe
00000300: 9412 6fbd cfef 04bf 5833 0bbf 0b5e 0abf
00000310: a323 0f3f fff7 e93e ef67 673e c3ab 15be
00000320: 5ac0 fd3e 2a35 1bbe b02d ce3e 463f 31bc
00000330: ebe5 89be 8369 20be de28 01be 3960 07bf
00000340: 3da5 313e 5a36 31be 33c3 893e e605 bd3e
00000350: 9de6 bcbd e93f 8f3e b865 ec3d 2028 c63e
00000360: 0167 bdbe 7231 4cbd bfdd 45be 60b7 013f
00000370: c499 04bf 7225 a6be f4cc 8d3d eba1 023f
00000380: a3b2 c83e 3d41 0abf 6026 d0be 0562 0f3f
00000390: 4709 aa3d c59f febe 1a64 39be 170f 823e
000003a0: 6b25 f3bd d95b e4be 35c3 b5be d121 9abe
000003b0: 724d a6bc 504a 673e 78e2 8e3e b5d0 91be
000003c0: eaf0 c2bd 8c86 e3be ad87 df3e 07c1 133f
000003d0: 09f1 0f3f 7d3a 743e f2c2 f7bd 871b 52bc
000003e0: 24c3 553e e7ba ffbe c177 fa3c 4681 eebe
000003f0: 3ced 13bf 3842 99bc 509c 3ebe bc68 bcbe

fc2.weight f4 [256, 256]
0.011934703 0.002516127 0.008348503 -0.036529 -0.059352517 -5.939789e-05 -0.02562229 -0.020861438
0.044046946 0.01000496 0.02675168 -0.018082585 -0.05074338 0.01153655 -0.040738184 0.008074325
-0.049379915 0.046317756 -0.04363036 0.052462332 0.042010184 0.048463143 0.037330683 0.01352955
-0.0046384796 -0.0029916451 -0.025173888 -0.05780329 0.05752521 0.0017544354 0.030503502 0.002862528
0.018342843 -0.039833963 -0.048565753 0.045996197 0.022036644 0.03037033 -0.06411485 0.005009583
-0.06066515 -0.0077300654 -0.005331559 -0.04305827 -0.06372742 -0.0007855799 0.056273628 0.056471605
-0.039093696 -0.013088778 -0.053697374 -0.048558094 -0.01865072 0.06096184 -0.016615886 0.0048828213
0.059026472 0.009527975 0.04867576 0.040081035 0.058229286 0.008711339 -0.049741514 -0.053979486
-0.034420982 0.04932192 0.03642686 0.01731544 -0.04778891 -0.04783887 0.05093913 -0.00844406
-0.06112737 -0.009079956 -0.016071027 -0.0012230579 0.025060158 0.022987641 -0.04835261 -0.0008038347
-0.032679632 0.043338265 0.029281748 0.033434145 0.05571137 0.028441003 -0.06460032 0.0142578725
-0.04349635 0.007366386 -0.00093898457 0.06293406 -0.0423625 -0.06212823 -0.016700504 0.008753282
0.044718776 0.04847296 0.048973814 0.019824546 -0.018138887 -0.012243332 -0.03501557 0.013108347
-0.04554234 0.019412111 0.039840862 0.054362822 -0.060891286 0.052569218 -0.04147541 -0.005474406
0.057323303 0.033918295 -0.021253787 0.037858367 -0.06209563 0.05008212 0.05849486 -0.0039814385
0.009429694 -0.016251754 -0.03979746 -0.02755505 -0.004976072 -0.052838124 -0.05009474 0.0057560117
-0.042551514 -0.033023633 -0.0017560746 -0.034334686 0.055683967 -0.023722248 -0.033561505 -0.018055117
-0.050348766 0.03240757 0.0537336 -0.034973953 -0.02411326 0.05664869 -0.04434391 0.017814968
-0.052881602 -0.057564583 -9.598509e-05 -0.03563467 0.033712942 -0.018917426 -0.0016839737 -0.034468815
0.0249809 0.05759461 -0.009876332 -0.03740027 -0.059774354 0.05769135 0.026121378 0.025918989
0.011519769 0.030776912 0.020479377 0.03069345 0.0403765 0.008432302 0.053212807 0.03923546
-0.0010483038 -0.029010074 0.00391658 0.048616305 0.03857569 -0.024832055 -0.011980749 0.022802794
0.024194708 0.057846572 0.029161943 0.018329367 0.015122439 -0.059216138 -0.023950553 0.0074866866
-0.04269659 -0.055449314 0.041554905 0.021909786 -0.04991847 0.0016352623 0.037320852 0.03613437
0.056128122 -0.02577537 0.026817106 -0.052858014 -0.008947995 -0.041238338 -0.013273254 0.033349887
0.029258393 -0.032720745 -0.01606425 -0.011821593 -0.025569957 -0.03610879 0.04506775 0.042337153
0.05106228 -0.036210205 0.046163548 -0.018153844 -0.014701118 -0.016231582 -0.004853901 -0.028564045
0.0072189826 -0.03957894 0.025680428 -0.05343902 -0.023619277 -0.044735134 0.04256557 0.04144422
-0.051380005 -0.034041937 0.054616544 0.019263508 0.04391928 -0.048891142 0.028445669 0.039825737
-0.015945531 -0.0024173695 0.044676084 0.014705082 0.019331818 -0.0004463167 -0.025739133 -0.03764139
0.06122815 -0.007300601 0.055921603 0.04893156 -0.033209562 0.004204355 -0.015782112 -0.0033549424
0.03880318 0.033529505 -0.03719397 -0.03353231 -0.044796668 -0.052678883 0.04140867 -0.03782348
00000000: c689 433c 9be5 243b 29c8 083c 6f9f 15bd
00000010: a01b 73bd 0022 79b8 d6e5 d1bc 9be5 aabc
00000020: 926a 343d d8eb 233c 5726 db3c ee21 94bc
00000030: 4ad8 4fbd cc03 3d3c 15dd 26bd 2c4a 043c
00000040: 9842 4abd b0b7 3d3d c0b5 32bd bee2 563d
00000050: df12 2c3d 4a81 463d 0fe8 183d 0cab 5d3c
00000060: 63fe 97bb 7a0f 44bb 7839 cebc 25c3 6cbd
00000070: 8e9f 6b3d 15f5 e53a 7be2 f93c 4099 3b3b
00000080: bb43 963c f028 23bd e2ec 46bd 8266 3c3d
00000090: 3186 b43c 33cb f83c a54e 83bd 6e27 a43b
000000a0: 057c 78bd 7d4c fdbb 5cb4 aebb de5d 30bd
000000b0: 8683 82bd 60ef 4dba 2d7f 663d c54e 673d
000000c0: b620 20bd 5072 56bc c7f1 5bbd dae4 46bd
000000d0: 65c9 98bc 1fb3 793d 0a1e 88bc 1300 a03b
000000e0: bec5 713d 391b 1c3c 3c60 473d 032c 243d
000000f0: d581 6e3d 01ba 0e3c c2bd 4bbd 9819 5dbd
00000100: 04fd 0cbd c805 4a3d 5534 153d 1cd9 8d3c
00000110: 4ebe 43bd b1f2 43bd 8da5 503d f458 0abc
00000120: b160 7abd 19c4 14bc 63a7 83bc 034f a0ba
00000130: f64a cd3c 9450 bc3c 630d 46bd 6fb8 52ba
00000140: 14db 05bd 7783 313d 47e0 ef3c 3ef2 083d
00000150: 9b31 643d 1bfd e83c 2c4d 84bd da99 693c
00000160: 3b29 32bd b961 f13b 3026 76ba 93e3 803d
00000170: 4d84 2dbd 2c7a 7ebd 7fcf 88bc ed69 0f3c
00000180: 092b 373d 958b 463d c498 483d 1667 a23c
00000190: 0198 94bc 4298 48bc 7d6c 0fbd 64c4 563c
000001a0: 9b8a 3abd 2606 9f3c 2c30 233d 8dab 5e3d
000001b0: 2469 79bd d252 573d 1fe2 29bd a562 b3bb
000001c0: d7cb 6a3d e9ed 0a3d 6c1c aebc 6011 1b3d
000001d0: fd57 7ebd e922 4d3d 4e98 6f3d ba76 82bb
000001e0: 017f 1a3c 6622 85bc a902 23bd 21bb e1bc
000001f0: 510e a3bb ca6c 58bd 2430 4dbd ed9c bc3b
00000200: 7f4a 2ebd ca43 07bd 162c e6ba 87a2 0cbd
00000210: df14 643d 2955 c2bc ca77 09bd 53e8 93bc
00000220: 823a 4ebd cdbd 043d c317 5c3d d940 0fbd
00000230: 2c89 c5bc 7508 683d f6a1 35bd b2f0 913c
00000240: 619a 58bd d7c8 6bbd 9a4b c9b8 a9f5 11bd
00000250: 9516 0a3d b8f8 9abc c8b8 dcba 2c2f 0dbd
00000260: bfa4 cc3c 53e8 6b3d 57d0 21bc 0731 19bd
00000270: f4d5 74bd c44d 6c3d 80fc d53c 0f54 d43c
00000280: 6abd 3c3c dd1f fc3c 5ec4 a73c d470 fb3c
00000290: d461 253d a327 0a3c acf5 593d 5db5 203d
000002a0: 3d67 89ba 89a6 edbc a856 803b e421 473d
000002b0: 8b01 1e3d 986c cbbc e74a 44bc edcc ba3c
000002c0: fb33 c63c 87f0 6c3d 07e5 ee3c 7827 963c
000002d0: 1bc4 773c 9f8c 72bd f333 c4bc e152 f53b
000002e0: 9fe2 2ebd d21e 63bd 7a35 2a3d 277c b33c
000002f0: 4f77 4cbd 4c56 d63a c0dd 183d a201 143d
00000300: 9ae6 653d de26 d3bc 8caf db3c a581 58bd
00000310: 9c9a 12bc 88e9 28bd 1078 59bc e499 083d
00000320: 4caf ef3c 3006 06bd 2d99 83bc 5baf 41bc
00000330: 1678 d1bc d0e6 13bd f698 383d b969 2d3d
00000340: ae26 513d 2751 14bd fd15 3d3d 5fb7 94bc
00000350: f5dc 70bc 18f8 84bc 790d 9fbb 25ff e9bc
00000360: 378d ec3b 871d 22bd c35f d23c e0e2 5abd
00000370: 377d c1bc 303c 37bd 3c59 2e3d 6ac1 293d
00000380: d773 52bd 8f6f 0bbd 99b5 5f3d 81ce 9d3c
00000390: b4e4 333d 1442 48bd e406 e93c 5020 233d
000003a0: 34a0 82bc bb6c 1ebb 45fe 363d 96ed 703c
000003b0: c35d 9e3c 9dff e9b9 e0da d2bc dc2d 1abd
000003c0: 5eca 7a3d e139 efbb 0d0e 653d 766c 483d
000003d0: c006 08bd b0c4 893b 7d49 81bc 98de 5bbb
000003e0: 15f0 1e3d 3c56 093d b458 18bd 2d59 09bd
000003f0: b67c 37bd d0c5 57bd 239c 293d cbec 1abd

fc2.bias f4 [256]
0.012841076 0.0003982463 -0.05486139 0.043145515 -0.00023599213 -0.016366666 -0.0073015923 0.03127092
-0.026705135 -0.009352276 0.047037248 0.0023957114 -0.008592694 -0.028968843 -0.043887086 0.047874544
0.054714568 -0.031002503 -0.0011687289 0.0015717583 0.018418886 -0.03137695 0.00786399 0.04527774
-0.05170981 0.028584907 -0.04075895 0.009300021 -0.0024034418 0.037578423 -0.009274968 -0.013577465
0.0028496466 0.032934316 -0.015053273 0.03787679 -0.045075152 0.03736 0.05310938 0.042051397
-0.013114485 -0.037433345 0.0666429 0.0028446824 0.047547076 -0.057020642 0.005468938 0.012314485
-0.044533245 0.035193767 0.048348464 -0.013683881 0.032685507 -0.03945231 0.049314078 0.022522531
-0.063772626 -0.042319857 -0.031929795 0.010983764 -0.051115964 0.036921 -0.045101754 -0.047141865
0.011180915 0.049810518 0.04158002 0.0033561036 0.038760323 -0.056790125 0.055646963 0.011571279
-0.03396511 0.060858388 -0.03453675 -0.053706717 0.055633828 -0.01799813 -0.017990287 -0.04987725
0.017209176 0.040208887 -0.01977562 0.014652899 0.024473235 0.04445454 -0.046922296 -0.005589987
0.053389788 0.04014332 0.013202763 0.0380044 0.017548217 0.03020004 -0.060136367 -0.008227859
0.00978735 -0.026804661 -0.03366526 0.035538558 -0.060474534 -0.012046885 -0.006557855 0.043214098
0.014351419 -0.05090334 0.049401566 -0.021586893 -0.055173736 -0.055859078 -0.04204658 -0.03998361
0.043817054 -0.03589623 0.027490543 0.056849364 0.04952658 -0.057446286 0.031993546 -0.0021444147
-0.02184741 0.028561605 0.037659343 0.01675781 0.06714887 -0.0058395704 -0.036335755 -0.007952134
-0.012800956 -0.032067962 0.051448397 -0.06431174 0.014370846 -0.003853029 0.058627605 0.05420502
0.026229525 0.047230802 -0.042321593 0.03496068 -0.0055965376 -0.006485751 0.043626916 -0.022823898
-0.047610972 -0.048724864 -0.06167377 0.034831535 -0.007396702 -0.025983032 -0.00779439 -0.017714031
0.04315438 -0.02011233 0.034843937 0.020715062 -0.03531505 -0.044005122 -0.02859752 -0.036693316
0.03034787 0.040320564 0.048289087 -0.023888582 0.05636528 -0.024400456 0.005808807 0.05843561
0.027293684 -0.018119333 -0.048989866 -0.04552428 -0.011502536 0.05481694 0.03391104 0.04867666
-0.01860039 0.042118248 0.029981619 0.020837573 0.016129537 0.003653491 -0.029307136 0.027616085
-0.0151066175 0.031100659 0.03767236 -0.038378175 -0.064106986 -0.040047802 0.049013365 -0.03630892
0.049380098 -0.035055146 -0.051461186 0.039192956 -0.045072407 0.039481808 -0.015892543 0.058309093
0.03625083 0.016080394 0.040492196 -0.06370124 0.055044413 -0.0498051 -0.053112134 -0.005483565
0.028844956 -0.043819454 -0.010281166 -0.044173826 0.05187943 -0.015848694 0.0161971 -0.013080007
-0.009437046 0.029056035 -0.021130197 -0.0010801024 0.05912097 0.04648052 -0.04948306 -0.044837076
0.0073690154 0.018509317 -0.0064245192 -0.036382124 0.06260799 0.017909806 0.042847794 0.039443452
-0.012332049 -0.060561012 0.023727655 0.047029223 0.018984722 0.009149121 -0.005724257 -0.014563292
-0.015578785 0.032811396 0.057521638 -0.044830747 0.041809108 -0.0031258783 0.05440107 0.055249706
0.005062263 0.02560002 -0.050459865 -0.05524811 -0.022690268 0.06032377 0.0282551 0.02167701
00000000: 6063 523c b7cb d039 56b6 60bd 5ab9 303d
00000010: a874 77b9 6313 86bc 3242 efbb f015 003d
00000020: bac4 dabc 4a3a 19bc 21aa 403d 5e01 1d3b
00000030: 5fc8 0cbc 1150 edbc f2c2 33bd 1918 443d
00000040: 621c 603d f6f8 fdbc 0930 99ba 7503 ce3a
00000050: 34e3 963c 1e85 00bd f7d7 003c 2775 393d
00000060: aacd 53bd e52a ea3c dbf2 26bd 1e5f 183c
00000070: 1083 1dbb d5eb 193d 09f6 17bc 0474 5ebc
00000080: 23c1 3a3b 22e6 063d 01a2 76bc b124 1b3d
00000090: b9a0 38bd cd06 193d 3989 593d 163e 2c3d
000000a0: 23de 56bc b553 19bd 137c 883d da6d 3a3b
000000b0: b9c0 423d 7a8e 69bd c734 b33b b2c2 493c
000000c0: 7e68 36bd 5727 103d 0a09 463d 5b32 60bc
000000d0: 3de1 053d bf98 21bd 8ffd 493d 2c81 b83c
000000e0: 399b 82bd 9657 2dbd d1c8 02bd 3ff5 333c
000000f0: f95e 51bd 793a 173d 9ebc 38bd d417 41bd
00000100: 2830 373c 1d06 4c3d d04f 2a3d 13f2 5b3b
00000110: 25c3 1e3d c39c 68bd 12ee 633d 7695 3d3c
00000120: 001f 0bbd a546 793d 6876 0dbd 93fb 5bbd
00000130: 4ce0 633d d070 93bc 5e60 93bc 164c 4cbd
00000140: 42fa 8c3c 13b2 243d 7b00 a2bc b612 703c
00000150: 187c c83c f715 363d 9831 40bd 362c b7bb
00000160: 40af 5a3d 526d 243d 6750 583c 80aa 1b3d
00000170: 47c1 8f3c 1366 f73c 8d51 76bd 24ce 06bc
00000180: 1f5b 203c 7395 dbbc 95e4 09bd e190 113d
00000190: 25b4 77bd 4c60 45bc 46e3 d6bb 4401 313d
000001a0: 3722 6b3c 0580 50bd 4c59 4a3d ffd6 b0bc
000001b0: dbfd 61bd 7dcc 64bd 0939 2cbd dbc5 23bd
000001c0: 8379 333d ed07 13bd d933 e13c e1da 683d
000001d0: 62dc 4a3d cc4c 6bbd aa0b 033d 4f89 0cbb
000001e0: 57f9 b2bc 07fa e93c af40 1a3d ad47 893c
000001f0: 5985 893d de59 bfbb cdd4 14bd ab49 02bc
00000200: 1abb 51bc b259 03bd 8ebb 523d e0b5 83bd
00000210: b273 6b3c 1a83 7cbb 8023 703d 1506 5e3d
00000220: 4ddf d63c 1675 413d 6859 2dbd ee32 0f3d
00000230: 2963 b7bb 6c86 d4bb 23b2 323d 2ff9 babc
00000240: b903 43bd b993 47bd a39d 7cbd 83ab 0e3d
00000250: 0960 f2bb 5eda d4bc 1568 ffbb 041d 91bc
00000260: a6c2 303d 9dc2 a4bc 84b8 0e3d a2b2 a93c
00000270: 84a6 10bd b73e 34bd 5945 eabc bb4b 16bd
00000280: 199c f83c 2d27 253d c7ca 453d fdb1 c3bc
00000290: 48df 663d 77e3 c7bc ce57 be3b 2e5a 6f3d
000002a0: 0197 df3c ff6e 94bc 99a9 48bd ab77 3abd
000002b0: 2275 3cbc ba87 603d 4de6 0a3d 2d61 473d
000002c0: d85f 98bc 2f84 2c3d 039c f53c 8fb3 aa3c
000002d0: 1722 843c 686f 6f3b 8515 f0bc 213b e23c
000002e0: bf81 77bc cfc6 fe3c 554e 1a3d 6f32 1dbd
000002f0: 864a 83bd 2a09 24bd 3dc2 483d a9b8 14bd
00000300: c942 4a3d fc95 0fbd f7c8 52bd cb88 203d
00000310: d89d 38bd adb7 213d 1431 82bc 84d5 6e3d
00000320: c07b 143d 08bb 833c 25db 253d cc75 82bd
00000330: 4076 613d 6f00 4cbd 1c8c 59bd 7aaf b3bb
00000340: 424c ec3c 077c 33bd 5672 28bc 9def 34bd
00000350: 867f 543d 1fd5 81bc c8af 843c 874d 56bc
00000360: d79d 1abc ec06 ee3c 3c19 adbc 3992 8dba
00000370: d528 723d 5c62 3e3d c0ae 4abd 15a7 37bd
00000380: c877 f13b daa0 973c c684 d2bb 6c05 15bd
00000390: 9e38 803d 96b7 923c 2b81 2f3d 758f 213d
000003a0: 5d0c 4abc d30e 78bd 8060 c23c b7a1 403d
000003b0: d985 9b3c 32e6 153c 8c92 bbbb e09a 6ebc
000003c0: 293e 7fbc 3e65 063d cf9b 6b3d 72a0 37bd
000003d0: 0740 2b3d 89db 4cbb a8d3 5e3d 844d 623d
000003e0: 57e1 a53b 22b7 d13c 01af 4ebd d84b 62bd
000003f0: f1e0 b9bc 0f16 773d 3d77 e73c fc93 b13c

smallfc.0.0.weight f4 [32, 256]
0.052546635 -0.036939695 0.0044320924 0.058134425 0.043292746 -0.0057709226 -0.039573386 -0.062022064
-0.02050134 0.052569132 0.009734194 -0.033362623 -0.0042489185 0.007512492 0.026434693 0.04482845
0.057074986 -0.010716085 0.01523992 0.039460637 -0.010634144 0.016383035 -0.05245384 0.0033841769
-0.001493553 0.025080772 0.023774443 0.050910834 0.056268968 0.054088622 0.036645528 -0.034105174
0.047430843 0.024461547 -0.061476987 0.03878141 -0.004371687 -0.011062943 -0.005579037 -0.044982955
0.011374087 0.0059950617 -0.03315337 0.023030985 0.05055725 -0.025036408 0.006555107 -0.009373826
0.034941033 0.038007785 -0.059601154 -0.052235015 0.0052651605 -0.016102131 -0.034063295 -0.028855791
0.021774 0.05349499 -0.052757114 -0.022372501 -0.015971666 -0.032019638 -0.014697748 0.008225564
-0.015420456 -0.012195137 0.02153086 0.003931401 0.023657287 0.044263203 -0.030373445 -0.0389645
-0.023466948 -0.044723246 -0.04355864 -0.014803123 0.000715092 -0.039155047 0.023193162 0.05020533
-0.061391924 0.012063419 -0.02409074 -0.042580966 0.025145374 -0.059866767 -0.05864165 0.009202495
-0.015485892 -0.014655279 0.05853719 -0.021350365 0.03249794 0.020974517 0.047498073 0.04333286
-0.01903445 0.017565455 0.050927263 0.015506827 0.0178797 -0.008655205 -0.042448055 -0.009537205
-0.05387422 0.061861496 0.058841012 -0.0025913054 -0.020704044 -0.034644417 -0.019968318 -0.011862054
-0.013053476 0.060386002 -0.035955336 0.044671923 -0.020054303 -0.046652924 0.016812075 0.0067216777
0.055271845 -0.058670722 0.0052654766 -0.04868298 -0.009127797 -0.0017210015 -0.06366155 -0.019817963
-0.023537938 0.057436917 -0.018615603 -0.021997252 0.041615922 0.048539706 0.04636562 -0.010015841
-0.030256614 -0.045788813 -0.04923607 -0.009793582 0.063120864 0.00045617626 -0.0069261184 0.014636913
0.030147176 -0.013163263 0.049551364 0.03073877 0.0031483758 0.030276237 -0.03734189 -0.0073847887
0.028064795 0.0250538 0.00037668235 -0.018210672 0.009799091 0.00093558035 -0.059787422 0.051366307
-0.03347492 0.044669934 0.037460692 -0.027116336 0.0062590986 -0.02600304 0.026986228 -0.0006445708
0.04995762 -0.0349603 0.055982556 0.025439857 0.05922953 0.01743574 0.008222365 0.045825254
-0.06050414 0.011438488 0.021311138 -0.048702303 -0.043734334 -0.01554945 -0.028771177 0.055611238
0.024541127 -0.012978678 -0.0005143024 -0.063434005 -0.018342447 0.03674844 0.0007465036 0.0038534182
0.00023022559 0.0100253755 0.010288532 0.0082734795 0.008713818 0.06319186 0.013243173 0.05123194
-0.0056553986 0.04449613 0.03720804 -0.01866695 -0.019934768 -0.037822053 0.012563978 0.039151035
-0.033868276 -0.03565183 -0.03182303 -0.027083471 0.037087873 0.05351461 -0.022505267 -0.0043831244
0.01982228 -0.015619779 0.06080214 -0.028962485 -0.016658155 -0.04839899 -0.042305026 -0.0038128826
-0.064173736 -0.05710863 0.0042722393 -0.048007037 0.036057107 -0.051591426 0.059986018 -0.0006426646
0.026051112 -0.007396102 0.019124389 0.0014687199 -0.054548543 0.061521173 -0.004045696 0.032862253
-0.026120845 0.008976814 0.01756861 0.056713548 -0.05990107 0.0572337 0.0040392657 -0.019753745
0.010044151 0.057353705 0.004609164 -0.016794356 -0.013663175 -0.04802454 -0.061488602 0.061857104
00000000: 243b 573d 144e 17bd 163b 913b 5d1e 6e3d
00000010: bc53 313d 021a bdbb b417 22bd d90a 7ebd
00000020: 6df2 a7bc bb52 573d 2b7c 1f3c 3fa7 08bd
00000030: 833a 8bbb 5a2b f63b 928d d83c 099e 373d
00000040: 76c7 693d 8592 2fbc dbb0 793c 7aa1 213d
00000050: d53a 2ebc b735 863c d6d9 56bd 11c9 5d3b
00000060: 53c3 c3ba 3176 cd3c 9fc2 c23c e187 503d
00000070: 4a7a 663d 088c 5d3d 9f19 163d deb1 0bbd
00000080: d846 423d 9563 c83c 4bcf 7bbd 41d9 1e3d
00000090: 5e40 8fbb 5941 35bc 5bd0 b6bb 0c40 38bd
000000a0: 615a 3a3c 3972 c43b d4cb 07bd 7aab bc3c
000000b0: 1e15 4f3d 2719 cdbc 39cc d63b ad94 19bc
000000c0: 541e 0f3d 0dae 1b3d 5720 74bd 62f4 55bd
000000d0: 5e87 ac3b 9ee8 83bc f485 0bbd fb62 ecbc
000000e0: 635f b23c 901d 5b3d d817 58bd 8946 b7bc
000000f0: 03d7 82bc 0627 03bd d3ce 70bc 84c4 063c
00000100: 15a6 7cbc 1dce 47bc 7c61 b03c fbd2 803b
00000110: edcc c13c 554d 353d bbd1 f8bc 3d99 1fbd
00000120: c23d c0bc b92f 37bd 8b6a 32bd cc88 72bc
00000130: 0375 3b3a 0b61 20bd 96ff bd3c 1ba4 4d3d
00000140: 1976 7bbd a6a5 453c f259 c5bc 6169 2ebd
00000150: acfd cd3c db36 75bd 3a32 70bd 10c6 163c
00000160: 8ab8 7dbc b21c 70bc b1c4 6f3d f6e6 aebc
00000170: 8f1c 053d c0d2 ab3c 578d 423d cc7d 313d
00000180: 23ee 9bbc 6ee5 8f3c 1b99 503d 5910 7e3c
00000190: 7378 923c 90ce 0dbc 03de 2dbd f041 1cbc
000001a0: 37ab 5cbd 7b62 7d3d 4603 713d e4d2 29bb
000001b0: 879b a9bc 4ee7 0dbd 9994 a3bc 0f59 42bc
000001c0: 3fde 55bc 5057 773d e745 13bd e8f9 363d
000001d0: ec48 a4bc 2317 3fbd 7ab9 893c 8541 dc3b
000001e0: bb64 623d b650 70bd 058a ac3b ce67 47bd
000001f0: c18c 15bc 3a93 e1ba fd60 82bd 4859 a2bc
00000200: a2d2 c0bc f942 6b3d c07f 98bc 9533 b4bc
00000210: 7575 2a3d 92d1 463d e0e9 3d3d 7b19 24bc
00000220: b8dc f7bc 0d8d 3bbd c3ab 49bd 4375 20bc
00000230: 8345 813d f12a ef39 7ef4 e2bb aacf 6f3c
00000240: 36f7 f63c baaa 57bc 5ff6 4a3d dfcf fb3c
00000250: fb54 4e3b df05 f83c cff3 18bd 19fc f1bb
00000260: 24e8 e53c a03d cd3c 737d c539 8c2e 95bc
00000270: 5e8c 203c bc41 753a a8e3 74bd 7a65 523d
00000280: ff1c 09bd d2f7 363d 6270 193d 1423 debc
00000290: 2019 cd3b 5404 d5bc 3912 dd3c 6af8 28ba
000002a0: 5da0 4c3d 8832 0fbd f74d 653d 3f67 d03c
000002b0: aa9a 723d 66d5 8e3c 19b7 063c 43b3 3b3d
000002c0: 30d3 77bd 7f68 3b3c b294 ae3c 117c 47bd
000002d0: c622 33bd 1fc3 7ebc 88b1 ebbc 9cc8 633d
000002e0: 790a c93c 85a4 54bc 40d2 06ba b0e9 81bd
000002f0: e642 96bc 8885 163d 02b1 433a a189 7c3b
00000300: b668 7139 7941 243c 3b91 283c 7d8d 073c
00000310: 67c4 0e3c bc6a 813d e5f9 583c 95d8 513d
00000320: ec50 b9bb 9341 363d 7567 183d 6eeb 98bc
00000330: 3d4e a3bc 4ceb 1abd 25d9 4d3c d65c 203d
00000340: 76b9 0abd a707 12bd de58 02bd 28de ddbc
00000350: 74e9 173d 2332 5b3d f75c b8bc 50a0 8fbb
00000360: 5662 a23c 1aea 7fbc aa0b 793d bc42 edbc
00000370: af76 88bc 053e 46bd 0948 2dbd 8ee1 79bb
00000380: 856d 83bd bdea 69bd 24fe 8b3b 07a3 44bd
00000390: 9eb0 133d 8851 53bd e6b3 753d 7e78 28ba
000003a0: 2469 d53c 005b f2bb c0aa 9c3c 1082 c03a
000003b0: 4b6e 5fbd a0fd 7b3d c291 84bb 929a 063d
000003c0: 62fb d5bc 7d13 133c 0cec 8f3c 774c 683d
000003d0: d35a 75bd e26d 6a3d d15b 843b 9bd2 a1bc
000003e0: 3990 243c b8eb 6a3d 7808 973b 5194 89bc
000003f0: 82db 5fbc 61b5 44bd 79db 7bbd e05d 7d3d

smallfc.0.0.bias f4 [32]
-0.015687352 -0.020022288 -0.038495015 0.062263843 -0.051284473 -0.029460972 -0.020846993 0.05334785
-0.048010357 -0.05092591 -0.021589097 0.05698486 -0.015638916 0.024399403 0.018151898 -0.034279477
0.011970174 0.05731906 -0.018373953 0.024962422 -0.02956163 0.024283674 -0.034832936 -0.014708092
-0.0031302345 0.000797721 0.040328532 0.04184454 -0.041970264 -0.059148513 0.04356057 0.03331964
00000000: c382 80bc c805 a4bc f3ac 1dbd 5f08 7f3d
00000010: ab0f 52bd 2358 f1bc 50c7 aabc 4683 5a3d
00000020: 82a6 44bd b097 50bd 9edb b0bc f568 693d
00000030: 2f1d 80bc 42e1 c73c 4ab3 943c a368 0cbd
00000040: 8c1e 443c 64c7 6a3d f984 96bc fe7d cc3c
00000050: 3b2b f2bc 8eee c63c fbac 0ebd 36fa 70bc
00000060: 9f24 4dbb 261e 513a 882f 253d 2e65 2b3d
00000070: 03e9 2bbd b645 72bd 916c 323d 2d7a 083d

smallfc.0.2.weight f4 [3, 32]
-0.13940154 0.17447446 0.12900707 0.07862943 -0.111729756 -0.110553406 0.008496337 -0.025456691
0.09746124 -0.1229616 -0.009088248 0.08496121 -0.050147437 -0.14457197 0.08173441 -0.13930616
0.04988691 0.12728897 0.0418119 0.12669463 -0.035480775 -0.16739126 0.17629729 -0.045397338
0.06932263 -0.16199444 -0.07389485 0.015466546 0.10590221 -0.11391934 0.11281172 -0.052224338
-0.04913582 -0.1621222 0.14055221 -0.06443434 -0.08000541 -0.06908092 -0.06976351 -0.0004048312
0.14151347 -0.0034738295 0.0134726465 -0.17509094 -0.10443737 -0.026108706 -0.031709798 0.002484821
0.034328885 0.023743631 0.07492576 0.10565718 -0.15490523 -0.10132819 0.0098476 0.16518494
0.17543854 0.008815291 0.0313569 -0.13045111 0.08787145 0.11575548 -0.053082205 -0.024354152
-0.038719896 0.12604381 -0.0941696 0.01522918 0.15189047 -0.16429295 -0.12856188 -0.17539161
-0.09306789 0.0793585 0.029554475 0.04118437 -0.11127992 -0.010856507 0.15353799 0.15558073
0.09378638 -0.06439577 0.17038225 -0.10418326 -0.1507648 -0.02359808 0.08318094 -0.04955992
-0.06688943 -0.11814323 -0.046984717 -0.1721462 -0.007022734 0.033368897 -0.060141932 -0.10645611
00000000: 47bf 0ebe 6fa9 323e 6e1a 043e 7708 a13d
00000010: 92d2 e4bd d369 e2bd 3834 0b3c 8d8a d0bc
00000020: c299 c73d 4bd3 fbbd e0e6 14bc 2500 ae3d
00000030: 6667 4dbd ad0a 14be 5f64 a73d 46a6 0ebe
00000040: 3756 4c3d 0a58 023e f442 2b3d 3dbc 013e
00000050: 4a54 11bd 9d68 2bbe 4787 343e 8ff2 39bd
00000060: 06f9 8d3d dfe1 25be 2f56 97bd 6567 7d3c
00000070: 42e3 d83d 8b4e e9bd d509 e73d 30e9 55bd
00000080: a442 49bd 5d03 26be ebec 0f3e 27f6 83bd
00000090: e0d9 a3bd 4c7a 8dbd 2ce0 8ebd 863f d4b9
000000a0: e8e8 103e 30a9 63bb 60bc 5c3c 0a4b 33be
000000b0: 43e3 d5bd ede1 d5bc 22e2 01bd 61d8 223b
000000c0: 729c 0c3d 0182 c23c ad72 993d cb62 d83d
000000d0: 7a9f 1ebe 2785 cfbd d457 213c 3e26 293e
000000e0: 29a6 333e 036e 103c 1870 003d fa94 05be
000000f0: f2f5 b33d 3611 ed3d ba6c 59bd 5c82 c7bc
00000100: c198 1ebd a111 013e fedb c0bd d083 793c
00000110: 2d89 1b3e 693c 28be baa5 03be dc99 33be
00000120: 619a bebd b686 a23d 3a1c f23c f1b0 283d
00000130: bae6 e3bd 7edf 31bc 1039 1d3e 8e50 1f3e
00000140: 1313 c03d eee1 83bd af78 2e3e 085e d5bd
00000150: 1662 1abe c350 c1bc c55a aa3d 58ff 4abd
00000160: 53fd 88bd 14f5 f1bd 0c73 40bd 1847 30be
00000170: f61e e6bb d3ad 083d 6357 76bd a905 dabd

smallfc.0.2.bias f4 [3]
-0.14948371 0.0908818 -0.1434273
00000000: 4212 19be 3d20 ba3d 9bde 12be

smallfc.1.0.weight f4 [32, 256]
-0.003547877 0.023917526 0.05162496 0.050813675 0.030628316 -0.00960043 0.03715688 -0.050535154
-0.04784865 0.040957615 0.01627835 -0.048026327 0.03035906 -0.029526107 0.0065219933 -0.018973801
-0.00041996746 0.053573806 -0.061380375 0.023476753 -0.04724532 -0.0013820773 0.007882217 -0.03022545
-0.007830952 0.0061836937 -0.038353864 -0.036617383 -0.012983258 0.0063519995 0.01852616 -0.022686206
0.031395853 -0.006490721 -0.009295217 -0.054672834 -0.050097305 -0.03325771 0.01381905 0.04920103
-0.05367833 0.046445932 0.0045144334 0.060406942 0.0026752434 0.055503123 0.04695138 0.029328316
-0.05926243 -0.0122501915 0.0012011752 -0.052749332 -0.035809938 -0.014863614 0.0066181626 -0.054445136
-0.0072665843 -0.008377349 -0.013795375 -0.030172423 -0.047932655 -0.025170788 0.061095104 0.023403583
0.060239427 0.037306752 0.044979203 -0.05876692 -0.03379352 -0.03834898 -0.00552611 0.032701235
-0.034886144 0.026664766 -0.0444333 0.0287098 -0.058562167 -0.031047745 -0.0022481272 0.061438013
-0.028365472 -0.041831136 0.05434156 0.02417885 0.0032759728 0.028235063 -0.056088347 0.03187667
0.051875543 -0.05771968 -0.008124208 -0.036607858 0.03728004 0.040728945 0.0028299566 -0.042529874
0.047433447 -0.014365019 -0.0077564195 -0.028512089 0.05542192 0.018211884 0.026659187 -0.008066242
-0.012952243 0.011936701 0.0033184453 -0.049744654 0.045342978 -0.052518293 -0.002251098 0.0595584
-0.05821603 -0.014778761 0.027758202 -0.018185712 0.058287214 0.016276969 -0.032083172 -0.059863072
0.02142955 0.013279508 0.028694004 -0.053169478 0.031191556 0.04921767 0.0257086 0.04353117
0.003449159 -0.019936552 -0.007851303 0.038973823 -0.031460986 0.04800519 -0.005520957 0.03731392
0.016192207 0.020047385 0.05890732 0.009112631 -0.0064747497 -0.04852636 -0.05618599 -0.018124137
0.03773937 0.062099162 -0.025104431 0.058699597 -0.034071703 -0.04103107 -0.0511004 0.013042786
0.00086031144 0.061066475 -0.001987258 0.0014391529 0.0494222 0.025932865 0.0044766124 -0.003379397
0.034566943 0.042590227 -0.048814174 -0.05643506 0.060221642 -0.0016883544 -0.014487025 -0.030098388
-0.06161541 -0.028182192 0.045117848 0.010279683 -0.0539122 0.029377157 -0.053019863 0.022551648
-0.0064943046 -0.045519825 0.037448086 0.03535405 0.0052372804 0.030173568 -0.0034539097 -0.014783194
-0.043581434 0.0058252593 -0.016697166 0.0075500812 0.040138893 0.057698246 -0.0018542288 -0.035152934
0.023194598 0.012633917 -0.056102484 -0.058421988 0.021963168 0.05542923 0.04676055 0.05301526
-0.0038372865 -0.037714396 -0.04140095 0.007164926 0.024819635 -0.056456633 -0.061731145 -0.025514387
0.002655332 -0.025129296 0.050493613 0.044704296 -0.026509061 -0.010574146 0.048863176 0.01712639
0.0037940117 0.04573607 -0.031155942 0.042512238 0.0019199504 -0.017107682 -0.04350597 -0.04498273
-0.046513323 -0.035948735 0.008876289 -0.030390376 0.013525593 0.016127186 -0.02330243 -0.0050914455
0.008559511 0.015066857 -0.0012349188 -0.042494897 -0.028060026 -0.029784508 -0.02509015 0.0069051245
0.041730184 -0.05315616 -0.061967637 0.047033716 -0.028809428 0.05836515 0.03445462 -0.024659693
0.035042446 0.04131644 -0.058811933 -0.05889685 0.05877079 -0.038182568 -0.005675523 -0.052051038
00000000: 8083 68bb b0ee c33c b274 533d 0022 503d
00000010: 3ce8 fa3c 1f4b 1dbc d031 183d f3fd 4ebd
00000020: f2fc 43bd 2cc3 273d 2d5a 853c 41b7 44bd
00000030: 90b3 f83c bce0 f1bc 72b6 d53b f26e 9bbc
00000040: 142f dcb9 3570 5b3d fd69 7bbd 5252 c03c
00000050: 4f84 41bd d226 b5ba 6a24 013c 5d9b f7bc
00000060: 654d 00bc 95a0 ca3b f118 1dbd 1cfc 15bd
00000070: bbb7 54bc 6f24 d03b 2cc4 973c 6cd8 b9bc
00000080: f098 003d 1db0 d4bb f74a 18bc 9ff0 5fbd
00000090: d532 4dbd 3d39 08bd 4c69 623c 0587 493d
000000a0: cfdd 5bbd 173e 3e3d d0ed 933b 456d 773d
000000b0: 2353 2f3b 3e57 633d 1750 403d f041 f03c
000000c0: 29bd 72bd 07b5 48bc c070 9d3a af0f 58bd
000000d0: 71ad 12bd 8486 73bc 2cdd d83b dd01 5fbd
000000e0: 871c eebb 2641 09bc ff05 62bc 282c f7bc
000000f0: 0855 44bd f832 cebc dc3e 7a3d dfb8 bf3c
00000100: 9ebd 763d f7ce 183d 1d3c 383d 95b5 70bd
00000110: 136b 0abd d213 1dbd 5f14 b5bb bbf1 053d
00000120: c6e4 0ebd 1170 da3c b1ff 35bd d130 eb3c
00000130: e2de 6fbd d757 febc 5155 13bb 6da6 7b3d
00000140: b55e e8bc 2057 2bbd 4195 5e3d b912 c63c
00000150: b4b1 563b 384d e73c e5bc 65bd 1c91 023d
00000160: 737b 543d 796b 6cbd 661b 05bc 1ff2 15bd
00000170: f5b2 183d 65d3 263d cb76 393b ce33 2ebd
00000180: 9349 423d 425b 6bbc 9029 febb 2f92 e9bc
00000190: 1802 633d 1731 953c 5e64 da3c 4528 04bc
000001a0: a535 54bc 2792 433c 467a 593b 0dc1 4bbd
000001b0: 8fb9 393d 6c1d 57bd 2887 13bb 82f3 733d
000001c0: ef73 6ebd 9e22 72bc 2b65 e33c 34fa 94bc
000001d0: 93be 6e3d 4757 853c a569 03bd fb32 75bd
000001e0: 068d af3c 4b92 593c b00f eb3c 3dc8 59bd
000001f0: 6f85 ff3c 7898 493d d89a d23c bd4d 323d
00000200: 490b 623b fb51 a3bc c0a2 00bc 04a3 1f3d
00000210: 3cdd 00bd 17a1 443d 25e9 b4bb 7bd6 183d
00000220: 85a5 843c 6a3a a43c cd48 713d 254d 153c
00000230: 232a d4bb 94c3 46bd 4823 66bd 1279 94bc
00000240: 9994 1a3d b15b 7e3d cfa7 cdbc fd6e 703d
00000250: c58e 0bbd 3210 28bd a74e 51bd 69b1 553c
00000260: 8686 613a d720 7a3d a83c 02bb f5a1 bc3a
00000270: ef6e 4a3d 2971 d43c 8cb0 923b e078 5dbb
00000280: 1196 0d3d 1773 2e3d 5ff1 47bd 7328 67bd
00000290: f8aa 763d c64b ddba fd5a 6dbc e590 f6bc
000002a0: 7160 7cbd 57de e6bc 7ecd 383d 1e6c 283c
000002b0: 0ad3 5cbd 5da8 f03c 5b2b 59bd 3cbe b83c
000002c0: 2dce d4bb ff72 3abd 2a63 193d 69cf 103d
000002d0: 7e9d ab3b 8f2e f73c fd5a 62bb 3635 72bc
000002e0: 7282 32bd d1e1 be3b 7fc8 88bc ac66 f73b
000002f0: ae68 243d ff54 6c3d 9809 f3ba 86fc 0fbd
00000300: 9902 be3c 7dfe 4e3c b8cb 65bd e54b 6fbd
00000310: 1aec b33c c309 633d fe87 3f3d 8726 593d
00000320: fc7a 7bbb 697a 1abd 0b94 29bd c1c7 ea3b
00000330: 8c52 cb3c 123f 67bd ccd9 7cbd 8c03 d1bc
00000340: 1405 2e3b f4db cdbc 64d2 4e3d da1b 373d
00000350: 8829 d9bc 2f3f 2dbc c124 483d a54c 8c3c
00000360: f4a4 783b bf55 3b3d bf3a ffbc 5021 2e3d
00000370: d8a6 fb3a 6925 8cbc 5133 32bd d03f 38bd
00000380: c184 3ebd fb3e 13bd db6d 113c 3df5 f8bc
00000390: 739a 5d3c 291d 843c bde4 bebc 24d6 a6bb
000003a0: 313d 0c3c fbda 763c 00dd a1ba 210f 2ebd
000003b0: 24de e5bc a4fe f3bc dc89 cdbc 6244 e23b
000003c0: 45ed 2a3d 46ba 59bd c7d1 7dbd 6da6 403d
000003d0: c001 ecbc 4c10 6f3d 4a20 0d3d 2003 cabc
000003e0: ab88 0f3d 6d3b 293d c8e4 70bd d33d 71bd
000003f0: a4b9 703d 5365 1cbd bdf9 b9bb 7833 55bd

smallfc.1.0.bias f4 [32]
0.05935819 0.052147824 -0.0016905217 0.014250214 0.04408891 0.029309707 -0.026393825 0.051719993
-0.03739758 0.019743878 0.044658925 -0.050471365 0.056491714 0.024607562 0.032760188 0.009745371
0.03416351 0.032650113 -0.00049234263 0.03606793 0.012335797 0.029867705 -0.049677033 0.0620371
0.036200378 0.008085384 -0.0033192204 0.03883018 0.025943311 0.003774851 -0.040330146 -0.022302322
00000000: 9321 733d f598 553d 7f94 ddba bb79 693c
00000010: 9396 343d e91a f03c dd37 d8bc 58d8 533d
00000020: 342e 19bd eabd a13c 47ec 363d 10bb 4ebd
00000030: db63 673d cc95 c93c 8c2f 063d 0cab 1f3c
00000040: 09ef 0b3d 20bc 053d 8e10 01ba f7bb 133d
00000050: 151c 4a3c 1ead f43c 257a 4bbd 9d1a 7e3d
00000060: d946 143d 8f78 043c 4787 59bb 650c 1f3d
00000070: 1187 d43c 7e63 773b 3931 25bd 5cb3 b6bc

smallfc.1.2.weight f4 [3, 32]
0.15164442 0.04504338 0.02191183 -0.103840895 -0.04250509 -0.06676791 0.13207476 0.13703123
-0.045191716 -0.15897876 -0.0908969 -0.006207288 -0.07606563 -0.07900099 -0.05496473 -0.093140356
0.11924012 -0.025415998 0.106073245 0.0627696 -0.16707654 -0.02555968 -0.014623411 0.02242254
0.14003135 -0.053408753 0.17206033 0.14950551 0.15052567 -0.1492382 -0.119627185 0.026586235
0.09811087 0.14614846 0.100488655 -0.029780218 -0.13744357 0.16028458 -0.061378658 -0.006905307
0.13675979 0.11419784 -0.11687018 -0.17397565 -0.114794604 -0.017983375 0.16893776 -0.04519988
0.04290874 -0.010400117 -0.046342753 -0.010454955 0.12259492 -0.030709213 0.040271588 0.040788352
-0.0076160026 0.07075299 -0.14739783 0.11667474 0.015378519 0.04763889 0.14309171 -0.036813524
0.018123684 -0.10836365 0.13083026 0.013963671 -0.047112424 -0.008043227 -0.01103879 -0.03373302
0.03334032 0.09853271 0.12940294 0.10830078 0.106891684 0.06679124 0.061303288 -0.020167762
-0.15682821 -0.09060675 0.10303569 -0.16630498 0.024000896 0.048769895 -0.15039599 -0.06906969
0.091355376 -0.12402976 -0.10923058 0.07893805 0.031078529 0.15796919 0.073878415 0.06713791
00000000: ad48 1b3e 687f 383d 7080 b33c 89aa d4bd
00000010: d119 2ebd 9dbd 88bd 9b3e 073e ea51 0c3e
00000020: f31a 39bd 54cb 22be 2728 babd 8166 cbbb
00000030: 4cc8 9bbd 45cb a1bd b222 61bd 5fc0 bebd
00000040: 2a34 f43d 3635 d0bc ee3c d93d 598d 803d
00000050: 1d16 2bbe 8962 d1bc 0897 6fbc 79af b73c
00000060: 6164 0f3e 23c3 5abd 9530 303e f917 193e
00000070: 6723 1a3e e6d1 18be 19ff f4bd 60cb d93c
00000080: 5aee c83d f1a7 153e ffcc cd3d a5f5 f3bc
00000090: 02be 0cbe a421 243e 3068 7bbd ea45 e2bb
000000a0: c20a 0c3e 8fe0 e93d a259 efbd ac26 32be
000000b0: 6f19 ebbd df51 93bc 05fe 2c3e 8223 39bd
000000c0: 13c1 2f3d 4165 2abc e6d1 3dbd 424b 2bbc
000000d0: 0c13 fb3d e391 fbbc d2f3 243d b011 273d
000000e0: a98f f9bb f2e6 903d 75ef 16be 2bf3 ee3d
000000f0: 2ff6 7b3c ff20 433d a286 123e c7c9 16bd
00000100: 1f78 943c c3ed ddbd 5ef8 053e e2c7 643c
00000110: f5f8 40bd bdc7 03bc 0bdc 34bc a32b 0abd
00000120: dc8f 083d 84cb c93d 3482 043e cdcc dd3d
00000130: 07ea da3d d8c9 883d 2819 7b3d dd36 a5bc
00000140: 9397 20be 0890 b9bd 6004 d33d da4b 2abe
00000150: 879d c43c f1c2 473d 6801 1abe 6974 8dbd
00000160: 8718 bb3d 5103 febd 48b4 dfbd 46aa a13d
00000170: 6698 fe3c adc2 213e 914d 973d 9a7f 893d

smallfc.1.2.bias f4 [3]
-0.005357668 -0.062967956 -0.046899527
00000000: 608f afbb 58f5 80bd b819 40bd
