saved_models/top/model_99.pt (torch, 390476 bytes, 7 tensors)

layers.0.weight f4 [200, 80]
-0.36317754 -0.61374426 -0.095118746 -0.31861198 -0.39140666 0.45617512 -0.4693957 -0.2540564
-0.2232887 0.8806616 -0.63246495 -0.25358668 -0.6187337 0.5774073 -0.4190729 -0.03826146
-0.56695217 0.5879826 -0.5179035 -0.056553427 -0.24016514 0.82348776 -0.5702339 -0.4586403
-0.40490857 0.4369286 -0.2998981 -0.49559328 -0.6640773 -0.03574966 0.022983227 -0.32826376
-0.9877052 -0.14288178 -0.34089422 -0.006418696 -1.1110904 0.04752148 0.26132992 -0.02366874
-1.1808981 -0.63688695 0.36317793 0.06264237 -1.2064536 -0.3064233 0.31682235 0.2757914
-1.4581279 -0.5342197 0.83222306 0.4337673 -1.2286934 -0.4484715 0.7610017 0.35866004
-1.4348649 -0.7350606 0.8648087 0.18350898 -1.4780511 -0.64613014 0.6295826 0.6259237
-1.5648346 -0.7395654 0.85881084 0.7045389 -1.374961 -0.3471146 0.28654796 0.40923086
-1.6097469 -0.14336343 0.68775374 1.1152407 -1.4310144 -0.793479 0.80372584 0.3858605
-0.110648505 -0.02206407 0.007472092 -0.14833692 -0.04358134 -0.10118824 0.029686263 -0.14117622
-0.03832905 -0.101717226 0.086676925 -0.12105266 -0.018963432 -0.041344356 -0.17474727 -0.23626888
0.038659222 -0.0076293694 0.04125532 -0.29356313 -0.050978944 -0.16282631 0.039810468 -0.24976446
-0.19884144 -0.16268858 -0.06720974 -0.2962305 -0.089898795 -0.065003425 -0.015997894 -0.15711643
-0.17403527 -0.10700762 0.16375582 -0.34089208 -0.07788895 -0.25681078 0.06648439 -0.2940275
-0.099019736 -0.05904379 0.09180919 -0.29407072 -0.18599713 -0.12583128 0.006340448 -0.37800944
-0.19947983 0.019123655 0.010977032 -0.1981941 -0.14352627 -0.30830184 0.19953437 -0.3543361
-0.16920601 -0.26366252 -0.0191389 -0.19763312 -0.117532305 -0.1472096 0.16847742 -0.2772576
-0.21950999 0.021858713 0.12439229 -0.39723337 -0.20463033 -0.08438373 -0.066563204 -0.39862183
-0.19689077 -0.21370706 0.17146754 -0.3465367 -0.09318988 -0.5662304 0.057013925 -0.4204154
-0.21497011 0.07832632 -0.24676558 -0.20103897 -0.18578053 0.14808561 -0.3015948 -0.20272654
-0.21199684 0.19583988 0.04751682 -0.52314484 -0.12103296 0.6089659 -0.07951016 -0.07671694
-0.8496581 -0.21451847 0.3542071 0.058706865 -0.6707416 -0.26625118 0.22328621 0.07524155
-0.71734774 -0.31651932 0.28844878 -0.036794666 -0.4867939 -0.5246227 0.16887616 -0.7972714
-0.59462094 -0.07543385 -0.04936055 0.05427111 -0.7652618 0.05407767 0.24266954 -0.0034145585
-0.67798966 -0.49585325 0.60996723 -0.14699842 -0.75146 0.32402852 0.3523339 -0.07884149
-0.8001878 -0.00042027712 0.6731148 0.009867368 -0.9320194 -0.63836503 0.595951 0.3931758
-0.8491224 -0.7540814 0.6375571 -0.4432232 -0.8164426 -0.270519 -0.36931002 0.3183519
-0.43158633 -0.18507677 -0.12608184 -0.65055805 -0.37901527 0.7481936 0.46024558 -0.18379834
-0.588134 -0.6578182 -0.16949417 -0.12449791 -0.30745596 -0.37136382 -0.3014365 -0.5556742
0.0068540336 0.16956209 -0.020355456 0.09139433 -0.008382898 -0.24031442 0.21071464 -0.16347034
-0.0032714491 -0.10028924 -0.4093956 0.15280959 0.07233393 -0.27364638 -0.12789083 -0.04899693
00000000: 68f2 b9be 581e 1dbf 9ecd c2bd 1c21 a3be
00000010: 7466 c8be c98f e93e a254 f0be ae13 82be
00000020: cba5 64be 0a73 613f 39e9 21bf 1dd6 81be
00000030: 5565 1ebf f7d0 133f b990 d6be 0cb8 1cbd
00000040: c723 11bf 0786 163f 5395 04bf 91a4 67bd
00000050: daed 75be 18d0 523f d9fa 11bf e7d2 eabe
00000060: 2d50 cfbe 1bb5 df3e 3e8c 99be 67be fdbe
00000070: f800 2abf 3c6e 12bd 5247 bc3c 3012 a8be
00000080: 3fda 7cbf 9a4f 12be b089 aebe ed53 d2bb
00000090: 3638 8ebf e2a5 423d 09cd 853e f2e4 c1bc
000000a0: ab27 97bf 060b 23bf 75f2 b93e a54a 803d
000000b0: 126d 9abf 84e3 9cbe 8a36 a23e 8834 8d3e
000000c0: efa3 babf 9fc2 08bf 920c 553f bf16 de3e
000000d0: d345 9dbf 0e9e e5be 02d1 423f 4aa2 b73e
000000e0: a7a9 b7bf ee2c 3cbf 1a64 5d3f c7e9 3b3e
000000f0: c730 bdbf c968 25bf 532c 213f 893c 203f
00000100: 804c c8bf 2854 3dbf 07db 5b3f a95c 343f
00000110: b9fe afbf 01b9 b1be 6ab6 923e b586 d13e
00000120: 300c cebf ddcd 12be a110 303f 35c0 8e3f
00000130: 7b2b b7bf 7121 4bbf fac0 4d3f 828f c53e
00000140: af9b e2bd b5bf b4bc 73d8 f43b a2e5 17be
00000150: 5982 32bd c83b cfbd 9b30 f33c 8090 10be
00000160: ecfe 1cbd 1f51 d0bd ac83 b13d 75ea f7bd
00000170: 3359 9bbc b358 29bd f3f0 32be 78f0 71be
00000180: 2259 1e3d caff f9bb 57fb 283d e84d 96be
00000190: 4ccf 50bd f1bb 26be 4d10 233d 41c2 7fbe
000001a0: 179d 4bbe d697 26be 43a5 89bd 86ab 97be
000001b0: dc1c b8bd 8420 85bd 040e 83bc 21e3 20be
000001c0: 4d36 32be d026 dbbd 9baf 273e 6889 aebe
000001d0: 3e84 9fbd b47c 83be f828 883d c68a 96be
000001e0: dcca cabd e7d7 71bd 7506 bc3d 7090 96be
000001f0: 0876 3ebe ead9 00be 88c3 cf3b 748a c1be
00000200: 7144 4cbe 36a9 9c3c 02d9 333c 65f3 4abe
00000210: 8df8 12be bdd9 9dbe bd52 4c3e 8b6b b5be
00000220: 5744 2dbe c6fe 86be 2fc9 9cbc 5660 4abe
00000230: c7b4 f0bd 1dbe 16be 5885 2c3e b5f4 8dbe
00000240: 3ac7 60be 0b11 b33c 63c1 fe3d 2c62 cbbe
00000250: 9d8a 51be 61d1 acbd 4a52 88bd 2918 ccbe
00000260: bc9d 49be 06d6 5abe 3095 2f3e 426d b1be
00000270: 56da bebd 7af4 10bf 6f87 693d b040 d7be
00000280: 2021 5cbe 8d69 a03d 1eb0 7cbe 29dd 4dbe
00000290: 403d 3ebe c1a3 173e a26a 9abe 8c97 4fbe
000002a0: b315 59be 408a 483e ffa0 423d d2ec 05bf
000002b0: 21e0 f7bd 30e5 1b3f 39d6 a2bd c51d 9dbd
000002c0: 3183 59bf bbaa 5bbe a25a b53e 9c76 703d
000002d0: b9b5 2bbf 1352 88be 24a5 643e 3e18 9a3d
000002e0: 1aa4 37bf d20e a2be 8faf 933e 01b6 16bd
000002f0: 0d3d f9be ac4d 06bf dfed 2c3e fa19 4cbf
00000300: 1439 18bf 107d 9abd 4a2e 4abd 624b 5e3d
00000310: 33e8 43bf 8c80 5d3d 5d7e 783e c9c6 5fbb
00000320: bb90 2dbf 7ae0 fdbe d026 1c3f c186 16be
00000330: af5f 40bf 11e7 a53e 1c65 b43e a677 a1bd
00000340: 1cd9 4cbf a458 dcb9 4051 2c3f beaa 213c
00000350: d398 6ebf e46b 23bf 3f90 183f 574e c93e
00000360: 1660 59bf 7b0b 41bf f136 233f 27ee e2be
00000370: 6202 51bf 7781 8abe 3416 bdbe 05ff a23e
00000380: e2f8 dcbe c484 3dbe 991b 01be f98a 26bf
00000390: 4a0e c2be 9e89 3f3f 4fa5 eb3e a235 3cbe
000003a0: f38f 16bf c666 28bf e18f 2dbe c3f8 febd
000003b0: de6a 9dbe 6623 bebe e355 9abe aa40 0ebf
000003c0: cd97 e03b afa1 2d3e 7cc0 a6bc f32c bb3d
000003d0: 6c58 09bc fc14 76be 94c5 573e c564 27be
000003e0: cf65 56bb 7264 cdbd 4d9c d1be 1e7a 1c3e
000003f0: d023 943d 611b 8cbe d0f5 02be 01b1 48bd

layers.0.bias f4 [200]
-1.1922374 1.5866157 -0.6933112 -2.086268 2.0820334 -1.7419131 -0.122360535 -0.07946426
-1.9763355 0.32623637 1.9084891 -1.0416204 1.5812515 1.9726261 -1.14892 -1.778973
0.010542233 -0.38739827 -1.9442366 -2.308522 1.9164419 -1.0855794 -2.1217723 -0.11424386
-1.8103505 -0.7878784 1.9255104 -1.6383104 1.4665426 -0.08554514 2.0366013 0.08178818
-0.48181918 2.0249512 -0.8752914 -1.5092866 -2.2639766 -2.325589 -1.9441264 -1.158907
-0.71151525 -2.752993 -1.5573117 1.6121862 1.8354983 -0.58073235 -1.7725443 1.1296676
1.6392599 1.8665907 -1.2904589 -1.355911 1.5922447 -0.8515354 1.7656933 -2.3348038
1.2197641 -0.23870924 1.7796317 2.1439414 1.8244512 2.1043682 -1.8990021 1.1554211
-1.0638105 1.971226 2.3639672 1.8750066 1.8836937 -1.1934407 -0.6511548 -0.76862055
0.022228204 2.1789584 -2.307781 1.654399 1.5491251 1.7177836 -2.2053986 -1.4270042
1.7275612 0.013670284 -1.4791696 1.9318173 -2.3017578 1.661486 -2.403567 1.0915192
1.734805 1.7130357 -0.507681 -0.033904433 -0.46520483 -1.2501867 -1.5698302 1.9111964
1.67219 -2.374109 -1.933145 1.9107587 1.7837509 1.5991374 1.1496592 -1.239123
-2.063732 1.8902515 0.6487525 -1.0762 -2.4692833 -2.0807865 -2.1154063 1.3155599
1.886025 -1.7272006 2.0695176 -0.9132068 -2.5259113 -2.2273138 -0.7600778 -2.4171655
-0.8594977 1.7047111 -0.20496239 1.701802 1.4306169 1.6811262 -0.83531845 1.7907887
-2.6578367 -2.0218883 -1.1025419 -2.1733804 -1.6669971 -1.5125188 1.80236 -1.3100034
-1.3027358 -1.3285503 2.2192645 1.5202188 -2.2865162 -2.170305 1.1484193 1.5823506
-0.5039393 1.8949225 0.16596466 -1.7587105 -0.18324971 1.8493506 -2.3144693 1.5629224
2.027977 -2.4697373 -1.8586533 1.4378129 1.7909046 1.1132163 1.430003 -2.307118
0.318372 1.965368 -0.84893566 -0.6545228 1.9712526 0.9863067 -1.8800331 -2.5495758
2.111813 1.4664305 -0.4003609 -2.0671856 -2.6572402 1.070203 2.1800427 1.8780878
1.4929998 1.7049462 1.539902 -2.1263611 -2.1904035 -0.8936878 1.5225813 -2.9027212
-2.2226522 -1.6192971 -1.5183977 -1.1845709 0.91975737 -2.809055 -0.78902304 0.85887927
-2.0854247 -2.551281 0.37563875 0.39018255 -1.5528361 1.5689288 -2.233067 -1.2276794
00000000: 3c9b 98bf 3916 cb3f d87c 31bf 6a85 05c0
00000010: 0940 0540 02f7 debf 2998 fabd 28be a2bd
00000020: 90f8 fcbf 7408 a73e 5f49 f43f d153 85bf
00000030: 7366 ca3f 037f fc3f d00f 93bf 63b5 e3bf
00000040: 54b9 2c3c 1159 c6be bfdc f8bf d3be 13c0
00000050: f84d f53f 44f4 8abf 1ecb 07c0 aff8 e9bd
00000060: 91b9 e7bf 66b2 49bf 2077 f63f 28b4 d1bf
00000070: abb7 bb3f 4a32 afbd ad57 0240 9080 a73d
00000080: 01b1 f6be cd98 0140 1913 60bf 4e30 c1bf
00000090: fee4 10c0 73d6 14c0 22d9 f8bf 1157 94bf
000000a0: dd25 36bf 0a31 30c0 fd55 c7bf 1e5c ce3f
000000b0: 9cf1 ea3f e0aa 14bf bbe2 e2bf f398 903f
000000c0: 45d3 d13f 72ec ee3f c22d a5bf 7e8e adbf
000000d0: adce cb3f 39fe 59bf 3d02 e23f 6d6d 15c0
000000e0: 3b21 9c3f 3270 74be f9ca e33f 5636 0940
000000f0: 9e87 e93f f8ad 0640 8012 f3bf d7e4 933f
00000100: f12a 88bf 2251 fc3f 3d4b 1740 3700 f03f
00000110: e01c f13f aac2 98bf 15b2 26bf 51c4 44bf
00000120: ec17 b63c 0e74 0b40 afb2 13c0 59c3 d33f
00000130: bb49 c63f 55e0 db3f 4025 0dc0 13a8 b6bf
00000140: ba20 dd3f 54f9 5f3c 6e55 bdbf ca45 f73f
00000150: 0050 13c0 93ab d43f 0bd4 19c0 e7b6 8b3f
00000160: 170e de3f c144 db3f 62f7 01bf 60df 0abd
00000170: 542f eebe 1e06 a0bf 32f0 c8bf 15a2 f43f
00000180: 520a d63f 67f1 17c0 4c71 f7bf be93 f43f
00000190: f351 e43f 89b0 cc3f 0828 933f 959b 9ebf
000001a0: 2f14 04c0 c3f3 f13f a514 263f ecc0 89bf
000001b0: bd08 1ec0 9b2b 05c0 d162 07c0 4464 a83f
000001c0: 4469 f13f e914 ddbf fa72 0440 ecc7 69bf
000001d0: 88a8 21c0 4f8c 0ec0 7594 42bf d7b2 1ac0
000001e0: 0b08 5cbf f933 da3f a9e1 51be a6d4 d93f
000001f0: 741e b73f 252f d73f 6ed7 55bf 9038 e53f
00000200: ff19 2ac0 9e66 01c0 1820 8dbf aa18 0bc0
00000210: 2960 d5bf 379a c1bf bcb3 e63f 31ae a7bf
00000220: 0cc0 a6bf f00d aabf 6e08 0e40 8896 c23f
00000230: 4856 12c0 47e6 0ac0 67ff 923f 778a ca3f
00000240: 2a02 01bf d28c f23f a4f2 293e 6d1d e1bf
00000250: d0a5 3bbe 85b7 ec3f 4420 14c0 d70d c83f
00000260: 60ca 0140 2d10 1ec0 5ae8 edbf 410a b83f
00000270: 5d3c e53f df7d 8e3f 570a b73f d2a7 13c0
00000280: a801 a33e 2e91 fb3f d953 59bf ce8e 27bf
00000290: 0152 fc3f 997e 7c3f eda4 f0bf 402c 23c0
000002a0: f227 0740 ffb3 bb3f 1bfc ccbe c54c 04c0
000002b0: 3910 2ac0 69fc 883f d285 0b40 2e65 f03f
000002c0: 9e1a bf3f ad3b da3f 821b c53f 4d16 08c0
000002d0: 922f 0cc0 b9c8 64bf f2e3 c23f 2fc6 39c0
000002e0: ef3f 0ec0 2145 cfbf db5a c2bf 05a0 97bf
000002f0: 3875 6b3f 8fc7 33c0 6afd 49bf 83df 5b3f
00000300: 9977 05c0 3048 23c0 b953 c03e 02c6 c73e
00000310: 55c3 c6bf a9d2 c83f 92ea 0ec0 9924 9dbf

layers.2.0.weight f4 [200, 200]
1.8487958 0.5236316 0.8149685 -0.014816944 0.17424265 0.22807233 -0.021155063 -0.053019486
-0.7096114 -0.020622294 0.12615463 0.13965952 0.32683995 1.4123552 0.035389442 -0.20833968
-0.0073668654 0.026279528 -0.048673745 0.013065086 0.28848353 -0.0632919 0.11207404 -0.00971075
0.5943713 3.926536 0.05381202 -0.059963003 0.22427796 0.070857376 0.2750885 0.037266333
2.48963 -0.35333058 0.0823491 -0.8903349 -0.045444936 -0.16223735 -0.3040974 1.5337994
1.4155589 0.062126853 -0.32709554 0.5032684 0.4505692 -0.031527884 -0.03779105 0.48519263
0.23770145 0.37974787 2.268692 0.004252369 0.30110022 -0.3549657 -0.74714017 -0.010360173
0.2617452 0.10496761 0.07115196 0.3943641 0.033863176 0.29087508 0.02455717 0.19593413
1.5378793 0.69863355 0.18032514 -0.061025914 0.14929657 -0.16494302 2.2804945 5.5764537
-0.029242009 0.33304393 -0.16746905 0.28198996 0.168514 -0.11113292 0.047558296 -0.73857236
-0.047558304 0.048684116 -0.45614788 0.25907028 0.0025350626 0.434638 0.07231681 0.33223274
0.00747952 0.37086043 0.052920546 0.063262925 0.03347553 -0.2862246 -0.17306869 0.19632648
0.6452554 -0.13319807 -0.075839624 0.20160316 -0.17079142 0.31676 0.5551602 0.16400927
0.11206511 0.043310817 -0.2406539 -0.024192415 -0.18916012 0.2982 -0.09195879 0.44711617
0.08814254 0.03563063 0.00644877 0.8535874 -0.035067845 -0.016304117 1.4923599 0.036581673
0.0011010292 0.3659386 0.022628736 0.38375163 0.4128623 0.21840975 -0.02368079 0.3468469
0.124605455 -0.13467416 -0.0098296115 -0.2019127 -0.14900868 0.40885723 2.0268672 -0.13172168
-0.15553036 -0.03760087 -0.30623883 0.8869757 0.015044461 -0.087562375 0.13790588 0.26846853
2.5325341 0.2582016 -0.12260248 0.07154765 0.19263282 0.33585393 -0.12150558 -0.009547874
0.26605067 -0.5360717 -0.12598017 0.46189678 0.3545091 0.3781248 0.050704252 0.0007976394
-0.05834504 0.27274615 0.013627352 0.03587632 0.042387344 -0.075788245 0.06990798 -0.112103246
0.072909154 0.41760823 0.17780168 -0.30642498 0.023598738 0.34928462 0.24259748 0.34413964
0.21247593 0.395954 0.4354738 -0.12405991 0.19719635 3.3240376 0.23292144 0.03108994
-0.08699088 -0.0065152263 -0.050723728 -0.012383213 0.40788394 -0.03519414 -0.16089568 0.36827356
0.5404691 -0.10218784 0.08088356 -0.051394355 0.017905561 0.2318488 -0.013251884 0.18880574
-0.022836389 -0.012392093 -0.06690129 -0.05709712 0.038067587 0.018391337 -0.038588237 -0.0055927006
-0.02087371 -0.07290862 0.024110507 -0.030163404 0.03857286 -0.0198481 0.013777007 -0.03659588
0.0032703178 0.038381618 -0.05494511 0.04655806 0.018427437 -0.05516755 -0.07179773 0.007611871
-0.043888707 0.06331967 -0.039467 0.051096 0.034794796 -0.070267804 -0.033503454 0.052112196
-0.05090636 -0.046927024 -0.036965076 -0.012743484 0.022848805 -0.022212112 0.03145812 0.009279036
-0.011177805 0.03350491 0.044474237 -0.065090775 0.008372634 -0.04537263 -0.017908892 -0.0725386
0.050061278 0.031721223 0.032553006 -0.047357343 -0.0032029317 0.041526813 0.010631333 -0.081071906
00000000: 57a5 ec3f b80c 063f c7a1 503f c4c2 72bc
00000010: aa6c 323e cb8b 693e 624d adbc f62a 59bd
00000020: 18a9 35bf 16f0 a8bc ae2e 013e e802 0f3e
00000030: 9157 a73e 0ec8 b43f 85f4 103d ff56 55be
00000040: bf65 f1bb 2a48 d73c 1f5e 47bd f10e 563c
00000050: 1db4 933e 2f9f 81bd 1387 e53d d619 1fbc
00000060: b828 183f 5e4c 7b40 fe69 5c3d c49b 75bd
00000070: 1fa9 653e ac1d 913d 66d8 8c3e 95a4 183d
00000080: 1956 1f40 bfe7 b4be a5a6 a83d fdec 63bf
00000090: 7824 3abd 8c21 26be a8b2 9bbe 8a53 c43f
000000a0: 0931 b53f ba78 7e3d 1179 a7be 33d6 003f
000000b0: 02b1 e63e 6223 01bd caca 1abd 2b6b f83e
000000c0: 0268 733e 506e c23e 4032 1140 7557 8b3b
000000d0: cf29 9a3e 10be b5be 9444 3fbf b7bd 29bc
000000e0: 7803 863e 42f9 d63d 1eb8 913d 17ea c93e
000000f0: 1db4 0a3d 94ed 943e 1e2c c93c f5a2 483e
00000100: 3bd9 c43f a6d9 323f 27a7 383e 4ff6 79bd
00000110: 33e1 183e d3e6 28be 9ff3 1140 4f72 b240
00000120: f08c efbc bc84 aa3e 027d 2bbe fd60 903e
00000130: ef8e 2c3e a899 e3bd 7dcc 423d 1413 3dbf
00000140: 7fcc 42bd ff68 473d 378c e9be dca4 843e
00000150: 4b23 263b df88 de3e d61a 943d 691a aa3e
00000160: c316 f53b 6be1 bd3e 37c3 583d fe8f 813d
00000170: a31d 093d 088c 92be eb38 31be cf09 493e
00000180: 752f 253f 1365 08be ce51 9bbd 0f71 4e3e
00000190: f2e3 2ebe 5e2e a23e fb1e 0e3f 0cf2 273e
000001a0: 6482 e53d af66 313d fa6d 76be 2c2f c6bc
000001b0: 31b3 41be acad 983e e454 bcbd 69ec e43e
000001c0: 1384 b43d 6cf1 113d 3450 d33b b484 5a3f
000001d0: 4da3 0fbd 3690 85bc a605 bf3f aad6 153d
000001e0: 6950 903a 4e5c bb3e e65f b93c 187b c43e
000001f0: b062 d33e cea6 5f3e 37fe c1bc eb95 b13e
00000200: 2531 ff3d 06e8 09be 610c 21bc 34c2 4ebe
00000210: bb95 18be bc55 d13e 31b8 0140 0ce2 06be
00000220: 5a43 1fbe 5f03 1abd 56cb 9cbe d710 633f
00000230: 0b7d 763c e753 b3bd 3337 0d3e b574 893e
00000240: 0a15 2240 0033 843e 0217 fbbd 9387 923d
00000250: 8a41 453e 0cf5 ab3e ebd7 f8bd b06e 1cbc
00000260: cb37 883e ff3b 09bf f200 01be bc7d ec3e
00000270: 3782 b53e 9399 c13e 43af 4f3d ad18 513a
00000280: 35fb 6ebd 62a5 8b3e 4245 5f3c 0cf3 123d
00000290: 5a9e 2d3d de36 9bbd ea2b 8f3d 6396 e5bd
000002a0: 6551 953d bfd0 d53e a511 363e bce3 9cbe
000002b0: 2452 c13c 6fd5 b23e 796b 783e 1233 b03e
000002c0: 4a93 593e 7cba ca3e 6cf6 de3e 1f13 febd
000002d0: d7ed 493e 08bd 5440 f582 6e3e 54b0 fe3c
000002e0: 4628 b2bd ae7d d5bb afc3 4fbd f6e2 4abc
000002f0: 2ad6 d03e bb27 10bd d6c1 24be 5a8e bc3e
00000300: 2f5c 0a3f dc47 d1bd 48a6 a53d e382 52bd
00000310: afae 923c c669 6d3e 6e1e 59bc 4b56 413e
00000320: 6113 bbbc 3508 4bbc 8b03 89bd abde 69bd
00000330: c2ec 1b3d 6ea9 963c b30e 1ebd f942 b7bb
00000340: 58ff aabc 1d51 95bd 6683 c53c 3e19 f7bc
00000350: 93fe 1d3d 7c98 a2bc f5b8 613c 90e5 15bd
00000360: d452 563b 0b36 1d3d 200e 61bd aab3 3e3d
00000370: 23f5 963c 5ef7 61bd b00a 93bd 016d f93b
00000380: a5c4 33bd bead 813d 26a8 21bd 0a4a 513d
00000390: fd84 0e3d 91e8 8fbd eb3a 09bd 9973 553d
000003a0: 3083 50bd 8d36 40bd b168 17bd 0cca 50bc
000003b0: 6b2d bb3c 2df6 b5bc 3bda 003d 1907 183c
000003c0: 1d23 37bc 723c 093d 9e2a 363d 504e 85bd
000003d0: 5f2d 093c a7d8 39bd abb5 92bc 1e8f 94bd
000003e0: 0e0d 4d3d 1dee 013d 4d56 053d c6f9 41bd
000003f0: 47e8 51bb 0518 2a3d 0b2f 2e3c 0709 a6bd

layers.2.0.bias f4 [200]
1.0155457 0.06278774 0.9376991 -0.01124679 -0.06731938 -0.5293294 0.04374129 -0.52085966
0.037765328 0.01876609 -2.0932086 -0.05424804 0.020512583 -0.03736905 1.7908455 1.8341897
-3.098006 -1.7384812 -0.06467377 1.5681491 1.4211062 1.880953 1.6747072 0.027892394
0.040038694 -0.06835657 -0.060476206 2.2288098 -0.044568557 0.38154858 -2.4628623 -0.731702
-0.04501477 -0.07525275 0.6287769 0.028458672 -0.7187984 -1.3770441 2.827385 0.32425505
-0.05838949 1.7985109 -0.07691654 -1.9973441 -0.044211656 1.4787288 -0.73006207 -0.06464932
-2.301794 -0.02193896 -2.166187 0.13419724 1.3531988 -0.039398354 -0.007576989 -0.34310335
-2.3249636 -0.10150605 -0.034491196 2.2006197 -0.39031774 -0.12149848 1.3487589 -0.07635316
1.5438111 0.031196984 -0.050806213 0.041665398 0.09692507 1.1440629 -0.23603413 -0.014011188
1.5419778 -1.095669 -2.7794118 -2.74224 -0.014177006 -0.06194827 0.032951444 0.017101156
-0.05941754 -2.4850104 1.8402185 -0.33866096 -0.08734102 -2.8311126 -0.9088457 0.044590387
-0.046241377 1.4421903 -0.24224696 -0.044394124 2.6770976 0.0132602 -0.039168056 0.039958846
-0.11409756 1.4354398 0.25181946 -0.063275695 1.7840112 2.259939 -1.2651881 0.10278688
0.773649 -2.6884835 2.2667837 1.7310125 -0.30946898 -2.144871 0.016189309 0.03464245
0.0039100954 0.02691773 -0.0053959307 0.0011977721 0.0048006703 -2.4520998 -0.06603379 -2.0343935
0.02330457 0.080735154 -0.0022077777 1.7735497 -0.027760316 1.1010802 1.8490868 0.03281095
-1.5987655 2.1644194 -2.9239187 -2.6318147 0.8311871 0.04021851 -0.07900507 -0.06788423
-0.028770361 -0.08340417 -0.7069197 -0.05796238 -0.0071841516 2.1662643 -0.03483337 -0.028542744
-0.0017014543 -0.05685176 2.289775 -0.07658393 -1.8066769 -0.119070396 0.035707675 -0.02811849
0.00046841011 1.7877922 -2.7202778 0.90814245 0.72286606 -1.8977168 -0.036628034 -0.21718417
-0.034038533 -0.022685269 2.070313 -0.025585897 1.8315787 -0.018362693 1.3940506 -0.058584914
0.017730976 1.9460943 -2.4576643 -0.51693374 2.8016257 2.5645807 -0.08318804 1.1744097
-0.07091253 -1.7393147 0.5138928 0.04644778 -0.737556 -2.2735853 -0.10360717 0.0067793573
-0.012184867 0.057400703 1.1325145 0.042654987 -1.7202 -0.06469783 1.8802582 0.7666156
-0.0828551 -0.7247276 1.3771769 -0.04767479 -2.6526055 0.055275157 0.23871133 2.2048528
00000000: 67fd 813f dc96 803d 0c0d 703f 7544 38bc
00000010: bede 89bd 2282 07bf 112a 333d 0f57 05bf
00000020: d1af 1a3d 58bb 993c 21f7 05c0 3133 5ebd
00000030: 010a a83c 4a10 19bd 6d3a e53f bac6 ea3f
00000040: bb45 46c0 8d86 debf ae73 84bd 1cb9 c83f
00000050: cfe6 b53f 11c3 f03f ce5c d63f 977e e43c
00000060: 9dff 233d 88fe 8bbd e6b5 77bd d2a4 0e40
00000070: 858d 36bd 565a c33e 899f 1dc0 d350 3bbf
00000080: 6861 38bd 1d1e 9abd 86f7 203f 2922 e93c
00000090: 2c03 38bf fb42 b0bf e0f3 3440 c204 a63e
000000a0: d129 6fbd 9b35 e63f 6b86 9dbd f9a8 ffbf
000000b0: 4817 35bd fc46 bd3f 59e5 3abf dd66 84bd
000000c0: 9850 13c0 55b9 b3bc cfa2 0ac0 006b 093e
000000d0: 9e35 ad3f 2b60 21bd 6448 f8bb 3eab afbe
000000e0: 34cc 14c0 67e2 cfbd a446 0dbd f4d6 0c40
000000f0: bad7 c7be 32d4 f8bd 22a4 ac3f 0c5f 9cbd
00000100: 9a9b c53f d190 ff3c 2d1a 50bd 56a9 2a3d
00000110: a780 c63d a770 923f eeb2 71be 2f8f 65bc
00000120: 875f c53f e23e 8cbf e2e1 31c0 dc80 2fc0
00000130: ac46 68bc 78bd 7dbd 18f8 063d b917 8c3c
00000140: ce5f 73bd 690a 1fc0 488c eb3f f864 adbe
00000150: d9df b2bd f330 35c0 1daa 68bf 69a4 363d
00000160: 9967 3dbd b199 b83f 960f 78be 9dd6 35bd
00000170: 9155 2b40 4f41 593c af6e 20bd e3ab 233d
00000180: fbab e9bd 7ebc b73f 7bee 803e b096 81bd
00000190: 7b5a e43f d7a2 1040 aff1 a1bf ee81 d23d
000001a0: dc0d 463f 1d10 2cc0 fc12 1140 d191 dd3f
000001b0: b872 9ebe 9145 09c0 719f 843c 3ee5 0d3d
000001c0: 4220 803b 9282 dc3c 59d0 b0bb 90fe 9c3a
000001d0: f14e 9d3b 34ef 1cc0 b93c 87bd 8133 02c0
000001e0: 3ae9 be3c 7958 a53d 5db0 10bb ad03 e33f
000001f0: 9a69 e3bc 32f0 8c3f e0ae ec3f c664 063d
00000200: 59a4 ccbf d985 0a40 7c21 3bc0 a76f 28c0
00000210: aec8 543f 2abc 243d 69cd a1bd e306 8bbd
00000220: d2af ebbc cecf aabd b1f8 34bf f669 6dbd
00000230: 0869 ebbb 13a4 0a40 70ad 0ebd 79d2 e9bc
00000240: 5503 dfba 64dd 68bd ac8b 1240 09d8 9cbd
00000250: 3041 e7bf 2edb f3bd 3642 123d bf58 e6bc
00000260: f194 f539 60d6 e43f 0819 2ec0 067c 683f
00000270: c00d 393f 62e8 f2bf 4707 16bd 8765 5ebe
00000280: fd6b 0bbd 75d6 b9bc 0280 0440 8499 d1bc
00000290: 2c71 ea3f 5c6d 96bc 4070 b23f bcf6 6fbd
000002a0: 8d40 913c 9e19 f93f 5f4a 1dc0 c555 04bf
000002b0: d64d 3340 1722 2440 7e5e aabd 0f53 963f
000002c0: 973a 91bd dda1 debf 7b8e 033f 0740 3e3d
000002d0: 78d0 3cbf 6c82 11c0 ff2f d4bd 5f25 de3b
000002e0: 09a3 47bc 001d 6b3d 3cf6 903f ffb6 2e3d
000002f0: 832f dcbf 4c80 84bd 4dac f03f ec40 443f
00000300: efaf a9bd bf87 39bf 5547 b03f a446 43bd
00000310: 4ac4 29c0 3468 623d be70 743e 4f1c 0d40

layers.3.0.weight f4 [200, 200]
0.13626085 -0.046106715 -0.019154152 0.021885885 -0.08115275 0.28048846 0.0035163371 -0.2592098
0.027123315 0.0005188446 -0.017593551 0.04873821 -0.059046894 -0.027195727 0.023393814 0.040290225
-0.17455213 0.111705616 0.04315054 0.17833403 0.04814625 0.17677449 0.21991765 0.053970512
-0.043201353 0.048527263 0.047288593 0.016249035 0.008259434 0.26603347 0.016104765 0.40030652
0.0040458343 -0.006522343 0.17268105 0.06758404 -0.05241214 -0.14714119 -0.00069165416 0.11987363
-0.049983867 0.18702196 0.05775145 -0.027210068 -0.07039985 0.24001022 -0.09942042 0.033662103
0.0070965993 0.043611057 -0.06737735 -0.010256353 0.18697956 0.0117410915 -0.07137237 0.39700788
-0.21109805 0.019740375 0.018730028 -0.03918203 0.31358835 -0.07397906 0.1777495 -0.03716681
0.1046634 -0.01646927 -0.024825472 -0.0010847504 0.08759606 0.17746851 -0.04051181 -0.03325646
0.17175236 -0.037280917 -0.20851488 0.0032511998 -0.06305377 -0.03115897 0.001392161 0.03515966
0.05320621 -0.06973099 0.04855034 0.2136481 0.068825915 -0.12349732 0.17795694 -0.07254473
0.046105828 0.02507193 0.1898577 0.019359346 0.09474559 0.05364822 -0.037019104 -0.05275512
-0.03884915 0.02967826 0.06838386 -0.057041965 0.13872243 0.13933372 -0.04353968 0.16203061
0.30000037 -0.1827706 0.18563977 -0.015157285 0.270925 -0.036979754 0.029566875 -0.05911879
-0.062848896 -0.00057206553 0.029620301 0.001958562 -0.08208205 -0.08748944 0.017612563 -0.06864394
0.062184557 -0.03674663 0.055057004 0.052405383 -0.0006955997 0.26814556 0.19873695 -0.0062912405
0.0070076883 0.22940105 -0.08199961 0.18075143 0.108056895 -0.06374257 -0.03060101 0.02265519
-0.044293374 -0.04234299 0.2252721 0.032433823 0.08263046 0.03835045 0.00053000776 -0.0015334963
-0.0875614 -0.0004636504 0.06997907 0.047758747 0.08547023 -0.03631878 0.027280884 0.04318627
-0.032784186 0.2148839 -0.30795082 0.19944172 0.30804938 0.06726673 -0.056696843 -0.013244412
0.0025488613 -0.013388487 0.1739202 -0.041941788 0.13563038 0.041788448 -0.04784869 -0.013329883
0.023069449 0.06590096 0.018941283 0.09310323 0.06894876 -0.2788191 0.032400474 0.253498
0.009419603 0.10495377 0.14835799 -0.060090333 0.28991818 -0.04994339 -0.07206348 -0.010432365
-0.055847958 0.018139422 -0.040816363 0.06154964 -0.08864188 0.09015044 -0.04000745 0.16770911
0.015896033 -0.10382155 0.27456373 -0.070060425 0.009211981 -0.046659302 -0.0010240602 0.02819604
-0.06005224 0.03642599 -0.0446053 0.012598473 -0.0014895372 0.056618758 -0.026442336 0.045330416
0.0371408 -0.032419935 0.027028264 -0.01872684 0.041828543 0.031966675 0.043253876 -0.04179789
0.010666994 -0.058041796 -0.0011805019 -0.015218318 0.05328406 -0.031814143 -0.055836655 -0.09806865
0.039759368 0.04543874 0.012813805 -0.048516314 0.0024570825 0.07021293 -0.072704956 0.018741041
0.05565532 -0.05651703 -0.043978855 -0.00780708 -0.024200335 -0.056527197 -0.047578625 -0.06665013
0.044941433 0.04853519 0.020630984 0.0511094 0.0012567532 -0.013176084 -0.06744246 -0.05076282
-0.08656074 -0.037239406 -0.037382163 0.06804587 0.03102472 -0.03655465 0.01759042 0.04941268
00000000: f787 0b3e 65da 3cbd 2be9 9cbc 074a b33c
00000010: 6a33 a6bd 2f9c 8f3e 5972 663b 26b7 84be
00000020: b731 de3c 1203 083a 5a20 90bc b8a1 473d
00000030: 28db 71bd 93c9 debc 62a4 bf3c 5d07 253d
00000040: cbbd 32be eac5 e43d 9fbe 303d 329d 363e
00000050: 0135 453d 5f04 353e 1832 613e 2f10 5d3d
00000060: e7f3 30bd 86c4 463d afb1 413d b21c 853c
00000070: 9452 073c 8a35 883e 24ee 833c faf4 cc3e
00000080: eb92 843b 61b9 d5bb 4dd3 303e 8069 8a3d
00000090: 1dae 56bd 2eac 16be 2050 35ba 4e80 f53d
000000a0: e2bb 4cbd af82 3f3e c98c 6c3d a6e7 debc
000000b0: cc2d 90bd 3dc5 753e ef9c cbbd 46e1 093d
000000c0: 978a e83b 82a1 323d 23fd 89bd 430a 28bc
000000d0: 9277 3f3e b55d 403c ad2b 92bd 9e44 cb3e
000000e0: 162a 58be 91b6 a13c b76f 993c 567d 20bd
000000f0: a78e a03e 5582 97bd f703 363e 3a3c 18bd
00000100: c459 d63d 90ea 86bc ca5e cbbc 2f2e 8eba
00000110: 9065 b33d 4eba 353e b6ef 25bd ed37 08bd
00000120: dadf 2f3e e0b3 18bd ed84 55be 1512 553b
00000130: 5622 81bd 1941 ffbc 2c79 b63a 9303 103d
00000140: c1ee 593d 1fcf 8ebd b9dc 463d 91c6 5a3e
00000150: 9af4 8c3d 2aec fcbd 583a 363e 5592 94bd
00000160: 77d9 3c3d a663 cd3c 0f6a 423e 7e97 9e3c
00000170: fa09 c23d 3cbe 5b3d 58a1 17bd c115 58bd
00000180: 4920 1fbd d31f f33c d60c 8c3d d6a4 69bd
00000190: 410d 0e3e 80ad 0e3e aa56 32bd 5aeb 253e
000001a0: a699 993e 3728 3bbe 5a18 3e3e 4356 78bc
000001b0: aeb6 8a3e 1578 17bd 3b36 f23c 8b26 72bd
000001c0: ecb6 80bd abf6 15ba 46a6 f23c 385b 003b
000001d0: a21a a8bd aa2d b3bd 3948 903c 3295 8cbd
000001e0: 3cb5 7e3d a283 16bd 7483 613d 07a7 563d
000001f0: e858 36ba 604a 893e b381 4b3e c026 cebb
00000200: c0a0 e53b 1ce8 6a3e 69ef a7bd e716 393e
00000210: ef4c dd3d 778b 82bd f8ae fabc 6197 b93c
00000220: f86c 35bd d86f 2dbd bbad 663e 54d9 043d
00000230: 293a a93d 5d15 1d3d 38f0 0a3a 99ff c8ba
00000240: 6453 b3bd 1a16 f3b9 3051 8f3d ad9e 433d
00000250: 040b af3d 00c3 14bd 297c df3c 16e4 303d
00000260: b648 06bd 860a 5c3e bbab 9dbe 733a 4c3e
00000270: a6b8 9d3e 24c3 893d f33a 68bd 17ff 58bc
00000280: cc0a 273b 625b 5bbc 2318 323e 27cb 2bbd
00000290: b1e2 0a3e 5d2a 2b3d fdfc 43bd 9565 5abc
000002a0: 24fc bc3c 15f7 863d c02a 9b3c e8ac be3d
000002b0: 0235 8d3d 61c1 8ebe 5cb6 043d 7dca 813e
000002c0: ae54 1a3c 01f2 d63d 28eb 173e 4821 76bd
000002d0: 2870 943e 7191 4cbd 0596 93bd 83ec 2abc
000002e0: d4c0 64bd 2099 943c 0f2f 27bd 7a1b 7c3d
000002f0: e089 b5bd cba0 b83d dade 23bd f0bb 2b3e
00000300: 6638 823c 65a0 d4bd 9e93 8c3e d77b 8fbd
00000310: d9ed 163c d31d 3fbd c239 86ba 62fb e63c
00000320: 56f9 75bd 6b33 153d 0cb4 36bd d369 4e3c
00000330: 933c c3ba 12e9 673d 999d d8bc 63ac 393d
00000340: f420 183d c4ca 04bd 616a dd3c 0869 99bc
00000350: 6854 2b3d 7def 023d fa2a 313d 4434 2bbd
00000360: 9ec4 2e3c 3cbd 6dbd 12bb 9aba 4156 79bc
00000370: 6340 5a3d 8c4f 02bd fab4 64bd 37d8 c8bd
00000380: b8da 223d f91d 3a3d fef0 513c 0bb9 46bd
00000390: 0107 213b cccb 8f3d 56e6 94bd d086 993c
000003a0: d5f6 633d 677e 67bd 2c23 34bd 89d2 ffbb
000003b0: c83f c6bc 1089 67bd cee1 42bd dd7f 88bd
000003c0: 8214 383d d6cc 463d 4f02 a93c 1758 513d
000003d0: a4b9 a43a 80e0 57bc 461f 8abd adec 4fbd
000003e0: c246 b1bd 5988 18bd 0a1e 19bd a25b 8b3d
000003f0: 8e27 fe3c 54ba 15bd c919 903c f364 4a3d

layers.3.0.bias f4 [200]
-0.33808145 -0.11513878 0.01931582 -0.23079163 2.532926 1.5265504 -0.7625415 0.7058261
-0.62000954 -0.7420948 -0.40341482 0.37488234 4.332825 -0.4077427 0.103526734 -0.068912186
-0.16494596 -0.07059058 0.46708515 0.10743329 -0.36189535 -0.09079523 0.5225059 -0.0077316524
0.51436585 -0.34878153 -0.2662373 -0.9991655 -0.089823544 -0.0815246 -1.5653661 1.5640631
-0.09099196 0.14397386 -0.17997092 -1.8784082 -0.1115762 -0.14674918 0.0704731 -0.4366433
1.134268 0.7850342 -0.06659056 -0.9744026 -0.080354355 -0.12768295 -0.06988723 -0.114259414
-0.0960672 -0.3507227 -0.6742768 -0.27380142 4.3834457 0.0660296 0.20945092 -2.3455245
-0.02252311 -0.25396568 -0.5484785 -0.02965899 -0.3699623 0.004424194 -0.04508636 0.022054031
-0.06742023 -0.003838026 -0.51756716 -0.3068678 -0.16774479 -0.42174786 1.0129154 -1.3877282
-0.2239397 0.7226662 -1.1741123 -0.03654154 -0.7826404 -0.12353864 0.029987782 0.18884987
0.6559659 -0.016414994 -0.79940945 -0.053032253 -0.14577879 -1.4809594 -0.17847115 -0.30428252
-0.55470896 -0.03296282 -0.3321151 -0.15824193 0.085116744 0.0644317 -0.21372166 -1.17712
-0.42943105 -0.20235182 -3.2299118 -0.39076805 -0.00027221136 -0.39346474 -0.45793197 -0.5532095
-0.16139607 -0.13816424 -0.0018095553 -0.56708574 -0.50606203 -1.3200927 -2.119513 -0.71622646
-0.70949996 0.12912858 -0.091802634 0.6046235 2.8874276 0.1649357 -0.32373935 -0.0019781792
-0.2366956 -0.15049 0.025309997 -0.0354234 -1.5145017 0.206169 -1.7785693 -0.05103435
-0.015842972 0.028215416 -0.06927154 -1.0941395 -1.5355395 0.43371886 1.5876504 -0.01674121
0.022985224 -1.3682424 2.5872576 -0.029415077 -0.7225644 -1.0245177 -0.16827096 -0.16689475
0.078128375 -0.51775426 -0.35406032 -1.6738446 1.5958048 -0.24664521 -0.36468303 0.9281394
-0.09138397 0.09824787 -0.09302931 -0.7709761 -0.10316785 -1.6971827 0.022325208 -0.08691172
-0.003227505 -0.5754832 1.480624 -1.0072371 -0.27314377 -0.35701105 -0.40712357 0.1889358
-0.2093751 0.03603567 -0.036126617 -0.029321047 -0.2649087 -0.20908198 -0.35718352 -0.02813646
-1.7195663 -0.38033375 -0.33461902 -0.0950201 -0.2673599 -2.3484392 0.47978604 -0.3589639
-0.27701405 -0.11144186 -0.629255 -0.44725913 -0.31517932 -2.0396864 0.099326245 -0.10179411
-0.13939275 -2.681261 0.1849509 0.08888527 -2.1441088 -0.21869484 -0.5871093 0.028789626
00000000: 0319 adbe e1cd ebbd 363c 9e3c a454 6cbe
00000010: 761b 2240 0166 c33f eb35 43bf 05b1 343f
00000020: f2b8 1ebf edf9 3dbf 638c cebe 94f0 bf3e
00000030: 81a6 8a40 a7c3 d0be d305 d43d d521 8dbd
00000040: 98e7 28be cb91 90bd c925 ef3e fc05 dc3d
00000050: 594a b9be d9f2 b9bd f2c2 053f cd59 fdbb
00000060: 7bad 033f 7e93 b2be 4150 88be 4fc9 7fbf
00000070: 68f5 b7bd 5ff6 a6bd eb5d c8bf 3833 c83f
00000080: fe59 babd e26d 133e 4c4a 38be ae6f f0bf
00000090: 1082 e4bd 6b45 16be 3354 903d b68f dfbe
000000a0: b22f 913f 00f8 483f a260 88bd 7372 79bf
000000b0: d390 a4bd 52bf 02be 0921 8fbd d700 eabd
000000c0: e1be c4bd ed91 b3be 689d 2cbf b32f 8cbe
000000d0: 3045 8c40 873a 873d 4d7a 563e 131d 16c0
000000e0: 6382 b8bc ca07 82be 1669 0cbf 69f7 f2bc
000000f0: b36b bdbe d4f8 903b 7aac 38bd a8aa b43c
00000100: 9e13 8abd 6487 7bbb 487f 04bf c71d 9dbe
00000110: 4ac5 2bbe 56ef d7be 36a7 813f 14a1 b1bf
00000120: 7350 65be a700 393f 5049 96bf 95ac 15bd
00000130: 1f5b 48bf d401 fdbd f0a8 f53c dc61 413e
00000140: 62ed 273f bd78 86bc 19a6 4cbf 5938 59bd
00000150: 0947 15be 1490 bdbf 24c1 36be ebca 9bbe
00000160: 6801 0ebf 0604 07bd fe0a aabe 2c0a 22be
00000170: b051 ae3d c4f4 833d dad9 5abe deab 96bf
00000180: 63de dbbe 5135 4fbe e0b6 4ec0 c012 c8be
00000190: 97b7 8eb9 3674 c9be 0f76 eabe 239f 0dbf
000001a0: 0345 25be ed7a 0dbe 9a2e edba 882c 11bf
000001b0: 488d 01bf ccf8 a8bf 1aa6 07c0 9e5a 37bf
000001c0: caa1 35bf 483a 043e 0503 bcbd 9bc8 1a3f
000001d0: 9dcb 3840 e7e4 283e 2ac1 a5be 57a4 01bb
000001e0: 5560 72be 0d1a 1abe e956 cf3c 2118 11bd
000001f0: 31db c1bf f71d 533e 29a8 e3bf 6509 51bd
00000200: 1fc9 81bc 0424 e73c 3dde 8dbd c30c 8cbf
00000210: 8f8c c4bf 6610 de3e 2138 cb3f dd24 89bc
00000220: 824b bc3c 9122 afbf a195 2540 e3f7 f0bc
00000230: fbf9 38bf 6523 83bf 394f 2cbe 75e6 2abe
00000240: c501 a03d 8b8b 04bf 6547 b5be 8a40 d6bf
00000250: 5543 cc3f 9090 7cbe bcb7 babe 8b9a 6d3f
00000260: 8527 bbbd 2e36 c93d 2786 bebd b15e 45bf
00000270: aa49 d3bd 483d d9bf 5be3 b63c c6fe b1bd
00000280: 8c84 53bb de52 13bf 1685 bd3f 25ed 80bf
00000290: 80d9 8bbe 27ca b6be 8072 d0be 6378 413e
000002a0: 6d66 56be 249a 133d 81f9 13bd b132 f0bc
000002b0: 1da2 87be 9619 56be c2e0 b6be 6f7e e6bc
000002c0: c01a dcbf 1bbb c2be 2f53 abbe e699 c2bd
000002d0: 66e3 88be d44c 16c0 84a6 f53e 1eca b7be
000002e0: c9d4 8dbe a13b e4bd db16 21bf 26ff e4be
000002f0: 2f5f a1be 398a 02c0 8f6b cb3d 6e79 d0bd
00000300: f9bc 0ebe c899 2bc0 c563 3d3e 7b09 b63d
00000310: 1439 09c0 8af1 5fbe cc4c 16bf 39d8 eb3c

layers.4.weight f4 [1, 200]
-0.013352894 0.015416012 0.037809707 -0.011835984 -0.021565262 -0.006253614 0.005125684 0.00046366418
-0.0007660186 -0.122797325 -0.0006316247 -0.020502726 -0.023752095 0.0028516734 -0.009227076 -0.014043041
-0.0046179206 0.0022642522 0.0016764262 0.0024982218 -0.0065734982 -0.0065293983 -0.009184603 -0.0111085065
-0.00471658 -0.008947055 -0.0042843684 0.0028638504 0.0027157974 -0.0028075469 0.010543638 -0.005790833
0.030480191 0.022556826 -0.0040099206 0.007172169 0.0016293034 -0.0019474913 0.0003025467 -0.004016929
-0.010118513 -0.0046092956 -0.0015423666 -0.004676022 -0.0022988664 0.003944359 0.002634601 -0.0026581637
0.017459694 -0.07727813 0.0042133913 0.022018585 -0.01655298 -0.001998466 0.00700176 0.008301857
0.0024023526 0.055023644 -0.019195555 0.009001103 -0.0056656175 0.040239964 0.04884745 0.0056104986
-0.055518277 0.02899488 -0.01629937 -0.017799987 0.0018340105 -0.02175294 -0.0067270566 -0.0040397267
-0.053398326 -0.0031687305 0.0019137126 -0.0023993936 0.002883654 -0.0014256017 0.039595522 -0.005694071
-0.006617433 0.035001148 0.018589567 -0.00013529723 0.0047928207 -0.009513478 -0.0018290591 -0.022725793
-0.00556417 0.016292306 0.0064914506 0.0034353784 0.0051847626 0.0043464582 0.01074514 -0.004826537
-0.0038269402 0.03439279 0.018086184 0.048932664 0.031210225 -0.0062446105 0.010990163 -0.010299118
-0.005885309 -0.0105710225 0.0014237358 0.02595641 -0.12878048 0.0066308803 0.009617547 -0.06292573
0.0012339731 -0.018505916 -0.03755117 -0.032226164 -0.007549045 0.0185775 -0.0064219707 -0.0133983325
-0.0010809968 -0.01741361 0.0010515024 0.01852728 -0.010289351 0.041544862 -0.0033598165 0.005026011
0.010316186 0.00069351716 0.042842384 0.015467437 0.008179334 0.078250304 -0.0064362762 0.0078305425
0.0040059537 0.0067670206 -0.008763395 -0.002945293 -0.06603417 -0.015338186 -0.0012347117 0.00704665
0.0048164483 -0.014426063 0.021050135 -0.002286904 0.022141328 0.004445118 -0.0055795982 0.0029648344
0.007266032 -0.0062156357 0.006212421 0.0027431287 -0.0049786624 -0.010427385 -0.0119623635 -0.0012252677
0.0048689847 0.0013963066 -0.01123322 -0.008436911 -0.0041623325 -0.00068956363 -0.005785689 0.014877124
0.00217747 -0.0019155339 -0.0025306554 0.018901492 -0.017092574 -0.0010188199 -0.012149114 0.013849403
-0.0018805584 0.0026370904 0.20104617 0.004276778 -0.008679363 0.01567043 -0.005227023 -0.009279451
-0.013482578 0.011722654 -0.01573827 -0.009813968 -0.014220266 0.004747391 0.01707867 0.035589945
0.0017076889 -0.0112072285 0.011796202 -0.002511238 0.005652487 0.000688857 -0.00541292 0.033963982
00000000: 19c6 5abc 7193 7c3c 5ade 1a3d b7eb 41bc
00000010: a2a9 b0bc 1eeb ccbb 5bf5 a73b f417 f339
00000020: a3ce 48ba 2a7d fbbd 9e93 25ba 55f5 a7bc
00000030: c193 c2bc 24e3 3a3b 292d 17bc c814 66bc
00000040: ed51 97bb d963 143b 87bb db3a 35b9 233b
00000050: 8066 d7bb 90f4 d5bb 047b 16bc 7400 36bc
00000060: 8a8d 9abb ab96 12bc e363 8cbb 70af 3b3b
00000070: 85fb 313b d2fe 37bb 39bf 2c3c 07c1 bdbb
00000080: 98b1 f93c 18c9 b83c a765 83bb 8404 eb3b
00000090: 5a8e d53a f742 ffba 219f 9e39 71a0 83bb
000000a0: 1fc8 25bc 9309 97bb 3c29 caba 5139 99bb
000000b0: 94a8 16bb ae3f 813b 45a9 2c3b 9634 2ebb
000000c0: a207 8f3c ff43 9ebd 7d10 8a3b 5260 b43c
000000d0: 1d9a 87bc b2f8 02bb 056f e53b 8304 083c
000000e0: ca70 1d3b 7960 613d ff3f 9dbc 5d79 133c
000000f0: a5a6 b9bb a9d2 243d 4414 483d 46d8 b73b
00000100: 2267 63bd ac86 ed3c 4286 85bc 47d1 91bc
00000110: 2e63 f03a 3933 b2bc a46e dcbb af5f 84bb
00000120: 34b8 5abd 7aaa 4fbb 8ad5 fa3a 253f 1dbb
00000130: b0fb 3c3b 41db baba ea2e 223d 5495 babb
00000140: 0dd7 d8bb 5d5d 0f3d 2649 983c 93de 0db9
00000150: 180d 9d3b 6bde 1bbc 0abd efba 712b babc
00000160: a453 b6bb 7177 853c 3cb6 d43b 1624 613b
00000170: f1e4 a93b bc6c 8e3b 620c 303c ed27 9ebb
00000180: 67cd 7abb 74df 0c3d 7a29 943c 9e6d 483d
00000190: 96ac ff3c 979f ccbb 1610 343c a2bd 28bc
000001a0: 8dd9 c0bb 1532 2dbc a59c ba3a 8aa2 d43c
000001b0: 08df 03be db47 d93b ea92 1d3c 35df 80bd
000001c0: 44bd a13a b899 97bc 41cf 19bd 95ff 03bd
000001d0: fb5d f7bb d72f 983c 656f d2bb ae84 5bbc
000001e0: 3cb0 8dba fda6 8ebc 91d2 893a 86c6 973c
000001f0: ab94 28bc f22a 2a3d 5e30 5cbb 3cb1 a43b
00000200: 3805 293c 26cd 353a 7f7b 2f3d 226b 7d3c
00000210: 9d02 063c b241 a03d 66e7 d2bb ad4b 003c
00000220: 6044 833b e2bd dd3b 5894 0fbc d105 41bb
00000230: ec3c 87bd 044d 7bbc 0dd6 a1ba 96e7 e63b
00000240: 4cd3 9d3b 4b5b 6cbc 5571 ac3c e2df 15bb
00000250: bb61 b53c 5aa8 913b 10d5 b6bb ab4d 423b
00000260: e517 ee3b 88ac cbbb 9191 cb3b 10c6 333b
00000270: 0c24 a3bb 9fd7 2abc cafd 43bc 2999 a0ba
00000280: 018c 9f3b 4604 b73a 8a0b 38bc f83a 0abc
00000290: 2d64 88bb d5c3 34ba e195 bdbb 2ebf 733c
000002a0: e2b3 0e3b a712 fbba 5ad9 25bb 4dd7 9a3c
000002b0: ba05 8cbc ec89 85ba 140d 47bc 9be8 623c
000002c0: 127d f6ba 09d3 2c3b 0cdf 4d3e 3724 8c3b
000002d0: e333 0ebc 465f 803c 7247 abbb d708 18bc
000002e0: 08e6 5cbc 6010 403c 8bed 80bc c4ca 20bc
000002f0: 1efc 68bc 0190 9b3b 91e8 8b3c c3c6 113d
00000300: 88d4 df3a 869e 37bc db44 413c 9593 24bb
00000310: 7f38 b93b 6994 343a dd5e b1bb d11d 0b3d
