LPSDA/exp_heat/2/deltamodel.pt (torch, 546018 bytes, 36 tensors)

fc1.weight f4 [256, 3]
00000000: 3b88 043e 6125 0ebe 6d65 223e 86fc eabc
00000010: e66c 7c3e c452 0b3e 424d 86bd aff7 eebe
00000020: b32f 083e 65f0 02bf a6a3 993d 4780 193d
00000030: a261 01be 3e46 f13e 076c 293d 7fe8 753e
00000040: a422 7c3e dcba afbe 27e8 65be 5541 0e3f
00000050: 6026 11bf 4070 19bd 783a 3dbd 7ff9 d23e
00000060: c30c 5abd 35dc 1c3e af67 efbc 0f45 a4be
00000070: 814e a8be b01a 8fbe 816a 06bf 1449 bfbe
00000080: 5cff 093e d19a c23e 4e0d ef3c 3861 88be
00000090: 13a1 833e ab4a 61be 957d 01be e5a3 a0be
000000a0: bedb 3abe b6b9 08bf e2a1 793e a605 633e
000000b0: 6f16 e63d dd1b 923e f2c2 783e 065f d13c
000000c0: b38e 823d a601 383d 04b5 9d3e 360f c73e
000000d0: 8eaa d43e a7c3 ac3e 1a79 11be 6328 cbbc
000000e0: fb36 eabd 8693 ad3e 3413 853d 6b28 0a3f
000000f0: 69dc 963e 6b61 fcbe 655f 2d3e 40d5 0e3f
00000100: 2780 033f 2de5 2bbc 71e0 443e b574 0abf
00000110: 159e 40be 5a9d 913e e4d5 06bf 980e 013f
00000120: 733f c2be 0b45 393e a90d b5bc c35e d23d
00000130: d87c 633d 79b8 0abf 2bc7 ffbd 8220 bbbe
00000140: 1e56 fa3e 202b 93bd 3d7a 13bf bc6c 0d3e
00000150: 1956 803e 1ba1 84be a264 63bd dc04 7f3e
00000160: 3973 b8be 9a90 9bbe ae6b 71bd 60ff cebe
00000170: 4d00 b53e 3c0c 503d 70d2 b03e ae3e 9f3e
00000180: 30a6 e4be 0ee0 b7be 0fdd c9be 1694 39be
00000190: 5559 56be ecca c2bd ec22 0fbf 2d1c 7a3e
000001a0: 20c8 a73e 29d7 3d3e 4aa0 bb3e 1698 de3e
000001b0: 081f 12bf f734 b43d 3bf3 083f 393e d6be
000001c0: 0130 83be 2a39 00bd 3ab1 b7be 3ccb dfbd
000001d0: 4d83 b4bd 6418 053f 1991 0ebd db47 a13e
000001e0: 4cf1 d83e de85 843e 3933 01bf 98a1 dd3e
000001f0: fc11 c33e 63d9 d3be 5e99 50be 223d ca3e
00000200: 03fd 0fbf 6664 01bf 3990 c9be 6d88 373e
00000210: 0a6c 73be 3fbe 03bf 640b 633e a895 953e
00000220: b456 5e3e c22d febe e5f3 0f3f 70bb 36bd
00000230: 7b6f 0cbf e832 b5bd d00d c03e defb 873e
00000240: c785 b4bb 878c d03e e6b4 06bf b714 cd3e
00000250: 98dd 123f d3b2 b2be eeda f53d a75b bfbd
00000260: 80fb f8be 5d65 dcbb 9353 46be d5bd fbbe
00000270: f84c d7be d22b 503c 48cb 083f 9572 543e
00000280: c4ff c4be 4d1c cb3e 67f2 4b3d 7b3c 10bf
00000290: bd46 023d 3b36 bf3e 7429 aebe 30b0 fbbc
000002a0: d532 93be 1a31 e9be e527 a9be fcdd 6a3d
000002b0: 9500 bf3e 4b9f d4bd 5b8e 05bf 4d79 a5bb
000002c0: 9747 00bf 0e6c 063d aebc da3e f2c4 7c3e
000002d0: 8e01 b6be cc70 04be d371 6a3e c22c 213e
000002e0: cccc 0abf f150 acbe 85ef 51be 9c36 583e
000002f0: 3c1d 043f 9e88 843e 98c4 5f3e 7508 fbbe
00000300: bed4 be3e 8678 543e 0b1b 3abe 169e 8ebe
00000310: beac 283e 6386 a1be 4978 6f3e df30 e23e
00000320: 263b c4be d60f b9be e061 76be ba89 fdbe
00000330: 992d 88bd 3f71 b73e e9c9 5e3e a288 3cbe
00000340: 8703 95bd c9b5 82be a688 eebe 15dc 22be
00000350: 5f6a 213d 0819 95be b9c3 dcbe 7eaf 2d3e
00000360: b33c b33d d602 37be e94f 223e 9b83 093f
00000370: 98c1 053d 0f01 ccbe 4bb1 083f 89c9 d43e
00000380: 03b7 5cbd ff36 85be 098e 78be 4683 013f
00000390: 670f 9a3e 2b86 97be e702 c83c 8e94 ef3d
000003a0: f5f9 1c3e db49 18bd ebb4 9cbe b8f6 8ebc
000003b0: 2211 24be 4746 48be e12c 92be d82a 90be
000003c0: f802 8bbe 5713 683e 8020 fabe e4d8 0cbf
000003d0: 3368 fc3e 5e5a 553e 30c9 a43e 7542 813e
000003e0: 9f97 5fbe b996 babe 4a3b cabe 6a1e 0abd
000003f0: 0ed1 133e c14b 0abf 5f7a e2be 90e5 a63e
0.12942593 -0.13881446 0.15859003 -0.028684866 0.24650916 0.13605791 -0.065577045 -0.46673343
0.13299446 -0.5114806 0.075019166 0.03747585 -0.126349 0.47123903 0.04136279 0.24014471
0.2462259 -0.3432225 -0.2245184 0.5556844 -0.5669918 -0.037460566 -0.04619834 0.41205975
-0.053234827 0.15318377 -0.029224245 -0.32083938 -0.32872394 -0.27950048 -0.5250626 -0.37360442
0.13476318 0.3800874 0.029181149 -0.26636672 0.25708827 -0.2200114 -0.12645562 -0.31375042
-0.18247887 -0.5340837 0.2437816 0.22170123 0.112347476 0.28536883 0.24293116 0.025558006
0.06374874 0.044923447 0.30802166 0.38878793 0.41536373 0.3374302 -0.14206353 -0.024799531
-0.11436268 0.33901614 0.06497803 0.5396792 0.29465035 -0.49293074 0.16930921 0.55794144
0.5136742 -0.0104916515 0.19226243 -0.5408433 -0.18810304 0.28440362 -0.5267012 0.50412893
-0.37939033 0.18092744 -0.02210124 0.102719806 0.055538982 -0.5418773 -0.1248916 -0.3654824
0.48893827 -0.0718596 -0.57608396 0.1381101 0.25065687 -0.25904164 -0.055515893 0.24904197
-0.36025408 -0.3038376 -0.058940582 -0.4042921 0.35351792 0.050792918 0.3453555 0.31102508
-0.4465804 -0.35913128 -0.39426467 -0.18122897 -0.20932515 -0.095113605 -0.5591266 0.2442481
0.3276987 0.18539108 0.36645728 0.43475407 -0.570786 0.08799165 0.5349614 -0.41844347
-0.25622562 -0.031304516 -0.358774 -0.10927436 -0.08814106 0.5199034 -0.034806345 0.31500134
0.42371595 0.25883383 -0.50468785 0.4328735 0.38099658 -0.4137679 -0.20371005 0.39499766
-0.5624544 -0.5054382 -0.39367846 0.17923136 -0.23771682 -0.5146217 0.22172314 0.2921574
0.21712762 -0.49644285 0.5623153 -0.044612348 -0.54857606 -0.088476 0.37510538 0.26559347
-0.0055091116 0.40732214 -0.5261978 0.40054867 0.57369375 -0.34902057 0.12004648 -0.09343653
-0.4862938 -0.0067259506 -0.19367819 -0.49168268 -0.4205091 0.01270576 0.5343518 0.20746835
-0.38476384 0.3967003 0.04979172 -0.56342286 0.031805743 0.37346062 -0.34016 -0.030723661
-0.2874972 -0.45545274 -0.3303825 0.057340607 0.37305132 -0.10381945 -0.5217034 -0.0050498606
-0.5010924 0.032817893 0.42722076 0.24684504 -0.3554806 -0.12933654 0.22894983 0.1573973
-0.54218745 -0.33655503 -0.20501526 0.21114582 0.5160711 0.2588548 0.21852338 -0.4902989
0.37271684 0.20749101 -0.18174379 -0.27854985 0.16472146 -0.3154784 0.23385729 0.4417791
-0.38326377 -0.36144894 -0.24060774 -0.4951914 -0.06649322 0.35828587 0.2175671 -0.18411496
-0.072760634 -0.25529316 -0.4658863 -0.15904267 0.039408084 -0.2912066 -0.43118075 0.16961476
0.08751812 -0.17872176 0.15850796 0.5371644 0.03265533 -0.39844558 0.5339553 0.4156001
-0.05388547 -0.2601852 -0.24272932 0.5059093 0.30089876 -0.2959455 0.024415446 0.116982564
0.15329726 -0.03717981 -0.3060678 -0.017451629 -0.1602216 -0.19558059 -0.28549865 -0.28157687
-0.27150702 0.22663628 -0.4885292 -0.5501845 0.49298248 0.20835254 0.32184744 0.25246015
-0.21835183 -0.36443117 -0.3949836 -0.03372041 0.14435217 -0.5402184 -0.44233987 0.32597017

fc1.bias f4 [256]
00000000: 626f e33d 41ec 553e 4c8a b13c 8311 433e
00000010: 362e 853e b542 05bf 8f8f a43e f950 543e
00000020: 8b41 8fbe 11f0 e93e d3a5 033e 3afd cebe
00000030: e8fd 073f 123d 7b3e b90b c53e b7f6 c63d
00000040: d7d2 273e b3da dd3d e8af 053f dd1b 023f
00000050: 457e 513e 41b8 a33b e12a cabe 4225 a03e
00000060: fcde 99be d432 353d ecf3 b13e 3c9d 5fbe
00000070: eb43 42bd a585 c8be 80a3 34be af52 edbe
00000080: 859b f5bd 805d 053f 77a4 f1be 6e12 9abe
00000090: af85 ebbe c048 79be 2ed2 b93e 2cfc b63e
000000a0: cd0e 123f 37d4 5e3e b4f4 ff3e f833 89be
000000b0: b6a1 86be f456 06bf c441 13bf b6ab 023e
000000c0: 6c23 d8bd d5c8 dabe f94b bebd b81d 05bf
000000d0: 75cd a23e bc89 c03e a211 85bd 7363 adbc
000000e0: d7f4 2d3d ac5a 6b3d 770b f53c 0c78 84be
000000f0: 80a1 0ebe ba0b 673e f482 9cbd 4f31 8c3e
00000100: fccb 3ebe 2867 083f da76 c83e 7456 bfbe
00000110: 43ca 00bf 27d1 8b3e 3db5 f8be 1050 103f
00000120: 0218 04bf 3ea9 ae3e 5aaf dabc 0b4f 113e
00000130: d49f f63e df9e f93e 702e 11be db25 85be
00000140: a29a 223e 666a 35bd 2ed6 e9be dc4a 12bf
00000150: 2fa5 cdbe aa98 d53e 4da1 b73c ad2d 853d
00000160: dc09 a2be 58d1 89be 3e97 2b3e 2f2d e63e
00000170: 3d3d 9bbe 3dc1 c2be 2a78 103e 95ac a5bb
00000180: a8c9 33be a303 12bf 41d2 033f da9d 23be
00000190: 335c 643e 0750 f0be 1d0c f2be d78f c93e
000001a0: 45ad e3be ad57 893c d3ad c83d a1aa be3d
000001b0: c5cd e8be 723b a83e dc82 45bd 7219 4c3e
000001c0: bedb df3e 263d d7be bb8f 823d fb12 6a3e
000001d0: d4f6 5ebe 236f c03e a05a f23e afe0 a0be
000001e0: a0bd d8bd 7597 543e 2351 9abe f981 14bf
000001f0: 2013 0f3f 7ec6 96bd c816 d23e a854 823e
00000200: f39e 54bd 9f3d afbe dea7 1f3e 5c20 99be
00000210: 763c 383e cd78 f6be 3c04 a3bd 7bc4 37be
00000220: 83f2 d9be c344 f5be 0857 62be 574f 42be
00000230: 9258 8d3e 827c 8e3e 9b51 afbe cf60 53be
00000240: c715 f83e 71b4 f2be d32b 0abe cdb2 563e
00000250: 44ef 08bf 2f90 0bbf 1fde 8e3e 7a39 92be
00000260: cd51 fa3e 32bf c63e 3cec f03e 08c8 d5be
00000270: 545a 53be 6bc1 a23e 6581 eebe dbfd f53c
00000280: 41c9 d13e 0c8e 243e 128d 913e e925 86be
00000290: 5341 103d 4a51 c5be 9c51 413e c338 fbbb
000002a0: af4f c03e 6437 13be 41a5 a1be ff43 f73e
000002b0: ad55 ee3e da21 943e 7b95 bebe 8e09 abbe
000002c0: 0d77 f9bd 07b6 f5be 95ad 2a3e 6b3f ca3e
000002d0: ca0f f63e 0dcd 43be 6568 d4be c731 febe
000002e0: 96c5 72bb 2e2c 053f c96a dfbd 1bc7 f43e
000002f0: 5a52 cabd f505 dbbe 4f51 053e cf40 52be
00000300: de34 6ebe 27fd 123f 4c0a babe 05e9 04bf
00000310: 2744 093f 3a93 2bbd 5b8f b1bd 9c53 8abe
00000320: 8541 85be 69f5 bbbe f9c7 8cbc 114d 6cbe
00000330: 31e6 133f 5a86 8ebd 83b4 0b3e e74f b0be
00000340: d44a cb3c fb59 07be f556 9f3a 9c2c a0be
00000350: daa1 17be 22aa cabb ee2f ae3e fedc d7bd
00000360: aeed d13e 4f05 053f fd38 e9be c77f 89bb
00000370: 9fc5 46be d917 e93e cc9c 9abe 466f ce3d
00000380: 2652 fcbe 3a80 0cbf 6d33 e93e 24df 10bf
00000390: 8f30 003e b0b3 303e 1ffc 833c 14ab b5be
000003a0: 1361 96be be19 e5be 3357 b5be 1c11 0dbe
000003b0: 7df0 c13e 3a39 67be a200 b13c b1b9 2ebe
000003c0: 79b0 723d 2156 0c3f 8eac 9e3c 554c c5be
000003d0: 255d fdbe af48 88be 6b42 013f c3b3 86be
000003e0: 4319 0ebf 866e c8bd 27c7 0b3d 0581 0c3f
000003f0: 9a46 eb3d fd23 633d 07ac f3be 2ede 38be
0.11105229 0.20890905 0.02167239 0.19049649 0.2601182 -0.5205491 0.32140777 0.20734014
-0.27979693 0.4569097 0.12856226 -0.40427572 0.53121805 0.24535015 0.38485506 0.09715026
0.16389023 0.10832729 0.52221537 0.50823766 0.20458324 0.00499633 -0.3948584 0.31278425
-0.30052936 0.044237927 0.3475641 -0.21837324 -0.047428053 -0.39164463 -0.17640495 -0.46352145
-0.119925536 0.52095795 -0.4719579 -0.30092186 -0.4600043 -0.24344158 0.36293167 0.35739267
0.57053834 0.21760641 0.4999138 -0.26797462 -0.2629525 -0.5247643 -0.57522225 0.12760815
-0.10553631 -0.42731348 -0.092918344 -0.5199847 0.31797376 0.37605083 -0.06497504 -0.021165585
0.042469826 0.05745952 0.029912693 -0.25872838 -0.13928795 0.22563067 -0.07642165 0.2738137
-0.18632501 0.53282404 0.39153177 -0.37370646 -0.50308627 0.27308008 -0.48575774 0.56372166
-0.51599133 0.34113497 -0.026694942 0.14190309 0.48168814 0.48754022 -0.14177871 -0.26005444
0.158793 -0.044290923 -0.4567122 -0.57145476 -0.40165088 0.41718036 0.022415781 0.065028526
-0.31648147 -0.2691753 0.16756913 0.44956347 -0.3032016 -0.38038054 0.14108339 -0.005055974
-0.17557395 -0.570368 0.51492697 -0.15978184 0.22300796 -0.46936056 -0.47274867 0.39367554
-0.44468132 0.01676544 0.09798779 0.09309889 -0.4546949 0.32857853 -0.0482205 0.19931582
0.43722337 -0.4203884 0.06375071 0.22858803 -0.21773845 0.3758479 0.47334766 -0.3142142
-0.10583043 0.20760901 -0.30140027 -0.5801082 0.5588856 -0.07362078 0.41033006 0.25455213
-0.0519094 -0.342267 0.1559138 -0.299075 0.17991814 -0.4813904 -0.07959792 -0.17946045
-0.42567834 -0.47904024 -0.22103512 -0.18975578 0.27606636 0.27829367 -0.34241948 -0.20642398
0.48454115 -0.4740329 -0.1349328 0.20966645 -0.5349009 -0.5451688 0.2790384 -0.28559476
0.48890534 0.38817745 0.47055233 -0.41754174 -0.20639926 0.3178819 -0.46583095 0.030028274
0.40973857 0.16069812 0.2842794 -0.26200798 0.035218548 -0.3853858 0.18878788 -0.0076666786
0.37560794 -0.14376599 -0.3157139 0.48294064 0.4654974 0.28932077 -0.3722342 -0.33405727
-0.1218091 -0.47990438 0.16667779 0.3950151 0.4805892 -0.1912119 -0.41485897 -0.49647352
-0.003704404 0.5202054 -0.109090395 0.47808155 -0.098789886 -0.42777982 0.13019298 -0.20532535
-0.23262355 0.5741753 -0.3633598 -0.5191806 0.5361962 -0.041888453 -0.08669921 -0.27016914
-0.2602655 -0.3671067 -0.017185198 -0.23076274 0.5777312 -0.06959219 0.13643079 -0.3443596
0.024815954 -0.13217919 0.0012156653 -0.31284034 -0.14807835 -0.006184832 0.34020942 -0.10540198
0.41001648 0.51961225 -0.4555129 -0.0041961404 -0.19411324 0.45526007 -0.30197752 0.100798175
-0.49281424 -0.5488316 0.45547047 -0.56590486 0.12518524 0.17256045 0.016111432 -0.35482085
-0.29370937 -0.44746202 -0.3541809 -0.13776058 0.3787879 -0.22580424 0.021606747 -0.17063023
0.05925033 0.5481892 0.01936939 -0.385348 -0.49485126 -0.26617953 0.5049197 -0.26309022
-0.55507296 -0.09786706 0.034125473 0.5488437 0.114880756 0.055454243 -0.47592184 -0.18053505

fc2.weight f4 [256, 256]
00000000: a9ef f0bb 7111 ecba d8e2 983c e024 f63c
00000010: a331 b03a 8c61 003c ffcd 473c 8a33 6a3d
00000020: 6ca5 9dbb 00e3 4c3d 27ed 69bd 4c6f bb3c
00000030: 3823 d1bc 763a 4ebd 6e3f 3a3c be0d dc3c
00000040: 1702 ffbc 196d dfbc 689c c83c 77f7 e23c
00000050: 78e1 3fbd 268a 0ab9 8e6e b8bb 9eb5 443d
00000060: 15d0 2e3d 0093 0dbd a239 82bc 8511 90bb
00000070: eece 7ebd f994 333b 9664 4c3d 2e9a 6e3d
00000080: beff 3b3c aa40 ad3c 6cf2 0f3c 1688 a53c
00000090: 5a31 643c 80d5 1a3d e2d0 2d3d 79bc cd3c
000000a0: 7412 81bd 53a5 70bd 6aef 4c3c 81ed 10bd
000000b0: 495a bcbc 39ca 03bd 9ae6 16bc 159a 5f3d
000000c0: 5b2d 93bc 84ae a23b a282 16bd 12ec 57bd
000000d0: fa5e 17bd 16ca 4abd 778a 34bd 8069 14bc
000000e0: 31e0 f53c 714c 4d3c be50 573d 51d2 5e3d
000000f0: b500 1b3d 389a 9d3c 66df fabc cc5f 323d
00000100: e1f3 c83c bbca 76bd 48d4 333d c971 4abd
00000110: ecc0 033d b2e8 523d d5a7 e43c 318a 5fbd
00000120: c074 933c ae8b 173c bbbb 693c 1f58 dcba
00000130: 8074 65bd 15d5 f4bc ee61 2dbc fa41 2e3c
00000140: 9f51 763d 467b 7ebc 4266 abbc b7ce 833c
00000150: 3907 5cbd 47b9 023d ece1 06bd 5891 2fbd
00000160: 5d42 5fbd 6d84 573d 09b2 6b3d b482 e63c
00000170: 7300 73bc 4af5 513d a000 12bc ef52 c3bc
00000180: e375 89bc bfc5 6d3d ccdb 48bd 9a45 74bd
00000190: 7f17 e83c 0126 513d 2b75 57bd 535c 2dbd
000001a0: 76f7 edbb 8080 a43c 3ca1 253d e18b fdbc
000001b0: 24a1 f4bc e432 5f3c 0ce1 423d 2a65 4bbb
000001c0: 3a4b 2cbc a6df 76bc 7839 713d a430 30bd
000001d0: d7d6 4abd 7e0c 623d a9e0 c63b 9fb5 01bd
000001e0: 5f00 78bd 0e7c 12bc 8979 963b 94d7 8abb
000001f0: b0e3 a33b 6987 293d b352 7e3d 5b8d 4d3c
00000200: 39f5 cdbc fffc 77bc e08c 51bd d22c cebb
00000210: f088 303d 979a 133d ed15 45bd 43f3 453d
00000220: aebf 23bc 18de 63bc 85f8 413d 3187 b53c
00000230: 18d4 f5bc 95aa 74bd 8dbe 3cbd e404 593d
00000240: 8f56 0fbd 292c fd3c a93b aebc 58d1 433d
00000250: 08ab 3f3d 910f e13c 26dc c9bc aac8 f43c
00000260: b16d 113d 797b e4bc abb6 88bc 0aa9 243d
00000270: 7964 753d d8ce 0ebd 8973 a03c cc4f 1e3d
00000280: 6a3f 463d ab1b 3e3c e5c0 563d f8e2 5fbd
00000290: c8bc 6ebd b61e 0e3c c8a9 c0bb 6b73 e83c
000002a0: 4e9d 553c eb9f ba3b 6b72 10bd ebb6 fcbb
000002b0: afc5 c13b 13e6 583c 8b91 bdbc c77a 193d
000002c0: b071 99bc cd8a 783d db94 873b a0d5 5b3d
000002d0: dc22 a43b c8d0 43bd 7954 b13b b368 253d
000002e0: dcee fa3c e46b 303d ea13 09bc fe2d 453c
000002f0: 245a 453b 28d4 b4bc 9281 a1bc c45d 7d3d
00000300: 0ee1 06bd b1cc 1abc 6bae 6d3d 1602 08bd
00000310: 9d32 5abd e681 5bbd 24fe 6b3d 4101 e0bc
00000320: f830 3b3d 1e7c 7ebc 8902 2c3c e4e3 d9bb
00000330: b67f 6bbd 7511 5cbd 4fa7 43bd 495b c43c
00000340: 726b 4dbd 5935 523d f4fa 36bd 8c2b be3c
00000350: 25df e43a e691 4d3d 5c16 22bd 80bb 073d
00000360: 16f9 5d3c 4d76 08bd b531 533c 5314 053d
00000370: c329 203c 6c49 39bd 86e0 653d b622 02ba
00000380: 363b c4bc 0365 723d 5623 c93c 9456 bfbc
00000390: 62df 42bd 194b 6a3d 418d 023d 8354 e3bc
000003a0: c884 6f3c fb0a 233d 33cf 303c a24e 233c
000003b0: 9d57 49bd 2ba8 74bd aa54 a7bb 660f 3bbd
000003c0: da6f 6fbd 802a 06bb 46a8 f0bc 2f49 1c3d
000003d0: e8b1 4ebd f57a eabc 743d 33bd 6a06 5e3b
000003e0: 09df 073d 7d1f 1e3d 4a07 9c3c a102 78bd
000003f0: 5d3b 0fbd 6c11 a9bc 1adc 603b 1f86 8cbc
-0.0073527885 -0.0018010569 0.018662855 0.03004688 0.0013442527 0.007835757 0.012195109 0.057178058
-0.0048109796 0.05002117 -0.05711093 0.022880219 -0.025529489 -0.05034872 0.011367662 0.026862022
-0.031128926 -0.027273702 0.024488643 0.027705891 -0.046845883 -0.0001321217 -0.0056284135 0.048024766
0.04267891 -0.03456402 -0.015896622 -0.0043966197 -0.062209062 0.0027402027 0.049900614 0.058252506
0.011474548 0.021148998 0.008785825 0.020206492 0.013927782 0.037801266 0.042435534 0.025114285
-0.06302348 -0.058751415 0.012508253 -0.03538275 -0.02299227 -0.032175276 -0.009210253 0.054590303
-0.017965963 0.0049646515 -0.036745675 -0.05271537 -0.03695581 -0.04950913 -0.044077363 -0.009058356
0.03001413 0.012530432 0.052567236 0.054399792 0.03784247 0.019238576 -0.030624103 0.04354839
0.024530353 -0.060251933 0.04390362 -0.04942492 0.032166407 0.051491447 0.02791206 -0.05457515
0.018000007 0.009249611 0.01426595 -0.001681093 -0.056019306 -0.029886762 -0.01058243 0.010635847
0.060136434 -0.01553232 -0.020922784 0.01608978 -0.053717826 0.031914975 -0.0329303 -0.04286322
-0.05450665 0.052616525 0.057542834 0.028138496 -0.01483165 0.051259317 -0.008911282 -0.023843257
-0.016779846 0.058049913 -0.04903774 -0.05963669 0.028331516 0.051061634 -0.052601974 -0.042324375
-0.0072621657 0.020080805 0.04043697 -0.030950489 -0.029861994 0.013622973 0.047577903 -0.003103564
-0.010515982 -0.01506797 0.058892697 -0.043015137 -0.049521293 0.055187695 0.006069262 -0.031667348
-0.06054723 -0.00894071 0.004592125 -0.0042371247 0.0050015077 0.041388903 0.062090587 0.012545909
-0.025141345 -0.015136003 -0.05115974 -0.006291964 0.043099344 0.0360361 -0.048116613 0.048327696
-0.0099944305 -0.013907932 0.047356147 0.02215919 -0.03000836 -0.059732992 -0.04608016 0.05298318
-0.034994658 0.030904846 -0.021268683 0.047807068 0.046793967 0.027473243 -0.024641108 0.02988084
0.035505 -0.027890908 -0.016688665 0.04020027 0.05991027 -0.03486523 0.019586341 0.03865032
0.04840032 0.011603276 0.052430052 -0.054659814 -0.058285505 0.008674314 -0.0058796145 0.028375348
0.013037993 0.0056953332 -0.035265367 -0.007712235 0.0059134583 0.013238448 -0.02314069 0.037470605
-0.018730968 0.060679246 0.004137618 0.053670526 0.0050090384 -0.04780653 0.0054116813 0.040383052
0.030631475 0.043071643 -0.008366564 0.012034891 0.0030113542 -0.02207382 -0.019715104 0.061857
-0.032929473 -0.009448216 0.058027666 -0.033205114 -0.053270925 -0.053590678 0.057615414 -0.027344348
0.045700997 -0.0155325215 0.010498651 -0.006649481 -0.05749484 -0.053727586 -0.04776698 0.02396931
-0.050151296 0.051320408 -0.04467292 0.023214124 0.0017461522 0.050187968 -0.039572105 0.0331378
0.013548156 -0.033315945 0.012890269 0.032490086 0.009775582 -0.045236036 0.056122325 -0.0004964279
-0.023954015 0.059178364 0.024552982 -0.023356713 -0.047576316 0.057200525 0.03187299 -0.02775026
0.01461906 0.039805394 0.010791588 0.009967478 -0.04915582 -0.05973069 -0.0051065283 -0.045668982
-0.05845628 -0.002047211 -0.029377114 0.03815573 -0.050462633 -0.028623084 -0.04375978 0.0033878335
0.033171687 0.03860425 0.019046444 -0.060549382 -0.034968723 -0.02063819 0.0034310878 -0.017153798

fc2.bias f4 [256]
00000000: 37f8 1b3d 107b 17bd 256b 42bc bea4 3b3c
00000010: 46ab 5f3d 1852 303d 7076 d13c 2157 c03c
00000020: 57f6 a8bc 9c7e 693d 94aa 62bd 1207 33bc
00000030: 8cd2 483d 2769 17bd c603 21bd 8f53 07bc
00000040: 5310 4bbc d2cc 223c 7159 74bd 81aa e43b
00000050: 643f 88bc 4e2f 543d 43cc 7d3d 2cb5 613d
00000060: 2c3d fabc 0d45 66bd 7ae1 0d3d d676 1cbd
00000070: c7f8 1b3c 4fd1 063d dcff 57bd 73d7 7a3d
00000080: 3760 1d3c 585e 873c 6015 413b 9075 67bd
00000090: 4e27 193c 81d6 44bd 40b0 823c 2362 1c3d
000000a0: a162 463d 9f28 9e3c e729 19bd 017c 883c
000000b0: fd7e 013d 7ed2 15bd 4e8f c13c bd31 0cbd
000000c0: b542 3e3d 6715 a9bb ca43 eebb 46e9 903c
000000d0: 4948 e23b 8892 2dbd 0e0d 3b3d 4552 59bd
000000e0: b729 33bd 5c89 ac3a 89f1 c43c 1974 363c
000000f0: ca75 793d 0629 433b 59df ab3c cba1 80bc
00000100: 7bf8 6cbd 4ff8 9e3c 06a0 c53c 27cc 9b3c
00000110: 70f2 d6bc 6d44 b33c 4c61 f13c 7275 583d
00000120: 3722 1c3d 1b41 f93c 8828 9bbc 7978 38bd
00000130: f377 be3c f516 87bc 85dc 113c abfb 8c3c
00000140: 7590 f03c 2820 b43b b3a8 973c a1a8 3cbd
00000150: 3d47 42bd 5766 70bd aec4 543d 1d45 2bbc
00000160: 356e 723d bd48 b4bc 4d4a 1cbd 2f62 4b3d
00000170: 4b88 e3bc 1b91 f3bc b8f3 5e3d a467 43bc
00000180: 9b57 c53c 93f4 2c3d 6103 e33c f902 89bc
00000190: fdb1 653c c201 293d 05ee 0a3d bc64 513d
000001a0: c240 51bd 3101 18bd d5c8 e0bc 7635 ffbc
000001b0: 999c 4d3d c1a0 353d f596 b93c b8fe eebc
000001c0: 7aff 60bd ac79 80bd 98d4 74bc 6f81 a4bb
000001d0: 4c90 3bbd 3fc8 993c e408 3d3c 5060 adbc
000001e0: 4256 0b3d 4f6d e83c 1298 62bd 5ff4 84bc
000001f0: 544e 3c3b cab5 79bd 4286 383c 2dbd 22bd
00000200: 9c99 323d 967a 38bd e742 383c 4436 0ebb
00000210: 9615 4b3d 315f 3fbc 085e 6fbc a5d8 99bc
00000220: f365 913c 814d 2b3d 7be9 3c3d ce22 05bc
00000230: 82f5 05bd 644a 43bd 0d34 0f3d 2fd1 4b3d
00000240: e35a 0e3d 83ec 073d 6c39 283d dbf8 77bc
00000250: cf1b 653d 00ae 27bd 5c28 733d f938 4b3d
00000260: b0a3 673d bf8f 1fbb 7275 1b3d af1a b3bb
00000270: ddd6 3a3d 8673 85bc 0b36 3e3c 76b6 c0bc
00000280: c513 47bb 9210 8bbb 091c 4c3d c7e8 4a3d
00000290: 9241 5dbc 299d d03b 77a6 94bc c662 02bd
000002a0: a92e b8bc 4a0c 74bd 0ac7 babc 64b0 33bd
000002b0: 87f9 5fbc 6054 273d 9448 353d b071 12bd
000002c0: 25f3 c43b 161a d9bc c900 7dbd e8c2 583d
000002d0: 758c 3abd d4b5 59bd 4e76 a0bc c600 12bd
000002e0: 97b6 22bc 8634 6d3c c8c7 80bc b3e7 563c
000002f0: f4d2 773d 3074 71bd 5cfb 65bd 0ae6 97bc
00000300: d267 62bb eaae 883b adb6 733d ba1b 0fbc
00000310: 0bec b5bc 186b 38bd d392 85b9 d2fc 633c
00000320: 7181 543b 0767 28bd c67c 7e3d 5b8a e33c
00000330: 9977 26bc 9a9e be3c f3f7 963c ff4a 5f3c
00000340: 96b5 d83c 258a a8bb 7bb5 1ebd 00c5 573c
00000350: 7825 343c 1ad8 463d e378 26bd aea2 7f3c
00000360: cbcd a23c aa4d c03b eac3 7d3d 8c63 7d3d
00000370: dbe5 c3bc 5c04 203d 7df6 303d 3da0 f8bb
00000380: b184 d83b 47ee 52bd 7b39 9439 b2f6 3ebd
00000390: 88df 373d 0f0c 33bb fa60 f53c 5f29 493d
000003a0: f7ab ccbc 910a 553d c3bc 09bd e2d9 02bc
000003b0: 3e03 0e3d a955 073d 6f70 f93b 92e1 bf3c
000003c0: 4f69 a83c 73a0 06bd e3d3 0a3c bd1f 21bd
000003d0: bdb2 4dbd bd27 0dbd e693 dcbb 1fd2 213b
000003e0: a371 f2bc 751d 62bd 0517 27bd 7912 f33c
000003f0: 291c 113d 7c14 17bc 66ad 45bc bc26 213d
0.038078513 -0.036982596 -0.011866366 0.011452852 0.0546067 0.04304704 0.02556917 0.023479046
-0.020625276 0.05700551 -0.055338457 -0.010926979 0.04902892 -0.036965515 -0.03931024 -0.008259668
-0.012394029 0.009936528 -0.05965561 0.0069783335 -0.01663179 0.051802926 0.061962377 0.05510442
-0.030546747 -0.056218196 0.03463886 -0.03819927 0.009519762 0.032914456 -0.05273424 0.061240625
0.009605459 0.016524479 0.0029462203 -0.0565086 0.00934775 -0.04805613 0.015953183 0.038179528
0.048433904 0.019306479 -0.037393477 0.016660692 0.031615246 -0.036577694 0.023627903 -0.03422712
0.046450336 -0.005160022 -0.0072712647 0.017689358 0.0069055897 -0.04237607 0.045666747 -0.053056974
-0.043740954 0.0013163495 0.024040954 0.011136078 0.060903348 0.002977909 0.020980524 -0.015702149
-0.057854157 0.019405512 0.024124157 0.019018246 -0.02623865 0.021883214 0.02946534 0.05284638
0.038118567 0.030426553 -0.018940225 -0.045036767 0.023250556 -0.016490439 0.008902674 0.017209848
0.029365757 0.0054969974 0.01851306 -0.046059255 -0.04743122 -0.05869135 0.05194538 -0.01045349
0.059187133 -0.02200734 -0.038156796 0.049654182 -0.02777495 -0.029732278 0.054431647 -0.011926565
0.024089625 0.04222543 0.027711572 -0.01672505 0.0140194865 0.041261442 0.0339184 0.05112146
-0.05108715 -0.03711051 -0.027439514 -0.031153422 0.05019817 0.04434276 0.02265499 -0.029174194
-0.05493114 -0.06273207 -0.014943264 -0.0050203125 -0.04579191 0.018772243 0.011537764 -0.02116409
0.03401781 0.028372435 -0.055320807 -0.016229806 0.002873321 -0.060964383 0.011262478 -0.039731193
0.043603525 -0.045038782 0.0112464195 -0.0021699825 0.049581133 -0.01168041 -0.014609821 -0.018780062
0.017748808 0.04182196 0.0461211 -0.008125974 -0.032704838 -0.047678366 0.03496175 0.04976004
0.034754645 0.03318454 0.041070387 -0.015135015 0.055934723 -0.040937424 0.05936466 0.04961488
0.05655259 -0.0024347154 0.0379538 -0.0054658274 0.045615066 -0.016290437 0.011609565 -0.023524504
-0.0030376774 -0.0042439187 0.049831424 0.0495384 -0.013504403 0.006366391 -0.018145783 -0.03183248
-0.022483187 -0.059582032 -0.022799987 -0.04386939 -0.013670332 0.04085195 0.04425867 -0.035752952
0.0060104304 -0.026501697 -0.061768327 0.052920252 -0.045544107 -0.05315192 -0.019587662 -0.03564527
-0.009931228 0.014477855 -0.015720263 0.013116765 0.060503915 -0.058948696 -0.056147918 -0.018542308
-0.0034546745 0.004171242 0.059500385 -0.008734638 -0.02220728 -0.045024008 -0.0002547713 0.0139152575
0.0032425786 -0.04111388 0.062130712 0.027775934 -0.01016035 0.023268986 0.018428778 0.01362872
0.026453774 -0.0051434212 -0.038747292 0.013169527 0.010995261 0.048545934 -0.04064263 0.015602751
0.01987352 0.0058686333 0.061954416 0.061862513 -0.023913315 0.039066657 0.04320382 -0.0075874613
0.006607615 -0.05149677 0.00028271586 -0.046621986 0.04489091 -0.002732042 0.029953469 0.04911172
-0.024984343 0.05201203 -0.033627283 -0.007986518 0.03467106 0.033040676 0.00761228 0.02342299
0.020558028 -0.03286786 0.008473369 -0.03933691 -0.050219286 -0.034461726 -0.006731498 0.0024691892
-0.029595202 -0.055203874 -0.040793438 0.029671894 0.035427246 -0.009221192 -0.012065267 0.03934358

smallfc.0.0.weight f4 [32, 256]
00000000: 9d1f 35bd a85c 4cbd 8826 17b9 6873 b7bc
00000010: 0cf5 5fbd c0a5 f2bc 8a89 3c3d b8bf 37bd
00000020: 342f 3dbd ae6d fb3c 0aa8 583c 7082 4bbd
00000030: c690 663d a839 72bd c901 283d ca54 5cbd
00000040: 0eea 3dbc fa94 12bd 21ea 6bbd 9f25 213d
00000050: 2647 8bbb 4157 2abd 31e2 c8bc a45b 04bd
00000060: bf24 273d 6922 ef3c e9a9 3fbd 1e57 f43c
00000070: 3e13 73bd e9ea 48bd 7b05 7abc dfd8 25bc
00000080: a941 eabc 66cc 85bc a54b 04bd 15ec f63c
00000090: 66ab 6cbb 002a 32bd 6270 78bd 8a27 33bd
000000a0: e5c6 51bd 1d15 083d 0e51 133d 2630 023d
000000b0: c14e e13c cc2a 47bd c99d d13c 77ae 073d
000000c0: 08c6 6f3b 543d 483d 6768 233d a28a 19bd
000000d0: d3b1 0bbd 7f59 b93c d129 47bd cf23 51bd
000000e0: 3f88 aa3b 07db e23c 9023 8f3c 5f16 55b9
000000f0: 3636 483c 873a 6b3d 3ad8 d6bb 9822 42bd
00000100: a4c9 35bd 8162 793d c9bc 853c fd97 e83c
00000110: 5869 73bd ddad 9a3b 7184 d0bc c328 37bd
00000120: 1ea1 50bd c39c d93c 6097 ebbc aa1d 9d3c
00000130: 5cd6 78bd 28dc 4abc 577f 9c3c 179d 9dbc
00000140: 0798 22bd 1f09 24bd 02d3 6bbd 4a6b 81bc
00000150: a454 f63c 7713 25bd 4a8e 093d 78db 3d3c
00000160: bef5 28bd 71ab 283d 249c 1fbd e645 7fbd
00000170: 5562 313d f2c8 673d 7c08 dd3c 89d8 68bc
00000180: 1375 6ebb b0e0 9b3c 1906 5cbd 3603 c83b
00000190: 544a 7ebd c727 71bd b4a7 2fbd 1ac5 2fbd
000001a0: 868b 59bd 4156 e63c 1ad0 46bd bbae 7ebd
000001b0: b692 343a 3fcc 3fbd d694 d6bc c00c cdbc
000001c0: e8fd 3d3d 473c 883a 7354 e7bc 75be 4fbd
000001d0: 2f88 e13c 3271 02bd ad07 863c e3f7 f53b
000001e0: e026 7f3d 36b5 6fbd b37a 9bbc 30bf 20bc
000001f0: 0a62 2bbd 06f0 0b3d b61c 513d ef92 0cbd
00000200: 75d1 74bd cd3b c3bb 2a42 10bc ae07 56bc
00000210: d7ff e6bc c9d5 9f3c 3080 78bd b244 10bd
00000220: 40e8 4cbb c61d ed3b b482 33bd b0a8 0a3d
00000230: 1b4e 81bc 9dc2 f1bc a155 8c3c fb8f 643c
00000240: 2242 d2bc d97e cf3a e65c 483d a7c7 16bd
00000250: 607d 59bd f023 50bb ec4c a7bc 4552 74bd
00000260: 53a5 db3c d513 cb3c 4261 b7bc 0bfb 033d
00000270: 644d bdbc 579a 53bc 650c 363d a5cb ce3c
00000280: 25de 473c 6335 babc 70aa 80bc c159 fbbc
00000290: 93c3 063d 162b 4bbd d0ca 18bd f467 9cbc
000002a0: d9b2 f13c 4b05 8c3c 9463 4abd 2d00 2ebc
000002b0: af09 143d 1cae 4abd 5afd 5bbd b796 373d
000002c0: da3d 1abd 7f16 773d ecfb 463d cc15 4bbd
000002d0: 7984 033d b6e4 063d 3f41 dbbc a753 303d
000002e0: adc9 753d bae4 363c 4503 8a3c 5dfe 553c
000002f0: d7bd 633d 6033 67bd c6fb 96bc 2a31 6bbd
00000300: e201 09bd 5460 17bd d8d7 76bd 051b aa3c
00000310: e622 633c 5bd9 693d 2d8d 2e3d 9ae1 e5bb
00000320: dfdb 30bd 27be 783d fc51 743c 6358 dbbc
00000330: e828 f1bc 0ad8 383d df3e 643d 3bac fabc
00000340: e05d 6a3d 2a83 beba b5ef 163d 3a41 113d
00000350: 5154 393d 2308 03bd 8787 673d 07de d8bb
00000360: 399e 0bbd 9521 803c b289 78bc 721f 56bd
00000370: 8194 24bd 3b2d 763d a40f 1bbb e476 48bd
00000380: f86e 56bd 9c69 eb3c 131f 43bd 9721 b1bc
00000390: ea63 ee3c 4a6c 16bd 50c8 ce3c 1ca4 b53c
000003a0: 1451 51bd 8234 fd3c d1f9 333c 68b4 503c
000003b0: a640 ed3c 6877 e43c 4f88 17bd e2b8 233d
000003c0: c50b 0fbd cd78 11bd bfe1 073d 22f1 383d
000003d0: 268c 993c a27e d03c 730a ba3c 8422 383d
000003e0: f2de c7bc dd1b 82bc 8f27 a2bc f56b 5bbd
000003f0: a6cb 883c 2312 79bd bd9c 503d 6e56 1fbd
-0.044219602 -0.04989305 -0.00014414836 -0.022393897 -0.054677054 -0.029620051 0.046029605 -0.04486057
-0.046187595 0.030691948 0.013223657 -0.04968494 0.05629041 -0.059137017 0.041017327 -0.0537918
-0.0115914475 -0.035786606 -0.05759633 0.03934252 -0.004250425 -0.041587118 -0.024521919 -0.032313958
0.04080653 0.029191213 -0.0467929 0.029826697 -0.059344523 -0.049052153 -0.015260096 -0.010122507
-0.028595762 -0.016332816 -0.032298703 0.03014187 -0.0036112904 -0.043497086 -0.06065405 -0.04373888
-0.05121507 0.03322326 0.03596597 0.0317842 0.027503373 -0.0486248 0.025587933 0.033125367
0.0036586542 0.048886612 0.039894488 -0.037485726 -0.034105133 0.022625683 -0.048623864 -0.05105954
0.00520423 0.027692331 0.017473012 -0.00020321597 0.012219956 0.057428863 -0.006556538 -0.047396272
-0.044381753 0.060884956 0.016325371 0.028392786 -0.059426636 0.004720433 -0.025453778 -0.044716608
-0.050934903 0.026564008 -0.028758705 0.019179184 -0.060751304 -0.012381591 0.01910369 -0.019239945
-0.039695766 -0.04004776 -0.05757428 -0.01579823 0.030069657 -0.040301766 0.033582963 0.01158797
-0.041249983 0.041179124 -0.038967267 -0.06232252 0.043306667 0.05658812 0.026981585 -0.014211782
-0.00363857 0.019028038 -0.053716753 0.0061038984 -0.062082604 -0.058875825 -0.042884544 -0.04291258
-0.053111576 0.028117301 -0.048538305 -0.062178355 0.0006888317 -0.046825644 -0.026194017 -0.025030494
0.046384722 0.0010393941 -0.02823851 -0.050718743 0.027530758 -0.031846233 0.016361082 0.007506357
0.062292933 -0.058522426 -0.018979406 -0.009811208 -0.041841544 0.03416445 0.05105277 -0.034319814
-0.059770066 -0.0059580565 -0.008804837 -0.013063354 -0.028198166 0.01951112 -0.060669124 -0.035221763
-0.0031266361 0.0072362153 -0.04382582 0.03385228 -0.015784314 -0.029511744 0.017130675 0.013950343
-0.0256663 0.001583065 0.04891672 -0.036811497 -0.053098083 -0.0031759702 -0.020422421 -0.05964877
0.026812231 0.02478973 -0.022385243 0.032221835 -0.023108192 -0.012915215 0.044445414 0.02524359
0.0121989595 -0.022730535 -0.015706271 -0.030682446 0.032901358 -0.049601637 -0.037302792 -0.019092537
0.029504227 0.017092368 -0.04941137 -0.010620159 0.036142047 -0.04948245 -0.05370841 0.044821467
-0.037656642 0.06032419 0.048580095 -0.049581334 0.032108758 0.03293296 -0.02676451 0.043048527
0.060006786 0.011162931 0.016847262 0.013061133 0.055600967 -0.05644548 -0.018430602 -0.057419933
-0.03344906 -0.0369571 -0.06026444 0.020764837 0.013863301 0.057092052 0.042615104 -0.007015419
-0.043178435 0.06072822 0.014912125 -0.026775545 -0.029438451 0.045127906 0.05572402 -0.030599704
0.057218432 -0.001453494 0.036849696 0.035462596 0.045246426 -0.03199018 0.056525733 -0.0066182646
-0.03408644 0.015641013 -0.015169548 -0.052276082 -0.040180687 0.06010173 -0.0023660446 -0.048941508
-0.05235192 0.028736882 -0.047637057 -0.021622462 0.029100377 -0.036724366 0.025242 0.02217298
-0.051102713 0.030908827 0.010984854 0.012738325 0.02896149 0.027888969 -0.03699523 0.03997124
-0.034923334 -0.035515595 0.033174273 0.045151837 0.018743586 0.025451008 0.02271006 0.04495479
-0.0243983 -0.015882427 -0.019794254 -0.053569753 0.01669867 -0.060808312 0.050930727 -0.038900785

smallfc.0.0.bias f4 [32]
00000000: 5a56 593d 4f65 f0bc ad74 fd3c b826 7ebd
00000010: 6194 9fbc 8e27 c7bb 7c0b e33c d204 063d
00000020: fe5f 373d a003 323d 8650 093d 7aa1 71bd
00000030: 8072 ca3c 1ada 163d da22 d33c 55bb 24bd
00000040: c018 0cbd 7134 7bbd 0090 3e3d b9ba 5abd
00000050: 2f6f 353d 684d d53c fd4d d33c 4850 bbbc
00000060: 2a70 02bd bed3 ce3a 69e3 393d 58f3 a6bc
00000070: 7c14 cd3b 2c55 143d ef2b 533d 8f1a ae3c
0.053060867 -0.029345183 0.030939424 -0.062048644 -0.019479932 -0.0060777133 0.027715437 0.03271944
0.04476928 0.04346049 0.03352406 -0.058991887 0.024712801 0.03682909 0.025773454 -0.040217716
-0.03420329 -0.06132931 0.046524048 -0.05340073 0.044295486 0.026037887 0.025794024 -0.02286543
-0.03184525 0.0015779657 0.04538289 -0.020379707 0.0062585454 0.03621404 0.05155557 0.021252898

smallfc.0.2.weight f4 [3, 32]
00000000: 85bc f93d 0200 333e d29a b33b 921e 0a3e
00000010: eef6 d6bd 2661 25be 2a52 fcbd 931c b23d
00000020: c87b 303e 8244 2d3c 443f 25be 7e49 f0bd
00000030: 6dbd 003e 8c55 2d3e 92d9 293e 584a c43d
00000040: a934 ee3d e49b f6bc 55c8 253e 5684 d03d
00000050: a084 81bd e8b2 43bd 8b9c 173e d740 01be
00000060: f39b 253e 6ca9 943d 6683 b4bd c4f7 a13d
00000070: 651d 493d 0dfa d6bc 7e34 b2bd dae9 023e
00000080: 29b4 c43b fff2 073e d87c d1bc bb99 b23d
00000090: 6d54 303d 3934 133d cf36 96bc f33a e5bd
000000a0: dad9 2ebe 1c9c 0ebe 7c32 b1bd a49e d83d
000000b0: 1263 7ebd 89dd b13b ceec f93d e288 e33d
000000c0: e762 10be 00c1 9a3d 4427 ac3d 889e 813b
000000d0: 84e4 d83d 7d14 1ebe 6a0a 10bd 2ed8 2d3e
000000e0: ba15 9a3d a2f9 bb3d ae07 1abe db08 0a3e
000000f0: fac7 b93d e008 4c3d b79f 0d3e fcc1 083e
00000100: d71f 33be 57b7 073d e194 763d dd8f 1f3d
00000110: 50b5 f73d e74f febd 4d8a 12be f971 31be
00000120: 0bb7 e9bd 8f57 233e 5526 d13d 1a86 7fbd
00000130: e59b dfbd 0308 af3c e196 133e 83ed dabc
00000140: de65 1a3e 2f91 cbbd 3b53 c63d bb47 25be
00000150: c642 0bbe 6f79 fbbc b821 1f3e da78 b53d
00000160: 2292 47bd 9891 93bd c42c 913d 2f1a c3ba
00000170: 400f 2c3e c95d fa3d 0ac4 2bbd 4671 9a3d
0.1219416 0.17480472 0.0054811025 0.13488224 -0.10496317 -0.1615034 -0.12320359 0.08696856
0.17234719 0.010575416 -0.16137415 -0.117327675 0.1257226 0.16927165 0.16586903 0.095844924
0.11631138 -0.030103631 0.16189702 0.10181491 -0.06324124 -0.04777804 0.1480581 -0.1262239
0.16172771 0.07258877 -0.08814125 0.07908586 0.0491003 -0.02624228 -0.08701418 0.1278452
0.006002922 0.1327629 -0.025572225 0.08720728 0.043049265 0.035938475 -0.018336682 -0.11192884
-0.17075291 -0.13926739 -0.08652207 0.10577133 -0.0621062 0.0054280204 0.1220337 0.11110093
-0.14100228 0.07556343 0.08405927 0.003955666 0.10590461 -0.15437503 -0.03516618 0.16976997
0.07523675 0.09178473 -0.15041992 0.1347994 0.090713456 0.04981315 0.13830458 0.13355249
-0.17492615 0.03313383 0.060200576 0.038955558 0.120951295 -0.12417584 -0.1431057 -0.17328633
-0.11411866 0.1595137 0.102123894 -0.06238375 -0.109184064 0.021366125 0.14413024 -0.026724583
0.15077922 -0.09939801 0.09683844 -0.16140644 -0.13599691 -0.030697552 0.15540206 0.08860941
-0.048723347 -0.07205504 0.070886165 -0.0014885123 0.16802692 0.12224919 -0.041935004 0.075411364

smallfc.0.2.bias f4 [3]
00000000: 3768 303d 99d4 fb3c 89ca 093e
0.043068137 0.030741023 0.13456167

smallfc.1.0.weight f4 [32, 256]
00000000: b9ea f43b 630d 0ebc d3ad 9cbc 3c64 58bd
00000010: 1739 1bbd 6dfa 0d3d 9aa6 253d d21e 803d
00000020: 8526 2fbc 3a93 b5bc 1ce9 70bd 7185 40bd
00000030: 97ed 5a3c 29b3 47bd abf7 26bd a8be 1abc
00000040: e749 a43b e5ef 7eb9 390a 7e3d 2324 753d
00000050: 3bf0 4f3c 7f5c fdbc d5ea 85ba 22fc 583d
00000060: 6fd4 043d 22a1 e7bb ba64 703d 174b 32bd
00000070: f4b7 e43c 8aa3 613c 97e1 10bc 0d86 653d
00000080: 849a 6ebd c9e0 653d 8c2c 67bd 7cdb 06bd
00000090: 4a96 623d 9c60 2e3d 657f 4bbd 2add 113d
000000a0: eea0 193d 5960 21bd beee 1c3d 1b9f 65ba
000000b0: c8bc 943b b39e 593d 5d3d 66bc 0da5 013d
000000c0: 3236 d83b 5b21 3cbc 594a 843c 4f07 6bbd
000000d0: c7db 3abd e128 4f3c 71d7 9e3b 3bde 81bd
000000e0: 82dd aa3c 0a12 103d 0405 00bd 4cc7 f6bc
000000f0: 2246 e0bc e15e 1bbd 6c6f 5f3d 66aa bcbb
00000100: b8ce abbc ea9e 743c 4c0e 21bd 628b 4cbd
00000110: 2508 34bc d0ff 04ba 59c9 25bc f424 483d
00000120: 7a5d e03c 61bf f3bc 85c4 d9bc c290 93bc
00000130: b5ed 6cbd 50a1 1abd 4296 b93c c18e 8d3c
00000140: b8d0 46bd 4937 afbc 547c e33a e4ab d33b
00000150: de6c 263d 4408 7e3c 30cc 863c 6a2d 00bc
00000160: ea00 133d 9efc 8bbc 9f9a dd3c e6b8 adbc
00000170: 20ec 28bd 12a5 a6bc 3a02 4ebd dd17 6abd
00000180: 68a5 643d 75b1 f73b 943d 363d 01a7 dabb
00000190: 71c0 033d e971 933c 8e7e f53c 192f 0abd
000001a0: 3c1a dfbc 8761 0abd dc3f 003c 3bf9 473d
000001b0: 785d d3ba cc31 113d deff b5bb 7df1 55bd
000001c0: e18f 4c3d f6f3 dfbc d448 49bd 26d8 5f3c
000001d0: 475a 37bd ae30 49bd 21c9 063d 2003 323d
000001e0: 34f4 00bd 293c aebc a309 8dbc f1d8 5a3c
000001f0: b2e6 26bd 409f 26bd 34ca a5bc e0e3 d5bc
00000200: 0f4c 733d 7715 073d 82d2 c4bc d53f 033d
00000210: 0710 1ebc 9a9f 49bd b271 b4bc b60b ae3c
00000220: 80d0 87bc 8cea 043c c360 283d 2987 0dbd
00000230: b34e dfbc 302e 223d 276e 6b3c 2f0b 8fbc
00000240: e9fe 84bb 4e11 38bd 5b3e 8cbc 6e2a d13c
00000250: 4892 18bd 9cf9 f63c ab91 2f3d a04b 6abd
00000260: 5d3f bc3c c581 a7bb e2d4 643d 5992 393c
00000270: 77fc 433d a183 713d d576 cf3c 7854 563d
00000280: 9ce7 e63c 75ae 4c3c 22b4 123c 7ff5 16bd
00000290: 862b c7bc e6de 38bd c410 5bbd 0922 5cbd
000002a0: 3013 293c 018e 4dbd db63 033b e197 213c
000002b0: 5ce7 9bbc 8070 76bc 9dac 62bd 2cff 713c
000002c0: 5614 543d 6bd3 2ebd 2587 3a3d 4eb0 3ebc
000002d0: e7fe da3c 93ad 95bc 1e18 4b3d 5a5b 293d
000002e0: 3785 093d dc3d 603d b0f9 773d 773d e53b
000002f0: 4967 1dbd 710b 893b 661b 4d3d 4c80 333d
00000300: 019a 03bd 8031 05bd 6aa6 643d a851 58bd
00000310: 22c7 19bc e3c8 31bd 8910 0d3d 5788 693d
00000320: 089f 09bc b8f0 81bd c25b 583d e9d4 20bd
00000330: d7d4 5c3d e9a9 00bd 8b92 aebc 6a7c 733b
00000340: 068e 31bd fafb 51bd d6b2 7c3d 81a8 dabc
00000350: 5f51 2a3c 022c 183d cfae 673d 1e91 5b3c
00000360: 58dc 22bd 7d7a 003d 5758 15bd 489a a43c
00000370: 2af1 2d3c f925 71bd 01ad 353b 8c0d 9b3c
00000380: 1bfe b33c 067b 313c 5da8 71bd 1816 91bc
00000390: 3cff 1dbd 52f9 49bc a257 cb3c 7d78 2b3c
000003a0: 5694 403d bca8 21bd 1c80 c4bc c60f b83c
000003b0: 6f1a 043d 5ed2 903b 2488 15bd 15d7 0e3c
000003c0: 50d6 673b 0f87 88bc 654c 40bc 41b5 773d
000003d0: 55fa 413d 6353 303d b705 6fbd c85b 23bc
000003e0: 42aa 0f3c 640a 62bd 43a5 6bbc a754 75bc
000003f0: 500d 673d 0b9a c2bc 953b 063d 1d2f 34bc
0.00747427 -0.008670184 -0.019125855 -0.052829966 -0.037896242 0.034662653 0.040442087 0.062558785
-0.010690336 -0.02216493 -0.05881606 -0.04700226 0.01336231 -0.048754845 -0.04076354 -0.00944487
0.0050136927 -0.00024312695 0.062021468 0.059848916 0.012691553 -0.030927895 -0.001021708 0.052974828
0.032429155 -0.007068769 0.05868981 -0.043528643 0.027919747 0.013771901 -0.008842847 0.056036044
-0.058252826 0.056122575 -0.056438968 -0.03292416 0.055319108 0.042572603 -0.04968204 0.03561131
0.03750699 -0.039398525 0.03831362 -0.00087593653 0.004539106 0.053129863 -0.014052716 0.031651545
0.0065982575 -0.011482562 0.016148733 -0.057380017 -0.045619752 0.012644024 0.00484746 -0.06341215
0.020857576 0.035173453 -0.031254783 -0.030124329 -0.027377192 -0.03793228 0.05454962 -0.0057576178
-0.020972595 0.014930466 -0.039320275 -0.049937613 -0.01098827 -0.00050735194 -0.010118806 0.048863366
0.027388323 -0.029754343 -0.026582966 -0.018013362 -0.057843883 -0.037751496 0.022654656 0.017279984
-0.048538893 -0.021388667 0.0017355778 0.0064597 0.040631168 0.0155049 0.016454786 -0.007823328
0.035889544 -0.01708823 0.027051268 -0.02120633 -0.04124081 -0.020342384 -0.050295092 -0.057151664
0.055821806 0.0075589963 0.04449232 -0.0066727404 0.03216595 0.017998653 0.029967573 -0.033736322
-0.02723419 -0.033784416 0.007827725 0.04882167 -0.0016125878 0.03544788 -0.0055541834 -0.052232254
0.0499419 -0.02733801 -0.04914172 0.013662374 -0.04476383 -0.04911869 0.032906655 0.04346001
-0.03148289 -0.021268921 -0.01721651 0.013357387 -0.040747352 -0.040679216 -0.02023802 -0.026109636
0.059398707 0.032979455 -0.02402616 0.032043297 -0.009647376 -0.049224474 -0.02202687 0.021245819
-0.016578913 0.008112561 0.041107904 -0.034552727 -0.027259206 0.03959483 0.014369524 -0.017461387
-0.004058708 -0.044938378 -0.017119577 0.025532927 -0.03724888 0.03014832 0.04286353 -0.057201028
0.022979433 -0.0051119053 0.055867083 0.011326396 0.04784819 0.05896342 0.025325218 0.05232665
0.028186612 0.012492766 0.00895408 -0.036855217 -0.024312746 -0.045134448 -0.053482786 -0.053743396
0.010319516 -0.050184254 0.0020048532 0.009862871 -0.01903122 -0.0150414705 -0.055340398 0.01477031
0.051777206 -0.042682093 0.04553904 -0.011638714 0.026732875 -0.018271243 0.049583547 0.041346885
0.03357431 0.054746494 0.060540855 0.0069958526 -0.03842858 0.004182272 0.050074957 0.043823525
-0.03212929 -0.03251791 0.055822767 -0.05281225 -0.009385856 -0.04340447 0.034439597 0.05701479
-0.008399732 -0.063447416 0.052821882 -0.039265547 0.053913917 -0.03141204 -0.021310112 0.0037153014
-0.043348335 -0.051265694 0.06169399 -0.026691677 0.010395377 0.037151344 0.056563195 0.013401298
-0.039760917 0.031366814 -0.0364612 0.020093098 0.01061658 -0.058874104 0.0027721527 0.018927358
0.021971753 0.010832554 -0.058998454 -0.01771073 -0.03857349 -0.012327509 0.02482206 0.010465738
0.047016464 -0.03946756 -0.023986869 0.022468459 0.03225177 0.004419609 -0.036506787 0.008718272
0.0035375543 -0.016665963 -0.011736964 0.06047559 0.047357876 0.043048274 -0.05835506 -0.009970613
0.00876862 -0.05518569 -0.014382663 -0.014973796 0.05640918 -0.023755094 0.032771666 -0.010997561

smallfc.1.0.bias f4 [32]
00000000: cb67 26bc 8da3 09bc 788a 84bc 59e4 cabc
00000010: a307 c4bb 1a26 7fbd 3fb6 d83c 698e 7d3b
00000020: f351 163d 46a5 2d3b 6d5c 063d cfda 7e3d
00000030: 4f99 d73c 8c70 89bc 6886 593d 6c65 483d
00000040: ece8 5cbd e725 36bb 877c 32bd 3cdd f43c
00000050: 6c7d 483d 6aed bd3c de4a 193d 320a 7d3d
00000060: b0fd cabc 552f 32ba 8df3 23bd 752a cbbc
00000070: 3c8d d43c 13cc 0dbc b1da 45bd c977 083c
-0.010156582 -0.00840081 -0.016179308 -0.024767088 -0.0059823557 -0.062292196 0.02645409 0.003868962
0.036699247 0.0026496216 0.032802988 0.06222039 0.02631822 -0.0167773 0.053106695 0.04892485
-0.05393307 -0.0027793588 -0.04357579 0.029890649 0.048947737 0.023184497 0.037424915 0.0617773
-0.02477917 -0.0006797214 -0.04002719 -0.024800519 0.025946252 -0.008654612 -0.048304264 0.00832934

smallfc.1.2.weight f4 [3, 32]
00000000: 9bfb 06bd a6f7 0cbd 5f01 2abe bef6 33bd
00000010: 4c11 e7bd ed82 a3bd f3c9 8fbd 65a1 32be
00000020: 5749 0e3d 8913 fabd 1861 c6bd 772f bdbc
00000030: 8832 0a3d 4352 a73d 60c5 18be 9da6 c83d
00000040: 0238 253e da05 4dbd e5fa 233d f4ed a9bd
00000050: fab3 bdbd 7aab bbbd db98 9b3c e8b5 3dbc
00000060: 5fae c23d ec6c 0cbd 49cf a73d c6bd 05be
00000070: 9ce4 1f3e cfbf 67ba 4ec5 c0bd bef2 2b3e
00000080: afa2 8a3d 4a1a 0f3d 085e 2b3e 70f9 1b3e
00000090: 1018 76bd 78ef 133e 6feb fb3d 8e11 05be
000000a0: 93bb 2b3e 6fed c13d af0b 083e c2bf 223e
000000b0: 861a 3fbd c0ab 84bd 1cc7 e2bc a8f9 fbbd
000000c0: c6f7 403d 1f15 fdbb 3663 253e ffbd 9bbd
000000d0: 5e28 f53c b56f ddbd 2b62 083e ba91 99bd
000000e0: 0be1 babc d363 323e 5787 c1bd 12ee 0ebc
000000f0: 3340 fa3d bb52 21be 53d3 68bc 30ce f93c
00000100: 3389 293d 5fc2 213e 5e34 0ebe 0100 0d3e
00000110: 24bb 0c3e 26a6 d0bd 15a2 65bc 400e 263e
00000120: f921 10be d663 e2bd 5bf8 44bd 6b8f 243d
00000130: 8023 83bd fc22 353e f116 11be 9c72 bcbd
00000140: a8ba fd3d b29b d83d 711e 743c 28cd c23d
00000150: 01ac ed3d a5d6 13be f32a 29be ae44 8ebc
00000160: cea0 51bd 8606 e0bd 0c63 f3bd e957 3fbc
00000170: 65b9 cf3d 739c 0fbe a295 b03c f194 743d
-0.032954793 -0.034415863 -0.16602086 -0.043936484 -0.11282596 -0.079839565 -0.07020941 -0.1744438
0.03473791 -0.12210757 -0.09686488 -0.023093922 0.033739597 0.08169987 -0.14919043 0.09797404
0.16134647 -0.05005441 0.040034194 -0.08297339 -0.092628434 -0.09163566 0.018993786 -0.011579014
0.09505915 -0.034283563 0.081938334 -0.13060674 0.15614551 -0.00088405324 -0.09412633 0.16791818
0.06769311 0.03493718 0.16735089 0.15231872 -0.06008154 0.14446819 0.12300765 -0.12994978
0.16770773 0.09469115 0.13285707 0.15893462 -0.046656154 -0.06478071 -0.027682833 -0.123034775
0.047111295 -0.007723465 0.16151127 -0.07604598 0.029926475 -0.10812322 0.13318698 -0.07498498
-0.022812387 0.17420892 -0.09449642 -0.008723753 0.12219276 -0.15754215 -0.01421054 0.030493826
0.04139061 0.15796803 -0.13887164 0.13769533 0.13743263 -0.1018794 -0.014015694 0.16216373
-0.1407546 -0.110541984 -0.048088413 0.040175837 -0.064032555 0.17689127 -0.14168908 -0.092015475
0.123891175 0.105765715 0.014899836 0.09511787 0.11605073 -0.14437349 -0.1652029 -0.017366733
-0.051178746 -0.10938744 -0.11884126 -0.011678674 0.10142783 -0.14024524 0.021555725 0.059712354

smallfc.1.2.bias f4 [3]
00000000: b592 68bc acee 133e f729 a8bc
-0.014195134 0.14446515 -0.020527823
