saved_models/wave/model_89.pt (torch, 331276 bytes, 7 tensors)

layers.0.weight f4 [200, 6]
00000000: 9d91 e8bb 396e 8dbb 4228 933a 4335 c8be
00000010: 9716 afbe e418 1ebb 7a84 e43c f026 723d
00000020: a62a 323c edd3 0cbe d94a 8dbe da68 dabc
00000030: a23f 59be f598 bdbd 6f4f 19bc ed7b 053d
00000040: 133b 093e 4622 7f3b fd69 7f3c 5906 8b3b
00000050: 70cc a6b9 ddcd e53e 2a4a d23e 7599 e9bb
00000060: 54e2 aabc 4e7e 7dbb f97a 253c 6c77 2cbf
00000070: 0ded 1dbf afb1 ed3c 7c63 c9bc 07bc 953a
00000080: 70bd 6cbc c923 22bf 2ad3 30bf a644 56bd
00000090: 074f 03bd 39f0 f3ba 77e5 c73a cf47 a13e
000000a0: 4b0f 873e b6ce f8bb 1aff c53d b870 f9bd
000000b0: f6e5 e73c 8d3b 17be da30 cf3e 46e4 2c3e
000000c0: 0887 923b 3917 e03a a34a ef3a c5a1 b63e
000000d0: 5c0d 9a3e df60 13bb d7af 32bc b37b 0bbd
000000e0: bddd 573c 7b0a 56bf c5bc 34bf 7d3b 1ebd
000000f0: 39d2 153d 2524 d2bb 648c 923a ef7c 163f
00000100: 1d24 113f 32bb 2f3c 52a7 573d 0029 883d
00000110: 84bc 93bd 0364 9c3e 34aa fabe 4916 5c3d
00000120: 1ef0 3f3d 1b5a 4e3c 5139 053d a657 d73e
00000130: 5b89 933e 840d d5bc 3b17 343d 4755 143c
00000140: 53d1 5ebc 0613 053f f7b4 f83e 2c8f 93bc
00000150: 4834 7abc b12b 41bc 5237 813a 217b fdbe
00000160: 1584 d8be 3232 08ba 0de2 ccbc f1a4 c43c
00000170: 4ddb bf3b 2335 f6be a656 12bf eb01 23bd
00000180: dfe3 0f3e 7c2d 9a3d 1ae2 67bd 4e63 9bbe
00000190: a7b3 dc3e 497a b33d 355e c1bd 1d8d 2f3a
000001a0: 8930 19bd c14e 63be f87d d5be eba7 c8bd
000001b0: ea3b 24bc 6f68 c53b 8f6a 1abc 311e b53e
000001c0: c47e 483e 9cfd 44bc cb89 203e 22b6 6e3b
000001d0: bd8b 9cbb 2a1d c0bd f3ab 86bd 3f8d a7bb
000001e0: 80b5 743d 6b74 323d a14c f0bc 3c1e 47bd
000001f0: d7db afbe c752 e0bc 312e 09bc 70ae 00bc
00000200: e997 fe39 9c30 fdbe 0e18 d6be e9b9 a93b
00000210: fe04 aebd 5d0f 4bbc 7d1d 063c ebbd 493e
00000220: 95c8 4e3e 0715 10bc 2797 213d c6d1 ac3b
00000230: 2690 de3b 5740 cd3e b2ae e23e 2b17 fd3b
00000240: 87f5 98be a09e ffbd 3049 233e 2ae8 ca3d
00000250: 50d8 a1bd 3660 2cbe 7734 24be b4b8 f7bd
00000260: 89bc 13bd cfa1 0c3e 9a5b 003e d734 c7be
00000270: 361e 89bc 3fcc 56bc 310d 0a3a e392 00bf
00000280: 01f8 f6be 5e0c 3b3c 8419 8fbe 480b 55be
00000290: ecd7 d6bc dd2e 7a3d 6b9f 80bc cd26 b73d
000002a0: f9d8 0bbe 28cb 16be 78ea 173e 41db 71be
000002b0: 6564 7e3e 46b1 33bd 0935 c2bd c512 3cbc
000002c0: b58c 2cbd 23c2 ab3e 1d9f 293f 42c2 083d
000002d0: 094a 833c 638f 6f38 971f 1b3c ff98 a43e
000002e0: e16d b43e 7a78 313c b362 363c 1e41 1b3b
000002f0: 9b57 4a3b 5611 8b3e c7a0 a33e ce71 c03b
00000300: 9db1 bcbd 3088 9abd 476e 01bd e8f6 a6be
00000310: a888 9ebe 6b32 073e 40f4 2dbd d2a7 8b3b
00000320: 5d89 143b 356e b23e b6c7 563e c7a0 79bc
00000330: 2956 dcbc 182d dbbb 8350 6b3b 9097 9c3e
00000340: b3d0 693e d509 f7bb 639b cbbb a6c3 cfbb
00000350: 4e93 a239 0731 efbe 0e7d ddbe eba1 cd3b
00000360: 8d0c 5cbe 9995 b3bd 0af4 0bbd b329 89be
00000370: 8004 873d 6f27 b13e e129 7b3d 3aed 053d
00000380: 49ad 28bc 0390 b8bd efc9 9abe 745a 82bb
00000390: 1231 63bc efda cfbb 156a 263b 6264 b23e
000003a0: 2a8d 803e fc4a 9c37 8510 cfbc d556 b2bc
000003b0: fd2d 433c 7135 0ebf 0e6b 06bf 6780 2e3d
000003c0: 6402 e33c 7791 d43d 887a 913a 7ac5 0b3e
000003d0: 7602 903e e9f1 eabd 3513 c83d 1d56 083c
000003e0: 135d 183c 0116 1bbe 0f4d 62be c8e2 1a3c
000003f0: 5d7f 4c3d eb17 9c3c 256b 313b 3ae8 5cbe
-0.0070974366 -0.004316118 0.0011227208 -0.39103135 -0.34196922 -0.0024123723 0.027895201 0.059119165
0.010874426 -0.13752718 -0.27596167 -0.026661325 -0.2121568 -0.0925769 -0.009357317 0.032588888
0.13401441 0.003893034 0.015589234 0.0042427 -0.00031814305 0.44883624 0.41072208 -0.007128889
-0.020859875 -0.003868002 0.01010012 -0.67369723 -0.61689836 0.02901539 -0.02458357 0.0011423834
-0.014449462 -0.63335854 -0.6907221 -0.052311562 -0.03205779 -0.0018611021 0.0015250881 0.31500098
0.26378855 -0.0075930012 0.096677974 -0.121797025 0.028307896 -0.1476881 0.40466958 0.16883954
0.0044716634 0.0017096765 0.0018256496 0.35670295 0.30088317 -0.002248816 -0.010906181 -0.034053516
0.013175425 -0.8360974 -0.7060054 -0.03863095 0.036577437 -0.006413 0.0011180756 0.58784384
0.5669573 0.010725783 0.052649803 0.06648445 -0.07213691 0.30545053 -0.4895798 0.05373219
0.046859853 0.012594725 0.032525364 0.42059058 0.2881573 -0.026007421 0.043967467 0.009053535
-0.0135997115 0.5198215 0.48575565 -0.018012606 -0.015271254 -0.011790202 0.0009858406 -0.49508002
-0.4228827 -0.0005195468 -0.025010133 0.024004431 0.005855 -0.48087415 -0.57163465 -0.03979675
0.1405177 0.07528207 -0.05661211 -0.303492 0.43105814 0.087635584 -0.09441797 0.0006696748
-0.037399802 -0.22198011 -0.4169767 -0.09797653 -0.01002405 0.0060244123 -0.00942482 0.35374597
0.19579607 -0.012023356 0.15677564 0.0036424478 -0.0047774003 -0.093805626 -0.065757655 -0.0051132734
0.059743404 0.043568056 -0.029333415 -0.048612818 -0.34347412 -0.027383221 -0.008372829 -0.007854089
0.00048559837 -0.4945115 -0.41815227 0.005179633 -0.08497046 -0.0123938 0.0081857415 0.19701354
0.20193703 -0.008794076 0.03945079 0.0052740304 0.006792086 0.4008815 0.44273907 0.007723709
-0.29874822 -0.12481427 0.15945888 0.09907563 -0.079025865 -0.16833577 -0.16035639 -0.12095776
-0.036068473 0.137336 0.12534943 -0.389075 -0.016738039 -0.0131102195 0.0005266248 -0.5022413
-0.48236087 0.011416523 -0.27949154 -0.20805085 -0.026226006 0.06107985 -0.015701016 0.089429475
-0.13656987 -0.14725935 0.14835536 -0.23618795 0.24842985 -0.043870233 -0.09482772 -0.011479084
-0.042126376 0.33546552 0.6625841 0.033388384 0.016026514 5.711558e-05 0.009467981 0.32147977
0.3524008 0.0108319465 0.01113193 0.0023689936 0.003087497 0.27161664 0.319586 0.0058729416
-0.092135645 -0.07545507 -0.03159931 -0.3261025 -0.30963635 0.13202827 -0.042469263 0.004261949
0.0022664883 0.34849706 0.20974621 -0.015236086 -0.026896553 -0.006688725 0.0035906143 0.30584383
0.22833519 -0.007539014 -0.006213592 -0.006340462 0.00031008798 -0.46717092 -0.43259472 0.0062754056
-0.21489163 -0.08768768 -0.03416828 -0.26789626 0.06592655 0.34600398 0.061319236 0.03269694
-0.010295221 -0.09011843 -0.30232188 -0.003978068 -0.01386668 -0.0063432376 0.002539282 0.3484221
0.251077 1.8631566e-05 -0.025276432 -0.02176992 0.01191282 -0.55550295 -0.525071 0.042602923
0.0277111 0.10379308 0.0011099139 0.1364955 0.28126878 -0.11471922 0.097692885 0.008321312
0.009299534 -0.15145113 -0.22099708 0.009453483 0.04992615 0.019054374 0.002707192 -0.21572962

layers.0.bias f4 [200]
00000000: fbd0 433e 4007 023f c79b ec3e 8a97 e0be
00000010: 20c8 87be 1af9 4cbe ce94 7fbe 8d65 713f
00000020: 3283 ac3a fad6 94be f70f 2fbe 43f5 99be
00000030: b8f7 463e b32b babe 6b26 b9be 1505 d9be
00000040: f2e3 253f ef8a 8d3e c7f4 53be fc1f 3d3e
00000050: 8866 b63e 285d 953d dbb7 7abd 09f6 973d
00000060: 3957 3c3d e044 343e aa5d a4be 2425 813e
00000070: 6fb8 e43e 8307 adbe 5868 c13e 0df4 f43e
00000080: 3137 f7bd 6ccb 03be 9e18 883e ec78 8cbe
00000090: 868a c13e 59af eb3d 5943 993e fbd6 c5be
000000a0: b983 a8be fcff 823e 680a 313e e58d dcbe
000000b0: e262 4bbe b932 37bf 0446 b5be 980b 54be
000000c0: 6587 bc3e 7a85 303c da83 903e 81ee d33e
000000d0: 2b36 963e bd40 b8be d7e1 c03e c909 873e
000000e0: a1cb fa3e a78c e1be 8bdb a23e dba2 ae3e
000000f0: b20a 6bbf a73d 8c3d edc5 003f 8c78 d4be
00000100: 5cba a43e f904 4b3e f64f af3d d6c5 163f
00000110: 3a19 c53e 4de0 e73e 5067 8bbc 2ced c73e
00000120: 8b97 cabe f1c6 acbe a295 2cbd b824 52be
00000130: 18a5 cf3e ce0b 593e e6aa bd3e ae97 d23e
00000140: 1ce9 b8be 5dd0 31bd bc82 fb3d 3ecb 713e
00000150: 0ff8 b23e 4bef e6bd 4256 d7bd c2f3 3a3f
00000160: 008c 5fbd 2d7c 20bf 202d a83e 35cd a73e
00000170: e682 21be aaaa c3bd 6c66 b3be cf98 d1be
00000180: 3cad 413e 2892 57be 1531 e23e 1f9d adbe
00000190: 3079 5bbd 49a0 663c 1dc1 663e 7f5b f23e
000001a0: c75b a73e 42c4 963e 25e9 f8bd 9d18 1bbe
000001b0: e6d9 d4be 7bad acbb f4d6 ff3e 64ad 0c3e
000001c0: 9199 823a e3c5 97be 87bb 303e 8f95 913e
000001d0: b282 d5be 122c b7be 07cb a73e 1155 c73e
000001e0: 4420 c2bc abf4 8fbe 13d5 0ebd e93e 84be
000001f0: 40f4 c8be 7670 b03e 6362 f13c f7a3 41bd
00000200: 727e debd e9af edbd 46bc 1ebe f380 a8be
00000210: b668 d73e 5c81 733e 7897 4bbe 7929 dfbd
00000220: 3163 7e3e 9dbd 31be 388d 313e 1881 3d3e
00000230: 30ab 6abe 9a7f 453e 2158 823d 4219 d23e
00000240: 166c 41be c603 2cbd 4e4e 023f b2c0 34bf
00000250: 4916 803d 5d34 fc3e a775 2abe e12a 013f
00000260: e29d e43e a3fb f43e 0821 e8bc f1ff a73e
00000270: 6b1d 75be 93d9 18be 09d7 3d3e a059 113e
00000280: 74a6 793e f7c7 cd3e 8468 f7be c1ba 7a3e
00000290: 39b8 463e fcda 923e bad3 523e bde8 52bd
000002a0: 7006 9abe 62b2 bf3e 510d 75be 0808 ab3e
000002b0: dcb7 babe d424 b2bd 5202 ef3c 5d8d 833e
000002c0: 370d a93d c7fb 3b3e a385 a93d 6a6a ba3d
000002d0: 3d36 143f 8adc 84be 4c18 a33d cfb6 07be
000002e0: 85d7 4a3f 776a fc3e 5309 483b 95d7 0bbe
000002f0: d9b2 79be bba4 ac3e ac69 b63d e4b8 033f
00000300: a05c aa3e b0cc ca3e 206c c13e 4b71 7abe
00000310: 2804 0b3e 09cf 24bf 2fc8 973e 2964 1c3d
0.19122688 0.5079231 0.462126 -0.43865615 -0.2651987 -0.200169 -0.24959108 0.9429558
0.0013161658 -0.29070264 -0.17095934 -0.30069932 0.19430435 -0.36361465 -0.36162123 -0.4238669
0.6480094 0.2764506 -0.20698844 0.18469232 0.356251 0.07293159 -0.061210494 0.07419974
0.04598162 0.17604399 -0.3210271 0.2522365 0.44671962 -0.33794793 0.3777492 0.47842446
-0.12071074 -0.12870568 0.2658128 -0.27436006 0.37800997 0.11508054 0.29934195 -0.3864058
-0.32912996 0.25585926 0.17289126 -0.43077007 -0.1986194 -0.7156177 -0.3540498 -0.20707548
0.36822048 0.010774011 0.28225595 0.41392902 0.29338202 -0.3598689 0.37672302 0.26374653
0.48983482 -0.44052622 0.31808123 0.34108624 -0.91813195 0.06847697 0.5030201 -0.4149822
0.3217343 0.19826116 0.08560173 0.58895624 0.3849581 0.45288315 -0.017017037 0.39048135
-0.39568743 -0.3374553 -0.04213489 -0.2052182 0.40555644 0.2119591 0.37044448 0.41131347
-0.36115348 -0.0434116 0.12280795 0.23612687 0.3495488 -0.1127611 -0.10514499 0.73028195
-0.054576874 -0.6268948 0.32846928 0.32773748 -0.1577259 -0.09554036 -0.3503908 -0.40936896
0.1891374 -0.21051848 0.44178072 -0.33908936 -0.05358237 0.014076301 0.22534604 0.4733543
0.32687208 0.29446608 -0.12153844 -0.15146108 -0.41572493 -0.005269704 0.49968684 0.13738018
0.0009963979 -0.29643163 0.17259036 0.28434417 -0.41701275 -0.3577581 0.32772085 0.38932088
-0.023697026 -0.28116354 -0.034871172 -0.25829247 -0.39248848 0.344608 0.02946586 -0.04727551
-0.10863961 -0.11605818 -0.15501508 -0.3291088 0.42072076 0.23779815 -0.19882 -0.10896582
0.24842526 -0.17357488 0.17339027 0.18506277 -0.22916865 0.19286957 0.063644655 0.41034895
-0.18888888 -0.041995786 0.50900733 -0.7060653 0.062542506 0.492587 -0.16646443 0.50456053
0.44651705 0.47848234 -0.028336063 0.32812455 -0.23937003 -0.14926748 0.1853906 0.14194345
0.24379903 0.40191624 -0.48321927 0.24485303 0.19406213 0.28682697 0.2058858 -0.051491488
-0.30083036 0.37440783 -0.23930861 0.33404565 -0.364684 -0.08698431 0.029175911 0.2569379
0.08254474 0.18357764 0.08277442 0.09102328 0.5789526 -0.25949508 0.07963619 -0.1325333
0.79235107 0.49299976 0.0030523136 -0.13656457 -0.24384631 0.3371943 0.08906874 0.51453996
0.33273792 0.3960929 0.37777805 -0.2445728 0.13575804 -0.6437841 0.29644915 0.038181458

layers.2.0.weight f4 [200, 200]
00000000: 2bfd c23d c130 d4bc 4782 dabd 4f3a a2bd
00000010: 7c7d 213e 66a4 033e 7935 17bd 9e28 90bd
00000020: 8952 bebd 408d 843d 3244 24be 48dc a5bc
00000030: 4875 a2bd 6235 adbd 1707 273e 55ac c53d
00000040: 89c7 c13c 74f5 63bc d611 06be ac98 083d
00000050: c052 233d cd9e 893d 5976 d6bd 9cbf 45be
00000060: 6b20 bfbd 370e e6bc 8822 0c3e c42c 183a
00000070: ce90 58bd 8a5c f5bd d6ef 53be ac1e e4bd
00000080: f054 d03d d623 e9bd 5e25 03be a655 963d
00000090: 51c4 3cbc 88f5 d5bc a0a8 3bbe 185c 273e
000000a0: d89b 4ebd 7da3 973c b72c 703c 4d52 33be
000000b0: 4b67 62be 2a89 9abb fc7c a13c c553 9ebd
000000c0: 190a 05be 6685 24bd cbb6 4fbd 92f0 033e
000000d0: 0c69 983d e2e7 b63d 5e45 dc3c e61e aebd
000000e0: 1008 a6bc 3709 f7bd 3c34 eabd 57c2 a73d
000000f0: 1045 35bd 6af9 923a da8a 37bd 5d50 8fbd
00000100: 3fab 2cbd 9537 f43c 890e f4bd 9d42 c8bb
00000110: e6d1 0abd 9415 a8bd 6e8a 2ebe cfa7 343d
00000120: 06e8 033e 3447 ea3d f329 77bd bdc8 56bd
00000130: bb51 a53b 6035 1ebe f068 2abc b6d6 d83c
00000140: dca5 4abc 1929 ee3d 44c5 083d 9e41 89bd
00000150: 302b a23d a89a e5bc a2bb 97bd 1826 62bd
00000160: f373 9dbb 22e8 b03c c931 34bc 9c0c 43bc
00000170: e218 c13d b9c8 18bc 0151 dabd db49 f23d
00000180: dfb0 e0bd b1cf 04be f6b6 9b3d 4144 2bbe
00000190: 620b 803c 92fc 49bb 91b6 84bc a137 55bd
000001a0: d750 0d3d 3429 223b c179 89bd e734 f43c
000001b0: cb58 d6bd fe76 80bc b1c5 623d bd41 3cbd
000001c0: 0f54 4abe f9e0 4dbc d75e a73c 98c9 46be
000001d0: 748f 8d3d 4132 c0bd 0b37 c23d 3bed 4bbd
000001e0: d9ce dc3d 0bb8 363d cb6b 18be 9f6b 3abe
000001f0: 5350 0b3e 548a edba 7311 8cbd b434 0ebc
00000200: 5bf8 34bd 6d0d e2bc 80ba 453c 7ef9 0bbe
00000210: 63d5 8c3d 2d41 f0bd 4be6 633d c486 c0bd
00000220: 9d0b 04be 0868 d53d 311f 9d3d 4769 1dbd
00000230: 1cb2 dabd 6752 fdbc 602f 2b3d b074 133c
00000240: f188 4f3d 0fe9 4e3d 42d1 943a 8df5 8dbd
00000250: dfb6 38be 4718 46bd f40c 7bbd 8bb9 1abd
00000260: f5ad df3d da62 943d 65f5 aabb 684a 313c
00000270: 9abd 6a3a b36b 9a3d 224d ee3b e574 9abc
00000280: f52e 053e 4cc8 3fbd 3965 22bd f46f a8bd
00000290: 550a a23d 2b76 1abe 42aa 633d 8f91 16bd
000002a0: 45ee 5dbe a07e b23d 25af 40bd bcd8 0fbe
000002b0: 2863 473e fb63 abbd f332 993c 1f73 b2bc
000002c0: 40c1 503d 6349 fdbb c608 6c3c 0657 e43c
000002d0: f005 5ebc deef ee3d 7b6f ebbd 58d5 ffbd
000002e0: a10d ac3c c8f4 ad38 5ae2 ef3a 698c 053d
000002f0: 7ef1 7ebd f0e1 0ebe 8344 13bd e870 123d
00000300: a296 d1bc 2412 7f3d 6938 ea3d ba7f 073e
00000310: acc6 e63c 57f1 4f3c e79a ff3c 58f1 03be
00000320: 46a7 12be 947d 6a3c a1d7 623d dfde 903d
00000330: 6b11 0ebe 2f0b 10be b3af 993d 2883 1d3c
00000340: c4eb 393d 2242 9cbd 5d83 1a3e b461 bebb
00000350: 655b 853d 4185 0c3e 0327 29be c209 93bd
00000360: 5ada 1c3d e6f4 acbd 18fe 44bb a98c 02bd
00000370: f381 60bd 0895 4dbe 1fd6 05ba a9ce 443e
00000380: 057d 563d fbbb 2f3d e7e3 1abd 7de4 0c3d
00000390: 27bf 073d 0cf4 a83d 58ae cb3d 976b 903d
000003a0: 32b5 b4bc b55c 773d 6a57 793c bf9a 37be
000003b0: f596 b53c 222c f83a 9696 133e c700 9abd
000003c0: 23ba 443d 4905 d8bd 9f80 b5bd 4b3e 9b3c
000003d0: dab6 783e 5884 60bb 7f8a acbd b46d 933d
000003e0: cd3a 923d 0a6e c4bd 67ec cf3d 4609 9abd
000003f0: fab8 bebd c44e 24be ccae 123d 654e 3f3d
0.09520944 -0.025902154 -0.1066938 -0.07921278 0.15770525 0.12855682 -0.03691623 -0.07038997
-0.09293086 0.06472254 -0.1604164 -0.02024664 -0.07932526 -0.084574476 0.16311298 0.0965201
0.023654716 -0.013913501 -0.13092741 0.033348724 0.03987384 0.06719742 -0.10471792 -0.19311374
-0.09332355 -0.02808295 0.13685048 0.00058050104 -0.05287247 -0.11980541 -0.20696959 -0.11138663
0.101724505 -0.11383788 -0.12807223 0.07340555 -0.011521415 -0.026118055 -0.18326044 0.16343725
-0.050441593 0.018510574 0.014659098 -0.17511864 -0.22109716 -0.0047160583 0.019712918 -0.077308215
-0.12992133 -0.04016628 -0.050711434 0.12884739 0.07441911 0.08930947 0.026888546 -0.08501987
-0.020267516 -0.120623045 -0.11435744 0.08191364 -0.044255316 0.0011213247 -0.044810154 -0.0699775
-0.0421555 0.02981166 -0.11916835 -0.0061114565 -0.03389158 -0.08207241 -0.17044994 0.044105347
0.12881479 0.11439362 -0.06034274 -0.052437533 0.0050451434 -0.15450048 -0.010400996 0.02646957
-0.0123686455 0.116289325 0.033391252 -0.067019686 0.079183936 -0.028027847 -0.07408835 -0.05521211
-0.004805082 0.021595065 -0.010998198 -0.011904862 0.09428574 -0.0093252 -0.106599815 0.11830493
-0.109712355 -0.12969853 0.076032564 -0.16725256 0.015630428 -0.003082071 -0.016200336 -0.052055005
0.034500923 0.0024743797 -0.06712676 0.029810382 -0.10466155 -0.01568174 0.055364314 -0.04596113
-0.19758628 -0.012565845 0.020430965 -0.1941284 0.06912127 -0.09384585 0.09483155 -0.049786787
0.107816406 0.04460911 -0.1488487 -0.18205117 0.1360486 -0.001812289 -0.06839266 -0.008679558
-0.044182163 -0.027594293 0.012068391 -0.13669392 0.06876638 -0.11731181 0.055639546 -0.094007045
-0.12895055 0.10420233 0.07671965 -0.03843048 -0.10678503 -0.030923082 0.041793227 0.008999988
0.050667707 0.05051523 0.0011353868 -0.06931601 -0.1803851 -0.048362996 -0.06129165 -0.037774604
0.109218515 0.07245417 -0.0052172416 0.0108209625 0.00089546444 0.07540073 0.0072723785 -0.018854568
0.13006194 -0.046821877 -0.039647315 -0.08224478 0.07912127 -0.1508414 0.055582292 -0.03675991
-0.21672924 0.08715558 -0.04704203 -0.14047521 0.19471419 -0.08368679 0.018701052 -0.02178341
0.050965548 -0.0077296956 0.014406389 0.027873527 -0.01355122 0.11666845 -0.114958726 -0.12491864
0.021002593 8.294877e-05 0.0018301711 0.03260461 -0.062242024 -0.13953376 -0.03595401 0.035752207
-0.025584523 0.06227316 0.11436541 0.13232318 0.028170906 0.012691817 0.031201793 -0.12885034
-0.14321622 0.014312167 0.05538142 0.07073759 -0.13873832 -0.14066766 0.07504215 0.00961379
0.04539086 -0.07629801 0.15089174 -0.005809987 0.06511573 0.13722707 -0.16518788 -0.071795955
0.038294174 -0.08445148 -0.0030058678 -0.031872425 -0.05481143 -0.20076382 -0.0005105454 0.1921946
0.05236532 0.04290388 -0.037815 0.03439759 0.03314128 0.08249673 0.09945363 0.07051771
-0.022059057 0.060391147 0.015218595 -0.17930125 0.022166708 0.0018934051 0.14412913 -0.075196795
0.048029076 -0.10547883 -0.08862423 0.018950602 0.24288502 -0.003425857 -0.084248535 0.071986586
0.071401216 -0.09591301 0.10152512 -0.075213 -0.09312625 -0.16045672 0.03581123 0.046705622

layers.2.0.bias f4 [200]
00000000: 8440 763c b442 f73b 1f20 85bd d649 a2bd
00000010: a379 abbd 124d e83c f5cb cf3d 194b b2bd
00000020: 583d abbb e95f a4bd 1b3e 7ebc 857a a3bd
00000030: 45e8 b3bc e9f4 a23c e83d 2d3c 388b 96bb
00000040: 8149 78bd 7d27 b83d c18f b4bd 2080 e6bb
00000050: 1734 debd 5176 0bbc 24c7 05be c3e1 1bbc
00000060: a67c f4bc 2fff 433d a76d bb3c 3f54 b2bd
00000070: 004e 54bc a750 33bd 8014 82bd 90a3 bb3b
00000080: eb83 a4bd c4f2 143d a55c a4bc 844d 9bbd
00000090: adfb a93d 7d9d 2ebd 8384 a3bd 59e6 8abc
000000a0: f87c 92bb 555a 98bd 4b31 fd3b e158 d13b
000000b0: 31e2 88bd dd87 39bd fce9 133d fbec 683d
000000c0: 3595 eabd 4002 c3bd bf7b 9ebd 6441 cbbd
000000d0: 8cc7 15be 3a52 82bd 1a10 0fbd f65d adbd
000000e0: 91ac 2dbd 6043 d1bd 8313 05bd 7162 ffbc
000000f0: 5b43 aabd 13a6 d1bd 631c 5a3c bf26 593b
00000100: 58be e0bd a838 6ebd 6e17 cabc f8bd 3cbd
00000110: 834f 753d c6b5 57bd bc49 01bd f845 93bd
00000120: 69c4 40bd e8de c4bd 7818 87bd 21b5 23bc
00000130: 43ab e0bd 6b69 263d f1fe 093d 0969 00be
00000140: d01e dabb 293f a9bd 626c 49bc a226 5abd
00000150: d67c b9bd 3fb0 2b3d 93b0 09bd b48f 883d
00000160: c045 f0bd ef93 9a3b fe89 8abd b1ee a43d
00000170: f8ba bfbb 3456 90bd bf74 ecbd 3c52 08bd
00000180: 6d3e e9bd 982e 123c 0f45 01be 86f5 b9bc
00000190: 1b95 d63c 1f02 c7bd 86d6 303d 0337 78bd
000001a0: 5404 3cbe 529f f8bc e5f5 4abd 1821 1bbc
000001b0: 47fa 62bd 0b50 cfbc e7b0 2cbd 886c f4bd
000001c0: 6337 d5b9 6a84 8fbc 9f76 7abd 03ab cebd
000001d0: 1abb de3b d391 da3c 8091 553d 127c ef3c
000001e0: 91da 78bd 14bf 863c 9252 9fbd 7208 b23d
000001f0: d1d2 9abd a73a c2bb b76d 0d3d 80e7 0a3d
00000200: 9dee 29bd d4f8 08bd 3776 22bd ad0f 6fbd
00000210: 6f68 06be cdf1 a9bd 4aeb c9bd 700c ee3c
00000220: 3e80 71bc 458c 503d f070 9fbd b15c 373d
00000230: 774f 743c 4c92 29bd 11fa b7bd c643 6a3d
00000240: b427 43bc dc20 97bd 86a8 36bc 5112 89bd
00000250: 603e 47bc 947d 4abd 6c79 2fbc 6fce 4ebc
00000260: 7991 b63d 20b5 07bd 8896 a63d 3e1d 38bd
00000270: 65a9 ebbd e805 0abe ae52 8bbd fe43 053d
00000280: 4260 fabc dc72 94bd 46b1 bbbb 8553 aabc
00000290: f412 d93b b5ba 0d3e 821d 2dbd 9511 1dbc
000002a0: 1d30 60bc 2ee8 473d b035 d4bc 0cb5 d5bd
000002b0: 2fe1 dfbd 2e75 0dbd d32f 633d 9415 1dbd
000002c0: 5f2c ce3d 8da5 35bd 88b1 16bd 6792 7d3d
000002d0: 62ea 56bb 7415 c5bd d9af 9abd 1c8a 9cbc
000002e0: 06e3 e23d 3e59 f8bd d0dd 673c 3e8f 0a3d
000002f0: 9596 fb3c ac50 f4bc c623 fa3c 24e9 02bc
00000300: cf48 1fbd e6c6 443b 0920 913c 9a87 623c
00000310: e4ad 15be 577b c3bc d03d d7bd 5ec2 c23c
0.01503003 0.0075457934 -0.06500267 -0.07924239 -0.0837281 0.028357062 0.101463236 -0.0870573
-0.0052258186 -0.08026106 -0.015517737 -0.07982353 -0.02196134 0.019892173 0.010573842 -0.004594233
-0.060616974 0.08991907 -0.088164814 -0.0070343167 -0.10849779 -0.008512096 -0.13064247 -0.009514275
-0.029844593 0.047850784 0.022879435 -0.08707475 -0.01295805 -0.043778088 -0.06351566 0.0057262853
-0.08032974 0.03636433 -0.020063708 -0.07583144 0.082999565 -0.04263066 -0.07984259 -0.016955541
-0.004470464 -0.074391045 0.0077268234 0.006388769 -0.066837676 -0.045295585 0.036111817 0.056866627
-0.1145424 -0.095219135 -0.077384464 -0.09924582 -0.14626902 -0.0636334 -0.034927465 -0.08465187
-0.0424009 -0.10217929 -0.03248931 -0.03117487 -0.08313628 -0.10236754 0.013312432 0.0033134667
-0.10973805 -0.0581595 -0.024669375 -0.046079606 0.05989028 -0.052663587 -0.03156446 -0.0719108
-0.04706231 -0.096128285 -0.06596464 -0.009991915 -0.109701656 0.04062788 0.033690397 -0.12540068
-0.006656505 -0.08264 -0.012293907 -0.0532595 -0.09057014 0.04191613 -0.03361566 0.06668034
-0.11732054 0.004717342 -0.06764601 0.08053339 -0.005851146 -0.07047692 -0.11545705 -0.03328155
-0.1138886 0.008922242 -0.12624 -0.022700083 0.026194146 -0.097172014 0.043173335 -0.06059934
-0.18361026 -0.030349407 -0.04955091 -0.009468339 -0.055414464 -0.025306722 -0.042160895 -0.11934763
-0.00040667792 -0.017519195 -0.061148282 -0.10091212 0.0067972066 0.026680863 0.052140713 0.029233966
-0.060755316 0.016448535 -0.07779421 0.08693017 -0.07559741 -0.005927402 0.03452846 0.03391218
-0.041487325 -0.033440426 -0.03966352 -0.05836456 -0.13125776 -0.08298073 -0.09859331 0.029058665
-0.014740048 0.05091502 -0.07785213 0.04476613 0.014911524 -0.041399285 -0.08983243 0.05719354
-0.011911321 -0.07379314 -0.011148578 -0.06692947 -0.012160867 -0.049436167 -0.010710102 -0.01262246
0.089144655 -0.03313172 0.0813418 -0.044949763 -0.11506919 -0.13478816 -0.06802879 0.032535546
-0.030563477 -0.0724847 -0.0057279197 -0.020791778 0.006624574 0.13840754 -0.04226447 -0.009586711
-0.013683346 0.04880541 -0.025904506 -0.104349226 -0.10931622 -0.03453558 0.05546553 -0.038350657
0.10067057 -0.044347335 -0.0367904 0.0619072 -0.0032793512 -0.096232325 -0.075530715 -0.019108824
0.110784575 -0.121263966 0.014152005 0.033828013 0.030711452 -0.029823624 0.030534636 -0.007990155
-0.038887795 0.003002578 0.01771547 0.013826275 -0.14617115 -0.023862524 -0.10509837 0.023774322

layers.3.0.weight f4 [200, 200]
00000000: 6349 db3d f202 9fbd 9183 94bd 2fb2 173e
00000010: c05c 163e 9d59 f73d 08d5 873c 1352 92bd
00000020: e40a 073e 082a a1bd df77 023e 5d15 27be
00000030: 0606 8f3d d498 abbe f04b 023e 1517 ccbd
00000040: 63c1 343d c9c3 933c 543c 773e 5cfc 393e
00000050: 6bd5 1c3e ceda 14bd daa6 22be c6c9 efbd
00000060: d259 803d 2ef0 dabd bcad d1bc 2a24 b4bd
00000070: 117b 4b3e 7c62 013e f6bf 3abe 3270 2bbe
00000080: 7cc3 da3d 19b2 173e 1aeb 79bd c042 803d
00000090: e23d 5ebd b9ff 1a3e f93a 193d 449a f53d
000000a0: da92 9cbd 4591 9cbd 5f77 15be 0d39 adbd
000000b0: ccba febd 58db b53d 95a9 efbc 76eb 92bc
000000c0: cb27 12bf 1294 963d e700 aebd 94e3 21be
000000d0: fb6c 9a3d 36fd e4bd 620d d33d 9127 b93d
000000e0: 4d62 0f3d 4d45 d7bd c2b2 e43d 4d15 f4bd
000000f0: f26f 92bd 5098 113e 9da0 863d 3cf9 f03d
00000100: 7cd7 963d 8264 dc3d 551a 79be a480 17be
00000110: 26f1 893d 4b8a fdbd 0793 bc3d baad ba3d
00000120: 8646 2fbd ffab 1c3e 925c ee3d 7409 a2bd
00000130: d002 9cbe fb01 0bbd 74d7 17bc f3fb 9e3b
00000140: bab3 c8bd 521b 41be 7bd1 4a3e 20ad 1abc
00000150: 9fdd 6e3d 2f58 c33d 3d10 e6bd f937 6e3c
00000160: c2a2 293f 3b04 7fbe 79c2 113e 46da 6e3d
00000170: c848 713d 822a a5bd f5c8 5f3d 58f2 5a3d
00000180: 5852 2e3e 8e56 ad3d a333 8b3e c8b5 ba3e
00000190: 6058 053c 54ba 8b3d 1396 a6bd 974b 82bd
000001a0: 021d 8dbd f447 04bd 95fb 9fbd ffd6 ae3d
000001b0: 955f 73be c11b df3d 4489 2fbe 21f0 abbd
000001c0: f498 fbbd 7f89 003e 580b 4abe 9c07 95bd
000001d0: f472 a6bd df80 d23c 72ad 313c de90 f6bd
000001e0: ae6c 8ebe b1e1 c2bc a9d1 333e e34a 253d
000001f0: 0ac5 6cbb d9b7 09bd 13ec fcbd 3a9f 2f3d
00000200: dd2e 21be b178 03be 67b7 97bd 4ada 483e
00000210: 9ede dcbd 996b 18bd 02d1 4ebd dd35 dcbd
00000220: 9c73 8a3c d090 f4bc 92ae 153e c2e2 a0bc
00000230: 793b 1ebc 99a0 4abe 159c 3abd 1576 1bbd
00000240: 2ce0 03bc 2f15 52be fd71 e8bd 6758 63bf
00000250: fba5 bd3c a7b2 c4bd a63b 6cbd f0b7 f6bd
00000260: eb98 9ebd 7baf 60be 585e 8cbc 10c6 fb3d
00000270: 37d1 0ebf 89fc b73d 2d52 adbd be16 15be
00000280: 59fe 413d b6be e9bc 6049 013e c11a 533e
00000290: 24e1 18be d92d 1b3d 36c9 ccbd 4abf b93d
000002a0: 4f59 f73c 50ef 04be 9960 71bc 24e9 ce3d
000002b0: e9b4 5dbd a4dc b1bd 40cc e63d bdd3 6bbd
000002c0: 6c1b 553d e6e7 80be 82c0 32bd 526b f33d
000002d0: 4fe4 443e f46b 043c 4151 a2bd eb09 04be
000002e0: c871 8abd 6d29 99bd 4276 3abe 6fe7 673d
000002f0: 0225 06be de42 f03d f818 7cbd b744 243e
00000300: 7461 cd3d 8ede fc3d d7c9 063e 5691 0d3e
00000310: 0c27 81bd 3192 cdbc fcf5 18be d073 9abd
00000320: 3fe6 063c dd30 38be f003 55be a9fd 643c
00000330: 99b1 193d ab54 6b3c 8f1f 27bd 0562 19be
00000340: eeea ce3d 6d8b fabd ba24 93bd 5383 3dbe
00000350: 7b14 153d f43b cebe 1a86 babd 787b 00be
00000360: 1182 f33b 4b12 f4bc f9ab 2e3e b68e 093e
00000370: 08cc 6f3d c6dc 21be 035d 03be 9e92 5fbe
00000380: 1708 713d be46 09be 1201 eabc 0345 37be
00000390: 3fe1 83bc f8ac 93bd 75d4 38be 6921 63be
000003a0: 571f 003e c129 4cbd 3caa 43be 7269 523c
000003b0: b5bc ecbd 5962 693d 7af4 4bbd d76c 93bd
000003c0: 9bed b6bd 1e04 61be 84d7 3bbe fce1 40be
000003d0: 27be 15be 3a1a d4bd 161b 4bbe 1154 13be
000003e0: 3bc4 f7be 0928 0fbd 5a81 7bbe 7195 6abe
000003f0: 32ad 79bd c774 f2bd 86b2 aebd 367d c2bd
0.10707357 -0.07764234 -0.07251657 0.14814065 0.14683819 0.12077639 0.016581073 -0.07144561
0.13187748 -0.07869345 0.1274104 -0.16316743 0.06983571 -0.33515036 0.1272428 -0.0996534
0.04412974 0.018037694 0.24144107 0.18162674 0.15315787 -0.03634148 -0.15883961 -0.11708407
0.06267132 -0.10690342 -0.025595538 -0.0879596 0.19871165 0.12635225 -0.1823729 -0.16742018
0.10681817 0.14814033 -0.061015226 0.062627316 -0.054258235 0.15136613 0.037409756 0.119923145
-0.07645197 -0.076448955 -0.14596318 -0.08458147 -0.124379724 0.08879727 -0.029255668 -0.017934542
-0.5709197 0.07352461 -0.08496266 -0.1580947 0.075403176 -0.11181109 0.10305287 0.0904075
0.035005856 -0.10511265 0.11166908 -0.11918125 -0.07150258 0.14218259 0.06573603 0.11766288
0.07365319 0.10761358 -0.24326451 -0.14795166 0.067354485 -0.12379893 0.09207731 0.09115167
-0.042791866 0.15299986 0.1163875 -0.07911959 -0.30470896 -0.033937436 -0.009267677 0.004851812
-0.09799905 -0.18858078 0.19806473 -0.00944069 0.058316823 0.09538304 -0.11233566 0.014539712
0.66263974 -0.24903958 0.14234342 0.05831363 0.0589073 -0.08064748 0.054635007 0.053453773
0.17023599 0.084637746 0.27187833 0.36466813 0.008138746 0.06822649 -0.08134093 -0.06362074
-0.068902984 -0.032295182 -0.07811657 0.08537101 -0.2376693 0.108939655 -0.17142206 -0.0839541
-0.12285033 0.1255245 -0.1973089 -0.07276842 -0.08127394 0.025696216 0.010844575 -0.1203935
-0.2781729 -0.023789259 0.17560448 0.04035462 -0.0036128187 -0.033622596 -0.12349715 0.04287646
-0.15740533 -0.12839009 -0.07408028 0.1961452 -0.10784648 -0.037211988 -0.050492294 -0.10752461
0.01690083 -0.029854208 0.14617375 -0.019639377 -0.009657734 -0.19787826 -0.045559008 -0.03795441
-0.008049052 -0.20515893 -0.113498665 -0.88806766 0.023150435 -0.09604388 -0.057674073 -0.12046802
-0.077440105 -0.2194194 -0.01713483 0.12293637 -0.55787987 0.08983714 -0.084629394 -0.14559457
0.047361705 -0.02853332 0.12625647 0.20615675 -0.14929634 0.03788552 -0.099993154 0.090696886
0.030193953 -0.12981915 -0.014732503 0.10103062 -0.054127607 -0.08684662 0.11269426 -0.057574976
0.052028105 -0.25176924 -0.04364062 0.11885704 0.19227718 0.008082379 -0.07925654 -0.12894408
-0.06759983 -0.074786045 -0.18209174 0.056617197 -0.13100055 0.11731504 -0.06154725 0.16041838
0.10028353 0.123471364 0.13162933 0.13824973 -0.06306276 -0.025094124 -0.14937586 -0.07541621
0.008233606 -0.1798739 -0.20802283 0.013976493 0.037522886 0.014363448 -0.04080158 -0.14978798
0.10103403 -0.122336246 -0.071847394 -0.18507127 0.036396485 -0.40280116 -0.09107609 -0.125471
0.0074312766 -0.029793879 0.1705779 0.13433346 0.05854419 -0.15806875 -0.1282845 -0.21833274
0.058845606 -0.13405892 -0.028564963 -0.1789742 -0.016098617 -0.072107255 -0.18049796 -0.22180714
0.12511955 -0.049844507 -0.19107908 0.012842523 -0.115594305 0.056978557 -0.049793698 -0.07198494
-0.089320384 -0.21974227 -0.18343931 -0.18836206 -0.14623319 -0.10356565 -0.19834551 -0.14387538
-0.483919 -0.03495029 -0.24561062 -0.2290857 -0.060956188 -0.1183868 -0.085301444 -0.09496538

layers.3.0.bias f4 [200]
00000000: bdeb 663d deea ebbc 4a67 f1bd d219 b53d
00000010: f880 bb3b e9d6 e2bb cc40 c2bd 238a 25bc
00000020: 1a38 64bd 9681 5dbd e03c a8bc 857c e43c
00000030: 9efc e2bd a083 1dbc 8ddb 083d d46b 93bd
00000040: f7bd 9f3d dc60 63bd 8d1a 1bbe 8fd5 62bc
00000050: 6f8c 20bd caac 423d b2d4 b73c e315 343c
00000060: 2ce0 50bc ce87 90bd a630 1c3d 1670 08be
00000070: b52d 8dbc d87e ddbd 7140 c7bd 7cb5 673d
00000080: 0995 293c 50ac edbd 5cf3 04be 82d0 7ebd
00000090: 6ff8 22bd 3a86 063e 2fcc 4a3c 0e66 2c3d
000000a0: 1415 cbbd 6bc2 1abd 8314 aa3d 4a40 4a3d
000000b0: 5a2c e83d c4f1 af3d 48d6 93bd afb8 b3bd
000000c0: 3204 bebb 7cc9 dcbd 35e7 2e3c 8a9b b8bd
000000d0: f4b9 8ebd e374 56bc 7e40 bc3c 77d9 dfbc
000000e0: 37ef b83d c604 07bd bb10 94bd 4004 7dbd
000000f0: c869 eb3d 9184 08be 632b f9bd 0b30 61bd
00000100: 1717 cbbd 8334 00bd bf19 5fbd ef54 bcbd
00000110: 48c0 1dbe fa6b 89bb 681a 523d c46c de3d
00000120: 7c1e ecbc c725 04bc ef10 0bbe 3a35 1c3c
00000130: f011 bdbd 632a 00be bffc c53d ed1e 723c
00000140: 68a1 2bbd 666c b53d e0dc 373d 886e 2dbd
00000150: 47dc dcbc 4de3 833c 8bdb 61bd 468b a23d
00000160: 6d0d 053e 609b 07bd 49e7 e9bd 490c afbd
00000170: 617b 1abe 8d7f df3d f079 7ebd 9672 bebc
00000180: 6709 8dbd 9b05 59bd dbe1 d5bd a1fd 933c
00000190: 7460 febd e0a8 c4bd 3d77 6fbb 31c9 8bbd
000001a0: 3a4f 1ebd 3be4 85bd 426a 853c 7b3b 0c3e
000001b0: 18f2 863d ca59 43bc 7785 063e ae8f cebc
000001c0: 94d5 d8bd 42af 70bd 8b0a 2a3d 9667 0dbe
000001d0: 0af2 dd3d 2df5 883d 6290 073e 6e10 473c
000001e0: 1620 03bd edba 563d 72cd 123c bb87 6f3c
000001f0: 4730 523d f9b6 443d fbc6 96ba 17b0 2c3d
00000200: 6c3b 333d 8209 a3bb dc6a 5bbd 6612 e53c
00000210: 5873 0c3e 5fb8 f5bd d43c 003d 3412 b3bc
00000220: bed1 123e 7ea7 ca3d e62f 24be 47be c03d
00000230: 8184 fd3b de7b b0bd 5ec9 aebc 0116 a5bc
00000240: eb0e 9cbd 8153 37bb d9c8 babd fb62 e43d
00000250: f4fa ffbd 077b 0c3e 64dc 703d 7e04 97ba
00000260: 19d2 093e 835c 6dbd b241 023e 4367 c4bc
00000270: d935 b73d 12d4 1bbd 5e6a e9bc 0d57 c0bd
00000280: 1dbf bdbd c5c1 84bb 09c2 1cbe 466b 44bd
00000290: b2eb 63bd c4ab 90bd f076 6abe f7bd 07bd
000002a0: 445e b2bc 8e3d 3b3d cda5 cebd 5117 6cba
000002b0: 7c0c 0cbc f2f1 883d 036a b03d 5005 e1bd
000002c0: c7c8 50bd 050a 763d b0ec ed3d a1b2 de3c
000002d0: a015 6fbc f856 16be c707 653d b8e3 babd
000002e0: 50a7 93bd 55d2 a6bc 44de 16bc 6c49 91bd
000002f0: 0ba7 9d3c b68a ff3c 0257 a3bd 847f 15be
00000300: 7d76 70bd 9603 233e dca6 523d 5fa4 85bd
00000310: b59f 0abe 5ce8 04bd 5d2f a8bd 46fa ea3d
0.05637716 -0.028798517 -0.11787279 0.088428155 0.0057221614 -0.006922592 -0.09485015 -0.010103735
-0.055717565 -0.05407866 -0.02053684 0.027891407 -0.11083339 -0.009613901 0.033412505 -0.07198301
0.07799905 -0.055512294 -0.15146847 -0.013844862 -0.039196428 0.047528066 0.022440288 0.010991546
-0.012748759 -0.07057153 0.038132332 -0.13324007 -0.017233709 -0.10815209 -0.09729088 0.05656956
0.010350474 -0.116051316 -0.12983459 -0.062210567 -0.039787706 0.13137141 0.012377783 0.042089514
-0.0991613 -0.037783068 0.083046935 0.049377717 0.113365844 0.08591035 -0.07218605 -0.0877546
-0.00579884 -0.107806176 0.010675241 -0.09014042 -0.069690615 -0.013089391 0.022979971 -0.027325375
0.090300016 -0.032963537 -0.072297536 -0.06177163 0.114947855 -0.1333182 -0.121664785 -0.054977458
-0.099165134 -0.03130008 -0.054467913 -0.09195887 -0.1540538 -0.00419378 0.051294714 0.10860589
-0.02882313 -0.008065647 -0.13580678 0.009534175 -0.09231937 -0.12516169 0.09667348 0.014777881
-0.041901976 0.08858566 0.044888377 -0.04234174 -0.026960505 0.016099596 -0.055141013 0.079367206
0.12993403 -0.03310716 -0.11421067 -0.08547265 -0.15086128 0.10913 -0.062128007 -0.023247998
-0.06886559 -0.05298386 -0.10443469 0.018065276 -0.12420741 -0.09602523 -0.0036539577 -0.068254836
-0.038649775 -0.06537672 0.01628602 0.13694565 0.065891445 -0.011923263 0.1313685 -0.025214996
-0.10587612 -0.05876089 0.04151396 -0.13809046 0.10837181 0.066873886 0.13238671 0.012149913
-0.03201302 0.05242436 0.008960115 0.014619763 0.051315572 0.04802606 -0.0011503393 0.04216012
0.04375784 -0.0049754987 -0.053568706 0.027962875 0.13715875 -0.119980566 0.03130801 -0.021859266
0.14337823 0.09895228 -0.16033897 0.094112925 0.007736743 -0.08617376 -0.021336254 -0.020152094
-0.07620033 -0.0027973356 -0.0912034 0.111516915 -0.124990374 0.13718806 0.05880393 -0.0011521725
0.13459052 -0.057949554 0.12720373 -0.02397502 0.089458175 -0.038044043 -0.028493103 -0.093916036
-0.092649676 -0.0040514194 -0.15308394 -0.047953866 -0.0556447 -0.07064012 -0.22896934 -0.03314015
-0.021773465 0.045713 -0.10090218 -0.000900616 -0.008547898 0.066867724 0.0861397 -0.109873414
-0.050972726 0.06006815 0.1161741 0.027184786 -0.014592558 -0.14681613 0.05591562 -0.09125465
-0.07209647 -0.020363966 -0.009208266 -0.07094082 0.019244691 0.031194072 -0.0797558 -0.14599425
-0.05870675 0.15919337 0.05142866 -0.06525492 -0.13537486 -0.032448158 -0.08212159 0.11473517

layers.4.weight f4 [1, 200]
00000000: 1647 edbd ec0f a1bd 199d 033e aeb6 f53d
00000010: fb6e ff3d 0830 e43d 8b30 1d3e 5dbc be3d
00000020: 32a3 b0bd c183 7d3e 7463 013e e61f b4bd
00000030: b0e5 1d3e 3d08 c33d 214d af3d 0ca7 193e
00000040: 8033 e5bd e0b4 ba3d ebd2 8b3e 6f90 c53d
00000050: c738 0fbe b3de 1d3e ee3d ef3d c9e4 1c3e
00000060: 7792 bf3d 95f4 79bd 2a03 fcbd 5656 fcbd
00000070: 230d ad3d 3c9d 84bd 773d 27bd 5f31 d03d
00000080: 8326 a0bd ca03 afbd 6343 93be 9763 95bd
00000090: b215 fb3d aed3 2a3e ccae f6bd b925 c03d
000000a0: 439a dabd 529c d5bd e160 ed3d 508f ee3d
000000b0: f19d 0abe fa2d aebd 6959 a4bd dcdb dd3d
000000c0: 1ba6 c0bd bbe8 cebe 1965 e13d bba0 0e3e
000000d0: 3974 fe3d 901d 76bd 48a0 ee3d 644e 0cbe
000000e0: c3bf 0b3e ac50 f03d 130b ecbd d404 153e
000000f0: 4499 c1bd b532 423e 7da8 0fbe e203 a63d
00000100: b00f b4bd cbd4 f4bd 44ed ec3d 43da 783d
00000110: 22fb a43e cd4f d53d 9639 c0bd 4eec f9bd
00000120: fa4c a2bd df9e 91bd 2715 46be 6c75 8cbd
00000130: 46b2 8d3e a356 a8bd 5d47 c3bd cda0 cfbd
00000140: 71df fdbd 9e29 103e 3a3d bebd 020a 04be
00000150: 2959 b7bd 481c c1bd 3c55 d1bd f573 243e
00000160: a21c 243e 806a fcbd a836 debd 909f 0b3e
00000170: bdce cc3e ba6a e5bd 8f66 c33d 6da8 74bd
00000180: bdba abbd 6081 3dbe 3632 833e 90f2 083e
00000190: f95f c3bd c72a bfbd 91a0 0d3e abc0 7d3d
000001a0: 785b f83d 7fc0 8fbe 5585 bfbd 62de 09be
000001b0: 2cbb 05be d062 ee3d 5dda c2bd 54c6 02be
000001c0: 23ce 1abe e0ae 8ebd 8779 0fbe 20c7 0fbe
000001d0: f744 093e a3ad 273e ca79 f7bd 88a1 a1bd
000001e0: 1ecc 64bd c643 2b3e 9d55 263e 6306 93bd
000001f0: 4e1e 09be dd26 163e 0929 83bd 244a d43d
00000200: fa88 2f3e ebb6 213e f8ee 15be 8974 f63d
00000210: c5d0 03be b9ff 7d3e c190 cebd f6a8 babd
00000220: ff72 30be 867d 12be d6b3 05c0 cd59 0cbe
00000230: 44e3 133e a68c 943e 0b2e 1d3e c4e0 073e
00000240: aefd f93d bed3 ecbd e727 73bd 14bb 133e
00000250: bdfd 403e 8bc8 e2bd 4e60 ffbd 5204 063e
00000260: afd3 c9bd 213b b73d c597 cdbd bd69 e5bd
00000270: e8f4 153e 4db1 41be 9e0c bcbd bba7 b03d
00000280: dd70 a0bd 92f5 f33d 01e4 d43e 7deb 413e
00000290: b40f bc3d aeb4 523e ce4a 1640 fa29 573e
000002a0: 5437 e53d 456c dcbd 3663 173e 9580 0d3e
000002b0: 313f e03d 9413 dbbd 1c40 16be 02e9 74bd
000002c0: 9667 0a3e ec89 dabd 7a64 1b3e 8531 ed3d
000002d0: 42cf eebd 6016 223e 2704 f33d 05ab 123f
000002e0: 3601 0d3e 9889 883e b5d7 8ebd 0254 90bd
000002f0: 8701 b6bd 23f4 ba3d 0abf d8bd ef79 633e
00000300: f45b 343e 659a cfbd 52c0 353e 6613 00be
00000310: 155e a3bf cede 8abd 8f43 05be e311 01be
-0.11585824 -0.07864365 0.12852897 0.11997734 0.1247234 0.11141974 0.15350549 0.09313271
-0.08624877 0.24757291 0.12635595 -0.08795147 0.1541965 0.09523056 0.08559633 0.1500513
-0.111914635 0.091165304 0.27309355 0.09646689 -0.13986503 0.15416984 0.11681734 0.1532165
0.09354108 -0.061024267 -0.12305291 -0.12321155 0.08449771 -0.064753026 -0.0408301 0.10165667
-0.078198455 -0.085456446 -0.2876235 -0.07294386 0.122599974 0.16682312 -0.120450586 0.09382195
-0.10673954 -0.10430206 0.11590744 0.116484284 -0.13536812 -0.08504863 -0.08024866 0.108329505
-0.09406682 -0.40411934 0.11005611 0.13928501 0.124245115 -0.060086787 0.11651665 -0.13701779
0.1364737 0.11734137 -0.1152555 0.14552623 -0.09453061 0.18964656 -0.14029117 0.08106209
-0.08792055 -0.119546495 0.11568692 0.060755026 0.3222285 0.104156114 -0.09385984 -0.12203275
-0.07924838 -0.071103804 -0.19344006 -0.06858334 0.27675074 -0.0821965 -0.09535096 -0.10138092
-0.12396134 0.14078376 -0.09289022 -0.12894443 -0.08952553 -0.09429222 -0.10221335 0.16059859
0.16026548 -0.12325001 -0.108502686 0.13635087 0.4000148 -0.11201997 0.09541046 -0.059730936
-0.08385227 -0.18506384 0.25624245 0.1337378 -0.0953979 -0.09334331 0.13830782 0.06195132
0.12126821 -0.2807655 -0.09351603 -0.13463739 -0.13059682 0.11639941 -0.09514306 -0.12770969
-0.15117697 -0.069669485 -0.14011203 -0.14040804 0.13405214 0.16374831 -0.12083776 -0.07892138
-0.055858724 0.16725072 0.16243596 -0.071789525 -0.13390467 0.14663263 -0.06404311 0.10365704
0.17142096 0.15792434 -0.1464194 0.12033946 -0.12872608 0.24804582 -0.10086203 -0.09114258
-0.17231368 -0.14305696 -2.0891013 -0.13706131 0.14442164 0.29013556 0.15349595 0.13269335
0.12206589 -0.11563824 -0.059364226 0.14426833 0.18846793 -0.11073407 -0.124695405 0.13087586
-0.098548286 0.08946825 -0.10038713 -0.112018086 0.14644206 -0.18915291 -0.09182094 0.08625742
-0.07834027 0.11912073 0.41580203 0.18937488 0.09182683 0.20576736 2.3483157 0.21012107
0.111921936 -0.10762838 0.1478394 0.13818581 0.10949553 -0.106970936 -0.14672893 -0.059792526
0.13516077 -0.10670838 0.15175048 0.11581711 -0.11660625 0.15828848 0.11866026 0.57292205
0.13769993 0.26667476 -0.069747366 -0.07047273 -0.0888701 0.09128597 -0.10583313 0.22214483
0.17613202 -0.1013687 0.17749146 -0.125074 -1.2763087 -0.06780778 -0.13014053 -0.1260448
