LPSDA/exp_kdv/0/deltamodel.pt (torch, 407458 bytes, 20 tensors)

fc1.weight f4 [256, 3]
-0.0037997458 0.3102974 -0.4744835 -0.42614454 -0.22317699 0.15345651 -0.012745433 0.45648926
-0.04934832 0.15241592 -0.17275396 -0.11383141 -0.5529368 -0.3838877 -0.23820294 0.02249336
0.22982538 0.3453092 -0.3893012 -0.25022122 0.21087646 0.47983953 -0.117334306 0.4319242
-0.09249095 0.06295022 0.52288926 -0.5341023 -0.36139 -0.14563139 -0.22412789 0.5001801
-0.3734015 -0.26653287 -0.4028478 -0.54037136 -0.3357553 0.49836218 0.25977114 0.27888823
0.029195428 -0.29627246 0.09707799 -0.5401004 -0.4175166 -0.29620165 0.3651927 0.3403653
-0.25906512 -0.020248832 0.36663693 0.57713634 0.23006147 0.07678503 0.38817695 -0.3409086
0.1090818 -0.447296 -0.40011483 -0.2989089 0.2602825 0.23106918 -0.34209678 0.1747126
0.31640452 -0.073820345 0.022264998 0.1328469 0.35627657 0.55580455 -0.4449841 -0.21024628
0.22518128 0.4770527 0.50158924 0.51019984 0.11425241 -0.5041498 0.05251534 -0.361792
-0.5391763 0.51313376 0.43815836 -0.5752695 0.10651876 -0.0974934 -0.09455103 -0.26550114
0.22090052 -0.3425084 0.21137516 0.29100496 0.4140463 0.21711896 -0.5724339 -0.3755006
0.2897554 0.121640824 -0.449219 -0.33147615 0.5429448 0.38917923 -0.2516141 -0.14441864
-0.5491848 -0.008649097 -0.4353279 -0.4448238 -0.030042145 0.08731598 -0.23636235 0.3464566
-0.34973627 0.5250912 0.39683115 -0.4895374 -0.14222333 0.025863528 0.08526168 0.13589433
0.22719526 0.035328984 -0.28181568 0.27096754 -0.5546789 -0.34172305 -0.1463942 -0.2798805
-0.20039594 -0.4745254 -0.122944415 0.12263613 -0.37718794 -0.029118255 0.41244882 -0.058188915
0.017786488 -0.051404443 0.11937089 0.3674644 0.5501021 0.37107778 0.54899216 -0.04095318
-0.52070796 -0.2741171 0.39304355 -0.0040284107 -0.28559503 -0.4398827 -0.54193276 -0.4866517
-0.11581896 0.3185446 0.3132202 -0.5561414 0.36271468 -0.4546572 -0.11985734 -0.23670235
-0.112033315 -0.1118566 -0.519527 -0.50011504 -0.08864371 0.0061148438 -0.26261964 0.21605271
-0.52039564 -0.039265376 0.5072211 -0.23186846 0.5218762 0.21200688 -0.52029705 0.36502823
-0.06436041 -0.25793135 0.4624397 -0.4655521 0.05874578 -0.12255233 0.40949908 0.16138473
0.27847743 0.2041491 -0.1386605 -0.120336466 -0.47452632 0.3129809 0.45760018 0.397163
-0.40822393 0.02510208 -0.40742016 -0.32057226 -0.3374809 0.19517016 -0.3448528 -0.010934064
0.022616139 0.37210524 -0.43689403 -0.39573315 -0.3342486 0.4053307 -0.20711023 0.48932523
0.20896356 0.07294673 -0.0061718384 -0.1135943 0.07096107 -0.13087611 -0.0028790813 0.07305195
-0.45334673 -0.30398667 0.4653131 -0.47055778 -0.041206025 0.5698712 0.20727997 0.015901288
-0.49983495 0.28635383 -0.4122804 -0.16323462 -0.19621274 -0.0850968 0.004243531 0.4762814
0.07346154 0.51599276 0.35069034 -0.3675798 0.25700882 -0.40958503 -0.24316189 0.16967198
0.18636037 0.43137708 -0.18543307 0.0020562792 0.29831776 -0.5572724 0.4180349 -0.47667146
0.007840869 -0.0973428 -0.30531287 0.076737516 0.47892663 -0.167544 -0.34187707 -0.21148449
00000000: 2805 79bb 4ddf 9e3e 80ef f2be 9e2f dabe
00000010: 8288 64be b423 1d3e 38d2 50bc f6b8 e93e
00000020: 7721 4abd eb12 1c3e 6ae6 30be 7120 e9bd
00000030: 448d 0dbf ee8c c4be 79eb 73be ff43 b83c
00000040: 5857 6b3e 5ecc b03e 7d52 c7be ff1c 80be
00000050: 00f0 573e 87ad f53e f84c f0bd 2b25 dd3e
00000060: e56b bdbd 0cec 803d 12dc 053f eeba 08bf
00000070: 1c08 b9be 6520 15be c881 65be ce0b 003f
00000080: 7b2e bfbe ff76 88be 1142 cebe c755 0abf
00000090: 1ee8 abbe 5429 ff3e b900 853e 70ca 8e3e
000000a0: 402b ef3c 06b1 97be d3d0 c63d 0544 0abf
000000b0: bcc4 d5be bea7 97be 8afa ba3e 5c44 ae3e
000000c0: 2fa4 84be e1e0 a5bc d6b7 bb3e 35bf 133f
000000d0: 3c95 6b3e 7841 9d3d 21bf c63e 928b aebe
000000e0: 4766 df3d fb03 e5be dadb ccbe 960a 99be
000000f0: bf43 853e 669d 6c3e 4f27 afbe dce7 323e
00000100: c6ff a13e 1f2f 97bd 1665 b63c 0509 083e
00000110: e269 b63e 3549 0e3f f5d4 e3be cd4a 57be
00000120: ec95 663e 4040 f43e 2768 003f 759c 023f
00000130: 2bfd e93d f60f 01bf 531a 573d cd3c b9be
00000140: 7507 0abf bc5c 033f 4b56 e03e dd44 13bf
00000150: 8226 da3d 9faa c7bd f8a3 c1bd c4ef 87be
00000160: bf33 623e 435d afbe bb72 583e 9afe 943e
00000170: e0fd d33e 6f54 5e3e 078b 12bf 9d41 c0be
00000180: d25a 943e d31e f93d 0800 e6be 3eb7 a9be
00000190: 6efe 0a3f 8042 c73e 90d3 80be 7be2 13be
000001a0: 6097 0cbf f1b4 0dbc 4ce3 debe f2bf e3be
000001b0: f21a f6bc b8d2 b23d f908 72be c262 b13e
000001c0: a210 b3be 606c 063f 742d cb3e a5a4 fabe
000001d0: fea2 11be c0df d33c ad9d ae3d e227 0b3e
000001e0: e0a5 683e 20b5 103d 254a 90be 42bc 8a3e
000001f0: 70ff 0dbf 53f6 aebe 5ce8 15be 7f4c 8fbe
00000200: 9834 4dbe fef4 f2be 48ca fbbd a728 fb3d
00000210: c71e c1be 6889 eebc 7e2c d33e 8057 6ebd
00000220: f8b4 913c 778d 52bd ba78 f43d 4b24 bc3e
00000230: 7ed3 0c3f e8fd bd3e c08a 0c3f 86be 27bd
00000240: 1e4d 05bf 1459 8cbe 013d c93e c200 84bb
00000250: 8339 92be 4e38 e1be 1bbc 0abf 692a f9be
00000260: 7e32 edbd 4718 a33e 665e a03e 485f 0ebf
00000270: bdb5 b93e d4c8 e8be c477 f5bd 1a62 72be
00000280: b971 e5bd 1315 e5bd b9ff 04bf 8a07 00bf
00000290: d58a b5bd 075f c83b 1576 86be ec3c 5d3e
000002a0: a638 05bf bbd4 20bd 3ed9 013f ed6e 6dbe
000002b0: ae99 053f 5518 593e 3032 05bf fbe4 ba3e
000002c0: 64cf 83bd 940f 84be e5c4 ec3e d85c eebe
000002d0: 6a9f 703d b7fc fabd dda9 d13e 0a42 253e
000002e0: 9894 8e3e 760c 513e 05fd 0dbe f772 f6bd
000002f0: 1df5 f2be 083f a03e 924a ea3e f358 cb3e
00000300: ba02 d1be e1a2 cd3c 6099 d0be 0c22 a4be
00000310: 4cca acbe b0da 473e 8c90 b0be ca24 33bc
00000320: 7b45 b93c 9484 be3e 93b0 dfbe 899d cabe
00000330: a222 abbe 8187 cf3e b414 54be d688 fa3e
00000340: 8bfa 553e 1865 953d 223d cabb 21a4 e8bd
00000350: 0a54 913d 6304 06be f8ae 3cbb 439c 953d
00000360: 101d e8be 24a4 9bbe 853d ee3e f3ec f0be
00000370: a6c7 28bd 14e3 113f 3341 543e 6b43 823c
00000380: 5eea ffbe f89c 923e 6b16 d3be fa26 27be
00000390: feeb 48be 3b47 aebd 510d 8b3b 28db f33e
000003a0: 0173 963d 1a18 043f af8d b33e 6b33 bcbe
000003b0: a996 833e 21b5 d1be 6eff 78be 7ebe 2d3e
000003c0: 41d5 3e3e 75dd dc3e 2be2 3dbe a4c2 063b
000003d0: 1bbd 983e 67a9 0ebf ac08 d63e 480e f4be
000003e0: fd76 003c a95b c7bd f851 9cbe 8f28 9d3d
000003f0: df35 f53e a890 2bbe 830a afbe 648f 58be

fc1.bias f4 [256]
-0.44254258 -0.17049687 0.1874471 -0.5060044 0.31503803 0.30145463 0.35957474 -0.36784375
0.5749421 -0.3406988 0.57748556 -0.5558466 -0.51298946 0.35344562 0.059257854 0.034050837
-0.32214215 -0.2399016 -0.16649064 -0.5620492 0.028692551 0.10146902 -0.0005234723 0.18745992
0.54494846 0.15349054 -0.21181235 -0.23754178 -0.37152362 -0.4009088 -0.09373436 -0.10197417
0.25820312 -0.24552023 0.46064502 -0.40479192 0.0031737895 0.52147573 0.5753706 -0.33374077
0.10333571 0.065208256 -0.27092773 -0.20018363 0.1545909 -0.4001474 0.09711935 0.25380528
-0.22936511 0.4796411 -0.03929651 0.26350495 0.5743039 -0.17979798 0.3123028 -0.1666964
-0.085543446 -0.09522165 -0.0034033998 -0.21833389 0.13169989 0.020690842 0.36626324 -0.11696076
0.055905193 -0.21729821 -0.48351768 0.23308751 0.07516918 -0.2296194 -0.19689755 0.15205397
-0.10637798 0.37583485 0.03153102 0.21756572 0.25001895 -0.14168385 0.2477654 0.42445126
0.022631312 0.11372662 0.02087329 0.4001972 -0.24223773 -0.3050537 0.2525966 -0.50460166
0.009667416 -0.26299706 0.38242537 -0.53698766 0.35087615 0.57154816 0.117197655 -0.04073075
0.56780255 -0.24819735 -0.04890698 -0.25404578 -0.08047387 0.12616779 0.07666535 -0.10954764
-0.5763499 0.0319581 -0.0164549 0.08436016 0.44561532 0.55915284 -0.34063724 -0.036516704
-0.23264314 -0.53440136 -0.41894454 0.54652476 0.33637658 0.31100005 0.3194676 -0.4571165
0.06010383 0.5349319 -0.32213977 0.5112985 0.15101543 0.40802392 -0.24873582 0.2641818
-0.5111739 -0.037986428 0.19353618 0.17489608 0.4828537 0.56875265 0.52564615 0.38589245
0.4070563 -0.07389594 -0.44836557 -0.21298483 -0.0637649 -0.31368253 0.29542822 0.2014788
0.09453534 0.14010252 0.5056899 0.21010269 -0.5071278 -0.41934276 0.2534372 0.07968815
0.28246447 -0.5783253 -0.5320161 0.35677952 0.36740434 -0.52229595 0.21766056 -0.45232552
0.43803826 0.18289372 0.57036614 -0.5703854 -0.5543377 0.39166567 0.51282185 0.35100716
0.38284117 -0.4873249 0.4151343 -0.5471888 0.12782499 -0.37684777 -0.229265 0.10504463
-0.22875759 -0.09121576 -0.5483394 -0.5438567 0.22395225 -0.24564636 -0.34920126 -0.22736782
-0.47220647 -0.46187714 0.34674764 0.2943432 0.07852102 -0.31325546 0.1927942 0.025366256
-0.41439888 0.12562893 0.5296962 -0.5699965 -0.5723376 0.07443406 0.43292636 -0.35364953
0.12628987 0.40771925 0.17707905 0.12651497 0.57336384 0.37621537 -0.32664523 0.048798233
0.29435852 0.508904 -0.5788319 0.3119797 -0.16780232 -0.5636613 0.12914474 -0.31272203
0.083623156 -0.373945 -0.4349581 -0.047112152 -0.19601953 0.338162 0.051075112 0.4491784
0.11104265 -0.18447568 0.39256555 0.030503396 0.10904788 -0.18492693 0.0025578935 -0.11066511
-0.04715891 -0.44957277 -0.0040533054 -0.47881928 -0.12324289 0.3321213 -0.40039402 -0.39112222
-0.13884254 -0.16037533 0.096199274 0.09665733 0.29100436 -0.3969799 -0.040727 0.32454637
0.49966466 -0.04042657 -0.33579344 0.16686386 0.33012927 -0.36179587 -0.33646744 0.25351653
00000000: f194 e2be bb96 2ebe 22f2 3f3e 8189 01bf
00000010: aa4c a13e 4358 9a3e 2e1a b83e 0456 bcbe
00000020: 682f 133f 1370 aebe 18d6 133f f64b 0ebf
00000030: 4753 03bf d3f6 b43e 5db8 723d e478 0b3d
00000040: d1ef a4be c4a8 75be 867c 2abe 75e2 0fbf
00000050: a40c eb3c fdce cf3d a239 09ba 7ef5 3f3e
00000060: be81 0b3f a02c 1d3e 56e5 58be 273e 73be
00000070: 5838 bebe eb43 cdbe cdf7 bfbd d5d7 d0bd
00000080: 3333 843e a869 7bbe aad9 eb3e e340 cfbe
00000090: 5aff 4f3b 6f7f 053f 7d4b 133f 12e0 aabe
000000a0: aca1 d33d e88b 853d 0ab7 8abe f0fc 4cbe
000000b0: 144d 1e3e 1fe0 ccbe 83e6 c63d c4f2 813e
000000c0: b0de 6abe 8593 f53e 61f5 20bd 1fea 863e
000000d0: 9505 133f f61c 38be 27e6 9f3e 76b2 2abe
000000e0: 6731 afbd 9203 c3bd 930b 5fbb eb92 5fbe
000000f0: 56dc 063e d77f a93c db86 bb3e 1f89 efbd
00000100: d8fc 643d 6c83 5ebe a18f f7be 7eae 6e3e
00000110: 4df2 993d 5921 6bbe 839f 49be 09b4 1b3e
00000120: b3dc d9bd 6d6d c03e ac26 013d 8cc9 5e3e
00000130: 7c02 803e 9215 11be 37b6 7d3e ad51 d93e
00000140: 4d65 b93c 81e9 e83d 76fe aa3c a6e6 cc3e
00000150: 2b0d 78be 0030 9cbe 5754 813e 932d 01bf
00000160: 1564 1e3c 8da7 86be 42cd c33e 0678 09bf
00000170: 0aa6 b33e fb50 123f 5305 f03d 49d5 26bd
00000180: 825b 113f 7227 7ebe af52 48bd 4a12 82be
00000190: 7ccf a4bd 2132 013e b902 9d3d 835a e0bd
000001a0: ab8b 13bf 7fe6 023d 6dcc 86bc 05c5 ac3d
000001b0: b127 e43e a424 0f3f 0168 aebe 8a92 15bd
000001c0: 013a 6ebe 87ce 08bf e67f d6be 0ce9 0b3f
000001d0: 8d39 ac3e 663b 9f3e 4291 a33e 2d0b eabe
000001e0: 6f2f 763d 4cf1 083f 81ef a4be 75e4 023f
000001f0: caa3 1a3e 83e8 d03e 9ab4 7ebe d642 873e
00000200: 4bdc 02bf a897 1bbd 592e 463e f517 333e
00000210: 9a38 f73e c699 113f bf90 063f b293 c53e
00000220: af69 d03e c156 97bd 2c90 e5be b218 5abe
00000230: 2c97 82bd ff9a a0be 5e42 973e 7550 4e3e
00000240: bf9b c13d 0977 0f3e e574 013f 2925 573e
00000250: 21d3 01bf 18b4 d6be 85c2 813e 8a33 a33d
00000260: 2f9f 903e 200d 14bf 3532 08bf ceab b63e
00000270: 6c1c bc3e 30b5 05bf 69e2 5e3e 3697 e7be
00000280: 8d46 e03e 7e48 3b3e 8403 123f c704 12bf
00000290: 13e9 0dbf 6788 c83e 4b48 033f 36b7 b33e
000002a0: c203 c43e a682 f9be 7c8c d43e 9114 0cbf
000002b0: 8ee4 023e 31f2 c0be 72c4 6abe a421 d73d
000002c0: 6e3f 6abe 54cf babd f95f 0cbf 313a 0bbf
000002d0: bd53 653e b88a 7bbe 82ca b2be 1cd3 68be
000002e0: 0cc5 f1be 297b ecbe e888 b13e 27b4 963e
000002f0: a1cf a03d 0563 a0be d86b 453e e5cc cf3c
00000300: 172c d4be dfa4 003e 2c9a 073f 4aeb 11bf
00000310: b884 12bf e270 983d 86a8 dd3e 8d11 b5be
00000320: 2252 013e 94c0 d03e 3654 353e 248d 013e
00000330: f9c7 123f 4d9f c03e 0b3e a7be a8e0 473d
00000340: 29b6 963e 8847 023f 542e 14bf cebb 9f3e
00000350: 5fd4 2bbe 1b4c 10bf 853e 043e 1a1d a0be
00000360: 9e42 ab3d b875 bfbe d4b2 debe acf8 40bd
00000370: 58b9 48be 9223 ad3e 2334 513d b6fa e53e
00000380: 546a e33d 31e7 3cbe 5afe c83e 42e2 f93c
00000390: 7f54 df3d 7c5d 3dbe 55a2 273b 64a4 e2bd
000003a0: b429 41bd 672e e6be 97d1 84bb cd27 f5be
000003b0: c566 fcbd ce0b aa3e 7200 cdbe 2c41 c8be
000003c0: bd2c 0ebe 6e39 24be 2004 c53d 47f4 c53d
000003d0: 86fe 943e f340 cbbe 5bd1 26bd f12a a63e
000003e0: 0cd4 ff3e 5596 25bd 1eed abbe 5cde 2a3e
000003f0: b406 a93e 4f3d b9be 7645 acbe ebcc 813e

fc2.weight f4 [256, 256]
-0.004626877 -0.060406763 -0.034574803 0.021857593 -0.024230778 0.044544213 0.048419602 0.008422444
-0.0038270121 -0.022259496 -0.0022799806 0.008414418 -0.048633143 -0.013767188 -0.05360976 0.03763096
-0.04093519 0.059908636 -0.016364397 -0.038266398 0.030540153 0.0109348 0.04293779 0.02626678
-0.058281936 0.039913595 -0.013999564 -0.027442558 0.037158135 0.04499252 -0.054705042 -0.0071977717
0.051728584 0.022951443 0.051961564 -0.023922436 -0.034691386 0.054895755 0.026644632 0.05934722
-0.025592314 -0.041290022 -0.010840507 -0.0603074 0.023291348 0.044585925 0.015730463 -0.0042802054
0.029693179 -0.04082331 0.057413176 -0.061765444 -0.05921561 -0.017718105 0.048477616 0.0049322536
0.022134183 -0.04536699 0.022734288 -0.006993958 0.024754236 0.04641348 0.02656861 -0.003931639
-0.004733536 -0.040389992 -0.024089945 0.039762806 -0.024693912 0.041514892 -0.026602397 -0.014256412
0.00016694966 -0.05827859 -0.0009401632 -0.0063653635 -0.0056946147 -0.012219258 0.04996642 0.04531426
-0.041256648 0.029037347 -0.04881041 -0.05301042 0.01792292 -9.5716685e-05 -0.031405106 -0.061116617
-0.024916224 0.021897541 -0.0591584 -0.06327072 0.008830612 -0.04414032 -0.05398108 -0.02311113
-0.009662174 -0.056160934 -0.0430538 0.0033746825 -0.059671793 -0.008766133 -0.03848912 -0.045611482
0.023745518 -0.047487073 -0.04404963 0.034906056 0.014727358 0.058281068 -0.018194417 -0.030327654
-0.004977219 -0.001612501 0.04786628 -0.059628654 -0.004067461 0.029480368 -0.033019353 -0.033177886
0.027782114 -0.05786771 0.0133281 -0.048331894 0.029522825 -0.0526059 0.03883143 -0.058889024
-0.052561793 0.0010241668 0.048598796 -0.05486995 -0.02686112 0.05773231 -0.008225172 0.02651163
-0.059469018 -0.018665062 -0.033916883 0.051297415 0.024475101 -0.04572668 0.008699174 -0.0006208606
-0.025095414 -0.03601552 -0.021761846 0.04777352 -0.04519941 -0.045265976 -0.01750107 0.0008386166
0.017315011 -0.001391232 -0.015911343 -0.0370823 -0.012221864 -0.024233602 0.049135093 -0.061500657
-0.041829597 -0.050060812 -0.008666313 0.047249172 0.054156385 -0.05561353 -0.0016528008 0.038948584
0.028921604 0.050008904 -0.00042403946 -0.04310373 0.040394228 -0.022220079 0.030450435 -0.014640919
0.025691584 0.054997973 0.05661684 -0.058311112 -0.041057676 -0.027518414 -0.04127784 0.05854854
-0.0061157406 -0.04403221 -0.027614022 -0.035470482 0.026195897 -0.054857273 -0.056506798 -0.06311571
0.025812997 0.030691335 -0.037538048 0.014285099 0.046719633 0.008001726 -0.012611415 0.005173519
-0.008759872 0.03204695 -0.04297701 0.03101914 0.036773264 -0.03455751 0.051172927 0.06155734
-0.025434243 -0.017621437 0.030922558 -0.047417715 0.022265265 0.012643446 0.039486654 -0.05490483
-0.05349823 0.028019678 0.021015968 -0.057489272 -0.03631048 -0.058009326 -0.04396627 -0.027609974
0.05201321 -0.011108694 0.037254225 0.056671754 0.030106634 -0.056810003 0.030962659 0.023756387
0.048476074 -0.062592395 0.037754137 0.05005312 -0.058031663 0.004526824 0.053492226 -0.04632512
0.020246083 0.026216296 0.016815264 0.06087247 0.050983083 0.052987583 -0.009592376 0.053822692
-0.055565257 -0.0357804 -0.014703875 -0.015922295 0.058600597 0.028257512 0.039445154 0.041361082
00000000: 0f9d 97bb 156d 77bd 4f9e 0dbd b20e b33c
00000010: a07f c6bc fe73 363d a253 463d 4afe 093c
00000020: 9cce 7abb 8c59 b6bc ba6b 15bb a1dc 093c
00000030: 8c33 47bd c68f 61bc e895 5bbd ec22 1a3d
00000040: a8ab 27bd c262 753d a10e 86bc 3abd 1cbd
00000050: 582f fa3c e027 333c 89df 2f3d 6e2d d73c
00000060: 0ab9 6ebd 707c 233d 6d5e 65bc 37cf e0bc
00000070: 2133 183d 144a 383d 6512 60bd 49db ebbb
00000080: 5ae1 533d aa04 bc3c a6d5 543d fcf8 c3bc
00000090: 8e18 0ebd 5fda 603d d845 da3c 1216 733d
000000a0: f9a6 d1bc ba1f 29bd 629c 31bc e404 77bd
000000b0: 7fcd be3c bb9f 363d 2cdd 803c f740 8cbb
000000c0: 1c3f f33c 5836 27bd 142a 6b3d c3fd 7cbd
000000d0: 118c 72bd 8f25 91bc 7790 463d be9e a13b
000000e0: bf52 b53c bdd2 39bd 423d ba3c 922d e5bb
000000f0: 65c9 ca3c 101c 3e3d 6aa6 d93c fad4 80bb
00000100: c71b 9bbb fa6f 25bd 4758 c5bc 53de 223d
00000110: e34a cabc 850b 2a3d 45ed d9bc ba93 69bc
00000120: 350f 2f39 88b5 6ebd 4975 76ba 8a94 d0bb
00000130: e499 babb 4833 48bc 97a9 4c3d 729b 393d
00000140: bbfc 28bd bbdf ed3c 6ded 47bd 7421 59bd
00000150: 16d3 923c 81bb c8b8 a4a2 00bd 6b55 7abd
00000160: 1c1d ccbc 7962 b33c 1450 72bd 1494 81bd
00000170: 45ae 103c 7bcc 34bd 441b 5dbd 8d53 bdbc
00000180: 184e 1ebc 0209 66bd 2e59 30bd c729 5d3b
00000190: 696a 74bd d49f 0fbc c4a6 1dbd 1bd3 3abd
000001a0: f685 c23c ce81 42bd 636d 34bd a7f9 0e3d
000001b0: 044b 713c 21b8 6e3d 750c 95bc b371 f8bc
000001c0: f017 a3bb 8e5a d3ba 6f0f 443d 2d3d 74bd
000001d0: 5648 85bb d080 f13c 4d3f 07bd 89e5 07bd
000001e0: 5197 e33c b106 6dbd 1a5e 5a3c aaf7 45bd
000001f0: dad9 f13c 4979 57bd b50d 1f3d 9e35 71bd
00000200: 094b 57bd 563d 863a 880f 473d 50bf 60bd
00000210: da0b dcbc b778 6c3d dfc2 06bc eb2e d93c
00000220: c995 73bd 79e7 98bc 6eec 0abd 3d1d 523d
00000230: 0280 c83c e64b 3bbd fb86 0e3c 40c1 22ba
00000240: e694 cdbc 0385 13bd e645 b2bc 2bae 433d
00000250: 0423 39bd d168 39bd 675e 8fbc 9bd6 5b3a
00000260: 36d8 8d3c 005a b6ba 8158 82bc 9ce3 17bd
00000270: 373e 48bc 8c85 c6bc e141 493d 1de8 7bbd
00000280: 8355 2bbd 910c 4dbd 27fd 0dbc 5988 413d
00000290: 16d3 5d3d 03cb 63bd cba2 d8ba 8d88 1f3d
000002a0: 00ed ec3c 23d6 4c3d 9d51 deb9 898d 30bd
000002b0: 6b74 253d e206 b6bc 3173 f93c 77e0 6fbc
000002c0: 2877 d23c 8e45 613d 0fe7 673d a2d7 6ebd
000002d0: 182c 28bd 4c6e e1bc f412 29bd 98d0 6f3d
000002e0: 8d66 c8bb 1e5b 34bd cd36 e2bc 7f49 11bd
000002f0: c798 d63c 05b2 60bd ac73 67bd cf42 81bd
00000300: c775 d33c 656c fb3c 7fc1 19bd 0c0c 6a3c
00000310: 165d 3f3d ac19 033c 1ca0 4ebc 9f86 a93b
00000320: 9185 0fbc aa43 033d a908 30bd da1b fe3c
00000330: 909f 163d 2d8c 0dbd b49a 513d 8d23 7c3d
00000340: 795b d0bc d55a 90bc 4e51 fd3c 1439 42bd
00000350: a565 b63c 7526 4f3c c2bc 213d e3e3 60bd
00000360: f620 5bbd 8689 e53c ae29 ac3c df79 6bbd
00000370: 4cba 14bd 309b 6dbd fa15 34bd 502e e2bc
00000380: ce0b 553d 3d01 36bc e397 183d a420 683d
00000390: 30a2 f63c 9bb1 68bd 67a5 fd3c c19c c23c
000003a0: d98e 463d 7130 80bd 15a4 1a3d 8004 4d3d
000003b0: 9cb2 6dbd c155 943b aa1a 5b3d 69bf 3dbd
000003c0: 1ddb a53c 8fc3 d63c 2ac0 893c 6955 793d
000003d0: a3d3 503d 8209 593d 5729 1dbc 2f75 5c3d
000003e0: 6598 63bd 788e 12bd 86e8 70bc 796f 82bc
000003f0: 2e07 703d 4c7c e73c 3e91 213d 3d6a 293d

fc2.bias f4 [256]
0.030205924 0.004195724 0.0032632207 0.047191493 -0.0018218657 0.004836571 -0.0023687351 0.059405666
-0.06250776 0.023920355 -0.032452162 0.009207551 0.044973757 0.03355742 0.030251779 0.022094281
0.04159237 0.060954846 0.059251092 -0.010874467 -0.05133332 -0.013402647 0.052383758 0.04154037
-0.04446783 0.023102531 -0.029845629 0.05402034 0.0595786 -0.033287413 -0.022060394 -0.019165948
0.026930977 0.045806807 -0.01811307 -0.01212224 0.008615851 0.02508017 0.016253078 0.03985403
0.049497183 0.017627133 -0.036473673 0.0041454397 -0.034166023 0.03338488 0.059584945 0.028879134
0.026488533 -0.050942928 0.04266963 -0.038351722 0.016204845 0.03082499 0.04202921 -0.004335839
-0.025079962 0.045894206 -0.028494671 0.03621752 0.06282019 -0.0010794909 0.01871712 0.051321182
-0.028401058 0.011040403 -0.06282456 -0.020279972 0.03233649 0.03129889 0.029377192 0.052424368
0.0255884 0.040502276 -0.027217092 -0.007027746 0.046589434 -0.010012457 0.03615118 0.024333062
0.05643452 0.057198133 0.055890862 0.046357412 0.04421466 0.029996406 -0.021344911 0.026513658
-0.050856262 -0.018861089 -0.0030993663 -0.02001101 -0.028993765 0.04463581 0.021985013 0.049099743
0.03904393 -0.037098624 -0.0020477343 -0.050648488 -0.009150037 -0.021639595 0.05658259 -0.053102206
0.020572923 -0.05151666 -0.037162494 0.04782121 0.0021570006 -0.0533725 -0.011986878 0.016607432
-0.047731966 0.026650377 -0.011560883 0.05666687 -0.041249745 0.002972402 -0.020385198 -0.038169067
0.0120140575 -0.062973715 -0.00067043904 0.028877405 -0.023734141 -0.012645155 -0.026737131 -0.05189112
-0.04321626 0.034022346 -0.055134304 0.012369257 0.016379243 -0.047915913 -0.06095005 -0.018623328
-0.0025464026 -0.02097555 0.004857767 -0.009718147 -0.01996858 0.026860643 0.011142721 -0.05951862
-0.06129578 0.023868503 -0.05345042 -0.025810549 0.03298456 0.02414642 0.022585444 0.0065809106
-0.024985373 0.056958564 0.03894182 0.057415288 0.01366064 -0.014581207 0.0032047674 0.031920727
0.0013545285 0.0031086775 0.011165173 -0.04005617 0.02548744 0.04348171 0.0140673965 -0.061812516
-0.03712341 -0.025125403 -0.051111728 -0.028667463 0.0065675317 0.061062913 0.008755363 0.022967692
0.01911598 0.041840684 0.023906974 -0.043655682 0.0154306125 0.055155825 0.06363887 0.044186875
-0.038090445 -0.038307346 0.026462516 0.04722817 -0.03370053 0.04984561 -0.02077689 0.04270841
0.0017423054 0.03164276 -0.06123233 -0.02913277 -0.044863567 0.04576682 -0.058624286 0.043166466
-0.01573814 0.032706466 0.040828727 0.038801666 -0.04063773 0.03178881 -0.050543707 -0.019040529
-0.05107901 0.023646388 -0.06106735 0.052955847 -0.017650787 -0.022546262 -0.044361815 0.023976248
-0.0075822487 -0.014395588 0.011671672 -0.05258817 0.031637914 -0.0107094925 0.006549676 0.0051370068
0.03671517 0.008756079 0.0143624935 -0.061098605 0.0009943155 0.032854635 0.025549041 -0.0049118763
-0.004745696 0.04319749 0.01996813 -0.03257853 -0.050591514 0.011796055 0.056289613 0.05710377
-0.049564555 0.0047620046 -0.060989585 -0.03561296 -0.05378159 -0.011518572 0.051965136 0.024379639
0.0033033479 0.016453713 -0.049150966 0.00030807854 0.040539153 0.016354807 -0.011092743 0.0555696
00000000: 6a72 f73c 497c 893b c2db 553b de4b 413d
00000010: abcb eeba 197c 9e3b c83c 1bbb 5b53 733d
00000020: 1204 80bd 9ff4 c33c 8fec 04bd 45db 163c
00000030: 6736 383d 8173 093d 94d2 f73c 11ff b43c
00000040: c35c 2a3d caab 793d 46b1 723d d22a 32bc
00000050: e342 52bd c796 5bbc 5a90 563d 3c26 2a3d
00000060: e623 36bd 8541 bd3c d27e f4bc 6f44 5d3d
00000070: b108 743d 6258 08bd 00b8 b4bc e801 9dbc
00000080: 5a9e dc3c eb9f 3b3d dc61 94bc 5c9c 46bc
00000090: 8029 0d3c ee74 cd3c 2d25 853c fb3d 233d
000000a0: 8fbd 4a3d c766 903c 6b65 15bd 78d6 873b
000000b0: acf1 0bbd 95be 083d 580f 743d ef93 ec3c
000000c0: 7bfe d83c 88a9 50bd 5ac6 2e3d b216 1dbd
000000d0: 06c0 843c b084 fc3c d226 2c3d a713 8ebb
000000e0: 7e74 cdbc 90fb 3b3d a86d e9bc d258 143d
000000f0: dfa7 803d b47d 8dba a554 993c 2936 523d
00000100: 56a9 e8bc cee2 343c 2aaa 80bd 2f22 a6bc
00000110: 4473 043d 4433 003d 70a8 f03c efba 563d
00000120: c49e d13c b7e5 253d 61f6 debc 0249 e6bb
00000130: 90d4 3e3d 4a0b 24bc 4213 143d 2156 c73c
00000140: e227 673d 9748 6a3d d1ed 643d 45e1 3d3d
00000150: 6e1a 353d 06bb f53c 86db aebc 2c33 d93c
00000160: a84e 50bd 9282 9abc bd1e 4bbb 21ee a3bc
00000170: 5584 edbc 0ad4 363d ea19 b43c d01c 493d
00000180: 87ec 1f3d baf4 17bd 4833 06bb ca74 4fbd
00000190: 09ea 15bc 8545 b1bc 25c3 673d b381 59bd
000001a0: 8c88 a83c 2203 53bd b337 18bd 2ce0 433d
000001b0: 775c 0d3b 1f9d 5abd 9c64 44bc 4f0c 883c
000001c0: 9882 43bd e451 da3c dc69 3dbc 851b 683d
000001d0: 7ef5 28bd a1cc 423b dcfe a6bc 2b57 1cbd
000001e0: 9cd6 443c 5df8 80bd 67c0 2fba 4f90 ec3c
000001f0: 1a6e c2bc a02d 4fbc d407 dbbc c88b 54bd
00000200: 8803 31bd 045b 0b3d 82d4 61bd 6da8 4a3c
00000210: c32d 863c 7a43 44bd c2a6 79bd f38f 98bc
00000220: 8ce1 26bb ebd4 abbc e72d 9f3b dd38 1fbc
00000230: 2695 a3bc da0a dc3c f68f 363c ccc9 73bd
00000240: 4911 7bbd e187 c33c d4ee 5abd a570 d3bc
00000250: d11a 073d b7ce c53c 1c05 b93c aea4 d73b
00000260: 20ae ccbc 624d 693d 7581 1f3d 4b2c 6b3d
00000270: e1d0 5f3c 04e6 6ebc 1307 523b 4fbf 023d
00000280: 6f8a b13a f4ba 4b3b 21ee 363c f011 24bd
00000290: 09cb d03c e119 323d f07a 663c 1f2f 7dbd
000002a0: b70e 18bd cad3 cdbc 885a 51bd 07d8 eabc
000002b0: 7334 d73b 1b1d 7a3d a772 0f3c be26 bc3c
000002c0: 1e99 9c3c 2361 2b3d 8fd8 c33c 4dd0 32bd
000002d0: aed0 7c3c 13eb 613d 1955 823d 4cfd 343d
000002e0: ba04 1cbd 2ae8 1cbd ebc7 d83c 5372 413d
000002f0: 9109 0abd e92a 4c3d 4c34 aabc 04ef 2e3d
00000300: 115e e43a d79b 013d c0ce 7abd d9a7 eebc
00000310: dcc2 37bd fd75 3b3d 0520 70bd 52cf 303d
00000320: 46ed 80bc 37f7 053d 063c 273d 7fee 1e3d
00000330: c073 26bd fc34 023d eb06 4fbd e2fa 9bbc
00000340: 3938 51bd 12b6 c13c c221 7abd 3be8 583d
00000350: 6298 90bc f0b2 b8bc bcb4 35bd d669 c43c
00000360: 8374 f8bb 79db 6bbc 8a3a 3f3c b166 57bd
00000370: c296 013d de76 2fbc aa9e d63b 5654 a83b
00000380: a562 163d a875 0f3c aa50 6b3c 8842 7abd
00000390: b153 823a 9592 063d 394c d13c cef3 a0bb
000003a0: c981 9bbb daef 303d 3494 a33c 1171 05bd
000003b0: 0c39 4fbd 3e44 413c f08f 663d a5e5 693d
000003c0: 3404 4bbd 970a 9c3b 37d0 79bd e5de 11bd
000003d0: 164a 5cbd 65b8 3cbc 65d9 543d cfb7 c73c
000003e0: fb7c 583b f0c9 863c 8652 49bd 9a85 a139
000003f0: 620c 263d 84fa 853c 56be 35bc f39c 633d

smallfc.0.0.weight f4 [32, 256]
-0.047362845 -0.030086756 -0.015575347 0.05192639 0.042048182 -0.050455898 0.053934038 -0.053489838
-0.062178407 -0.023090439 -0.059236996 0.038012385 0.008604976 0.027666135 -0.016466275 0.05762108
-0.052548192 -0.027026916 -0.04782771 -0.018413113 -0.05782094 -0.038358912 0.039566692 0.023347208
-0.05147873 0.016148388 0.011626283 0.046799377 0.05319234 0.014409948 -0.022238912 0.020991875
-0.05045028 0.01714519 -0.024956774 -0.02306169 0.019093132 -0.030502446 -0.035719287 -0.04539962
-0.022861343 0.03924019 0.050555736 0.039772946 -0.021025492 -0.028710922 -0.011256724 -0.02999163
0.03191772 -0.00855565 -0.03509036 0.008294719 0.0003600271 0.010013299 0.031043604 0.019806745
0.020749329 0.023134556 -0.044924557 0.029010449 -0.013671747 -0.04998994 -0.0172398 -0.016060563
-0.010998597 0.03756163 -0.022578489 -0.036905736 -0.034047488 -0.032117248 0.041192103 0.03379913
0.019115781 0.03785518 -0.0051421 -0.044891223 0.06058881 -0.047896866 0.057005137 0.04651857
0.010475732 0.050365984 0.041485548 -0.052701823 -0.059910916 0.009346332 -0.05205098 0.020280678
0.007753109 -0.014016301 0.03769472 0.030209213 -0.025284763 0.051686343 -0.006915543 -7.3335075e-05
0.0016223283 -0.022052582 -0.052231636 0.049171317 -0.017964646 -0.042410076 0.019455628 0.021284802
0.044591933 -0.022444464 -0.022571947 0.0336342 -0.032738432 -0.0023088446 -0.0010685796 0.015100011
0.06081898 0.061752006 0.046221066 -0.051911093 -0.028074084 -0.053739585 -0.024071049 0.056162544
0.046408426 -0.00905764 -0.004237642 -0.007603055 -0.041769613 -0.06188132 0.005585467 0.058277816
-0.018970484 0.034710877 0.02211292 -0.051969916 -0.017883785 0.02961266 -0.0200686 -0.0624682
0.051938035 0.024830777 -0.03736765 -0.06075167 -0.011786007 0.06352202 -0.04253987 -0.017335868
0.040904306 -0.05604552 0.00048704573 -0.036478177 0.047752395 0.017687775 -0.03369742 -0.054978576
-0.039179884 0.0239825 0.011287107 0.029399645 0.022236904 0.06203404 -0.043978978 -0.010248135
-0.020844156 -0.054426346 -0.019826319 -0.05579803 0.019254483 -0.035363298 0.03938827 -0.05576764
-0.018536355 -0.014869158 0.058430362 0.040901553 0.05643071 0.042862326 -0.045541793 -0.05952922
-0.04524374 0.027406778 0.049456306 0.009496206 0.023324631 -0.039377812 0.019858101 0.054514077
-0.016627243 -0.03722072 0.01895232 -0.020967625 0.019825667 -0.007747285 -0.01834729 0.06019156
-0.034198876 0.027682431 0.036472414 -0.012161139 0.018233364 0.02384835 -0.01841487 0.055048004
0.060725518 0.0379572 -0.061640486 -0.021229094 0.028211122 -0.01910959 0.02059007 -0.004522718
-0.028587086 -0.042942025 0.03008815 0.032539926 0.05539906 -0.01724 -0.02516536 -0.03832145
0.059965987 0.0014841018 -0.05985923 -0.05301151 0.03300786 -0.054022558 -0.06133382 -0.03957958
0.0019411206 0.018288694 -0.055336654 -0.041570988 0.04441272 -0.013796497 0.060978916 -0.0037944173
0.037942585 -0.02978721 0.023014797 0.043010853 -0.040657643 0.044030655 0.05469501 0.05100364
0.052273355 -0.027164856 0.052935313 0.024976823 -0.004401466 -0.029640729 -0.052310586 0.05420933
-0.014995546 -0.056856073 0.062128592 0.03882554 0.054868855 -0.0033872628 0.034480818 0.050153695
00000000: 8bff 41bd 8078 f6bc bd2f 7fbc c4b0 543d
00000010: b73a 2c3d d8aa 4ebd f0e9 5c3d 2918 5bbd
00000020: c9ae 7ebd 2928 bdbc 7ea2 72bd e0b2 1b3d
00000030: e3fb 0c3c 17a4 e23c 48e4 86bc 1504 6c3d
00000040: c63c 57bd 8d67 ddbc fde6 43bd 19d7 96bc
00000050: a6d5 6cbd 3c1e 1dbd af10 223d a542 bf3c
00000060: 5cdb 52bd a049 843c 2a7c 3e3c b4b0 3f3d
00000070: 36e0 593d b417 6c3c 612e b6bc 27f7 ab3c
00000080: f4a4 4ebd 1274 8c3c 2672 ccbc dfeb bcbc
00000090: 3369 9c3c 44e0 f9bc 634e 12bd f4f4 39bd
000000a0: b647 bbbc 52ba 203d 8813 4f3d f5e8 223d
000000b0: a73d acbc 2b33 ebbc 1f6e 38bc 02b1 f5bc
000000c0: 28bc 023d ff2c 0cbc e9ba 0fbd 93e6 073c
000000d0: 05c2 bc39 d20e 243c 284f fe3c c141 a23c
000000e0: 7ffa a93c ae84 bd3c d002 38bd 52a7 ed3c
000000f0: 77ff 5fbc 40c2 4cbd 7b3a 8dbc 7191 83bc
00000100: 7633 34bc 39da 193d 86f6 b8bc 782a 17bd
00000110: 6175 0bbd 608d 03bd 0db9 283d f570 0a3d
00000120: b398 9c3c 090e 1b3d 107f a8bb dcdf 37bd
00000130: f92b 783d 812f 44bd 387e 693d 428a 3e3d
00000140: 68a2 2b3c 904c 4e3d c0ec 293d dedd 57bd
00000150: 2665 75bd 5c21 193c 6933 55bd aa23 a63c
00000160: cb0d fe3b a1a4 65bc c765 1a3d 5079 f73c
00000170: fe21 cfbc 0fb5 533d c89b e2bb 78cb 99b8
00000180: 4ea4 d43a 9ea7 b4bc d7f0 55bd dd67 493d
00000190: 982a 93bc 30b6 2dbd 6961 9f3c 775d ae3c
000001a0: 08a6 363d 74dd b7bc cee8 b8bc 04c4 093d
000001b0: bc18 06bd fc4f 17bb 950f 8cba 0966 773c
000001c0: 531d 793d acef 7c3d 4d52 3d3d baa0 54bd
000001d0: 9ffb e5bc 0a1e 5cbd a630 c5bc b20a 663d
000001e0: c316 3e3d 7f66 14bc ebdb 8abb 0c23 f9bb
000001f0: 9d16 2bbd 4477 7dbd 4b06 b73b b8b4 6e3d
00000200: fd67 9bbc fe2c 0e3d 2826 b53c 68de 54bd
00000210: 0481 92bc 4096 f23c e866 a4bc a8de 7fbd
00000220: fabc 543d ea69 cb3c d20e 19bd bed6 78bd
00000230: 191a 41bc d517 823d 493e 2ebd f303 8ebc
00000240: 468b 273d fd8f 65bd 2c5a ff39 246a 15bd
00000250: 0498 433d f4e5 903c 4e06 0abd 3731 61bd
00000260: 167b 20bd f376 c43c 8fed 383c 86d7 f03c
00000270: 2b2a b63c 6817 7e3d 4d23 34bd cbe7 27bc
00000280: 5dc1 aabc 29ee 5ebd ce6a a2bc 7a8c 64bd
00000290: 94bb 9d3c 1bd9 10bd 9855 213d 9c6c 64bd
000002a0: 8ed9 97bc c59d 73bc ad54 6f3d 6388 273d
000002b0: e323 673d 6890 2f3d 088a 3abd e9d4 73bd
000002c0: 8051 39bd 2e84 e03c b292 4a3d fa95 1b3c
000002d0: 4c13 bf3c a14a 21bd 75ad a23c 274a 5f3d
000002e0: db35 88bc c174 18bd e541 9b3c 4cc4 abbc
000002f0: 7069 a23c f0dc fdbb 0e4d 96bc 6d8b 763d
00000300: 1f14 0cbd 44c6 e23c 1964 153d 843f 47bc
00000310: 235e 953c 9d5d c33c c8da 96bc 047a 613d
00000320: 52bb 783d 0279 1b3d bc7a 7cbd a3e8 adbc
00000330: 031b e73c b78b 9cbc 82ac a83c 4f33 94bb
00000340: 772f eabc fae3 2fbd 6d7b f63c 9648 053d
00000350: 20ea 623d e73a 8dbc 9627 cebc f4f6 1cbd
00000360: e59e 753d 3186 c23a f42e 75bd 9922 59bd
00000370: 4033 073d c246 5dbd 2c39 7bbd 331e 22bd
00000380: 336d fe3a 2cd2 953c b0a8 62bd 5746 2abd
00000390: 1dea 353d b40a 62bc 07c5 793d c2ab 78bb
000003a0: af69 1b3d 4f04 f4bc 8789 bc3c 262c 303d
000003b0: a188 26bd 7d59 343d e007 603d 31e9 503d
000003c0: 961c 563d d588 debc b3d2 583d 329c cc3c
000003d0: 2c3a 90bb 1dd1 f2bc a043 56bd 9a0a 5e3d
000003e0: e1af 75bc eae1 68bd 8d7a 7e3d 8807 1f3d
000003f0: 2abe 603d d7fc 5dbb c23b 0d3d f66d 4d3d

smallfc.0.0.bias f4 [32]
0.015400823 -0.01605587 0.020053668 -0.009576347 -0.0020413972 -0.059468705 0.0379252 -0.06540105
0.0031882997 -0.04258713 0.058674883 0.03177235 -0.023648987 -0.0020570222 0.030659813 -0.035630226
0.042639773 0.05927494 -0.02709447 0.037005983 0.0433867 -0.055759642 -0.030865198 -0.062220268
-0.043444898 -0.05340701 0.00013422027 0.03907875 0.023131007 -0.0040402072 0.0613296 -0.052015133
00000000: bc53 7c3c 9a87 83bc 9747 a43c 1ce6 1cbc
00000010: f6c8 05bb 7595 73bd 7457 1b3d fcf0 85bd
00000020: cbf2 503b d86f 2ebd 1355 703d b923 023d
00000030: 85bb c1bc 1bcf 06bb 4a2a fb3c 00f1 11bd
00000040: 0ba7 2e3d 48ca 723d 39f5 ddbc 9693 173d
00000050: 41b6 313d 3964 64bd 03d9 fcbc aeda 7ebd
00000060: 47f3 31bd 4fc1 5abd 7bbd 0c39 0a11 203d
00000070: 3d7d bd3c b763 84bb bf34 7b3d d20d 55bd

smallfc.0.2.weight f4 [3, 32]
-0.13189042 0.14014462 -0.1195687 0.16760416 -0.05730054 -0.15405025 -0.1311129 0.097644635
-0.016260006 -0.082521275 -0.0054315855 0.010096593 -0.01229579 0.09764495 -0.03510557 -0.07078363
0.11888175 0.13212712 -0.034915294 -0.08624019 0.052800473 0.09052142 -0.01393123 -0.078571655
-0.11241699 -0.17461081 -0.03373198 -0.06758211 -0.017124906 -0.12507123 -0.07979948 0.13424604
-0.16374797 -0.09032636 0.13056038 0.06471084 0.15614071 0.013869606 0.1085354 0.11729395
0.14145055 -0.0101988055 -0.12932642 -0.13574332 -0.13952504 0.10247798 -0.17312774 0.014877559
0.047528036 0.095467135 0.03466599 0.09629655 0.052644543 0.16554104 0.06081336 -0.033735886
-0.06533163 -0.14984411 -0.033429436 -0.0018507632 0.08691926 -0.07895129 -0.15073812 -0.076750115
-0.10659029 0.104850784 -0.16280982 -0.17176431 -0.14379841 0.09156443 -0.16584134 0.015422419
-0.013204973 0.14146033 -0.13889898 0.16288888 -0.052115597 0.08625511 -0.062125932 0.044125468
0.13910842 -0.09727148 -0.14334835 0.0024781611 0.09103385 0.05785649 -0.05576024 -0.17253357
-0.16033293 0.10792433 0.118488066 -0.08764737 0.16050088 -0.15777116 0.15671192 -0.096253596
00000000: 480e 07be 1282 0f3e 6fe0 f4bd 6da0 2b3e
00000010: f9b3 6abd 59bf 1dbe 7642 06be e9f9 c73d
00000020: b433 85bc ea00 a9bd 71fb b1bb 2e6c 253c
00000030: 4874 49bc 13fa c73d dcca 0fbd 02f7 90bd
00000040: 4678 f33d 554c 073e 5703 0fbd b29e b0bd
00000050: 4f45 583d 4b63 b93d d03f 64bc 2dea a0bd
00000060: e13a e6bd 2dcd 32be 8b2a 0abd 7d68 8abd
00000070: 8849 8cbc ac12 00be e96d a3bd cb77 093e
00000080: 8cad 27be 07fd b8bd 9fb1 053e 1e87 843d
00000090: 5ae3 1f3e 583d 633c cf47 de3d cf37 f03d
000000a0: 6ad8 103e e418 27bc 256e 04be 4c00 0bbe
000000b0: a7df 0ebe fadf d13d 6648 31be 01c1 733c
000000c0: c2ac 423d 4684 c33d edfd 0d3d 2037 c53d
000000d0: cea1 573d 9783 293e 6e17 793d a42e 0abd
000000e0: 97cc 85bd bc70 19be 4eed 08bd 4f95 f2ba
000000f0: ba02 b23d 37b1 a1bd 185b 1abe 2a2f 9dbd
00000100: 034c dabd 02bc d63d 9eb7 26be fce2 2fbe
00000110: e43f 13be 2286 bb3d 50d2 29be 50ae 7c3c
00000120: ac59 58bc fada 103e 893b 0ebe 58cc 263e
00000130: 2a77 55bd 85a6 b03d c377 7ebd e8bc 343d
00000140: 7072 0e3e 4536 c7bd e9c9 12be a568 223b
00000150: f56f ba3d edfa 6c3d d964 64bd a4ac 30be
00000160: 512e 24be 6e07 dd3d dfa9 f23d 7780 b3bd
00000170: 585a 243e c38e 21be 1779 203e 9b20 c5bd

smallfc.0.2.bias f4 [3]
-0.07456596 -0.16119759 0.13343796
00000000: 0ab6 98bd fb10 25be f6a3 083e

smallfc.1.0.weight f4 [32, 256]
-0.057964325 0.011462131 -0.030479282 -0.0399516 0.039590806 0.039507423 -0.014676588 0.05750419
-0.053538445 -0.011281356 -0.010386791 0.009540093 0.015487937 0.053174976 0.049819436 -0.0054665385
-0.04490613 0.058258574 -0.01891859 0.05431832 -0.05565981 0.050777942 0.038779724 -0.0041120346
-0.04212845 -0.04576573 -0.004597988 0.037369292 -0.017366173 -0.046250943 -0.025143676 -0.051625337
-0.051146142 0.03336989 -0.002097362 -0.01516825 -0.03922486 0.0124719925 0.029306477 -0.022020413
0.040013373 -0.0388101 -0.006634883 -0.023563925 -0.05931195 -0.06322557 0.06414545 -0.016079007
-0.011019804 0.041066524 -0.058154333 0.019081136 0.02605173 -0.061888535 0.063828416 0.022319078
-0.017887346 0.051949885 -0.05638136 0.046674624 0.0008538757 -0.0050326083 -0.057650343 0.0027688108
-0.030895209 0.059528746 -0.06296476 -0.01614732 0.00081155804 0.016707959 0.04718553 0.030199742
0.018744247 -0.031346038 -0.053716842 -0.050547205 0.0062037976 0.04231485 0.025025815 0.010721957
0.019176986 0.056593906 0.0023209853 0.009320745 -0.029027497 0.015583799 -0.0020616509 -0.039583948
0.040425204 0.025036722 0.056534447 -0.033086263 0.018732566 -0.057555076 0.028351817 0.041643485
-0.038161527 0.024095826 -0.022538194 0.054689195 -0.032903872 -0.009986081 0.049951103 -0.008262405
-0.047629315 0.0378465 -0.027375255 -0.02465119 -0.040009126 0.05759396 -0.044188626 0.058360025
-0.00530332 -0.06005119 0.0043987897 -0.011918318 -0.047080047 -0.0080656605 -0.00047501532 -0.014114901
-0.045778364 0.03003239 -0.0546819 0.0142032355 -0.046075337 -0.017956661 -0.056299172 0.0073910146
0.041370235 -0.02815531 0.021380687 -0.034810763 -0.0025526134 0.0034153296 -0.039208915 0.059087373
-0.051086348 -0.016204268 -0.044416502 0.048049845 0.032382388 0.052417237 0.05117166 0.04996179
0.02348609 0.053992324 0.007910413 0.036610357 -0.02155154 -0.049797766 -0.05642793 0.037116274
0.0538828 -0.039491195 0.009071901 0.011127583 -0.011724058 -0.031798806 -0.019373277 0.035850696
0.016608417 -0.04226345 0.027437242 0.06318445 0.021431135 0.003895203 -0.04910438 0.016769115
0.033717815 -0.03011871 -0.022539474 -0.0043471665 -0.0036476161 0.02965669 0.04207519 -0.013221868
-0.03647763 -0.060120493 0.028435858 -0.04794564 0.04415722 -0.046596386 -0.015706021 0.048048537
0.055547617 -0.046198867 -0.06321318 0.04806401 -0.018340312 0.037808362 0.05467511 -0.0348121
0.041273728 0.04207696 -0.021035744 0.041516256 -0.0032341238 -0.031981885 0.019122828 0.019949539
-0.05349081 0.05689144 -0.023617633 0.045555964 -0.042645745 0.044057287 0.057019938 0.05902227
0.021724738 -0.012943787 0.052177716 0.0529711 0.019218426 0.051153198 0.05965147 0.045276053
-0.016769543 -0.028664378 -0.046717633 0.0513368 0.05339379 -0.030287698 0.031208793 0.014646387
0.021733325 -0.032290187 0.04999345 0.01965923 -0.04519799 -0.02914564 0.05383 -0.013204993
0.035892416 -0.039713513 -0.026724331 0.028833168 0.064559706 -0.028585942 0.034199394 0.012530195
-0.059834905 -0.036483817 -0.05399026 0.061394226 0.06165371 0.05643149 -0.0059228265 -0.02233592
-0.054505352 -0.028250167 -0.04701232 -0.022561576 0.044026215 -0.044673137 0.051202413 -0.053729773
00000000: 006c 6dbd a9cb 3b3c b0af f9bc 4aa4 23bd
00000010: f829 223d 89d2 213d 1276 70bc 8389 6b3d
00000020: 214b 5bbd 70d5 38bc 5c2d 2abc 0d4e 1c3c
00000030: 1ec1 7d3c 01ce 593d 770f 4c3d a620 b3bb
00000040: 7def 37bd 8ba0 6e3d 29fb 9abc e37c 5e3d
00000050: 8afb 63bd 88fc 4f3d 7dd7 1e3d 3fbe 86bb
00000060: e28e 2cbd d974 3bbd b8aa 96bb 8b10 193d
00000070: 8143 8ebc a171 3dbd 1cfa cdbc 1775 53bd
00000080: 9e7e 51bd deae 083d e573 09bb 4084 78bc
00000090: 3faa 20bd 5457 4c3c 2314 f03c 2764 b4bc
000000a0: 10e5 233d 57f7 1ebd 6f69 d9bb 2209 c1bc
000000b0: 16f1 72bd 687c 81bd b15e 833d 1fb8 83bc
000000c0: 688c 34bc 5f35 283d 3d33 6ebd 0b50 9c3c
000000d0: 706a d53c d57e 7dbd 79b8 823d 80d6 b63c
000000e0: 7c88 92bc 67c9 543d 24f0 66bd e42d 3f3d
000000f0: a1d6 5f3a 94e8 a4bb c422 6cbd f074 353b
00000100: f317 fdbc 6ad4 733d abf3 80bd 6247 84bc
00000110: bdbe 543a 21df 883c 9d45 413d 7365 f73c
00000120: 898d 993c b464 00bd 3106 5cbd 960a 4fbd
00000130: 3a49 cb3b 5652 2d3d f002 cd3c 26ab 2f3c
00000140: 0e19 9d3c 03cf 673d ac1b 183b 0ab6 183c
00000150: 13cb edbc 3153 7f3c c31c 07bb c722 22bd
00000160: e694 253d d019 cd3c aa90 673d 7685 07bd
00000170: 0a75 993c dfbe 6bbd 1242 e83c 5c92 2a3d
00000180: 434f 1cbd 9c64 c53c 05a2 b8bc c701 603d
00000190: 36c6 06bd a99c 23bc 8799 4c3d 0a5f 07bc
000001a0: f516 43bd ee04 1b3d 1242 e0bc 4bf1 c9bc
000001b0: 9ce0 23bd a5e7 6b3d 22ff 34bd ec0a 6f3d
000001c0: 79c7 adbb 3df8 75bd b923 903b 0d45 43bc
000001d0: 02d7 40bd d525 04bc 7a0b f9b9 3042 67bc
000001e0: 1882 3bbd 7d06 f63c 21fa 5fbd b0b4 683c
000001f0: 7eb9 3cbd d919 93bc f699 66bd 5330 f23b
00000200: d673 293d f7a5 e6bc 8d26 af3c bb95 0ebd
00000210: bf49 27bb b9d3 5f3b 8799 20bd 9a05 723d
00000220: eb3f 51bd d0be 84bc 14ee 35bd eacf 443d
00000230: 65a3 043d 75b3 563d 6099 513d bca4 4c3d
00000240: e765 c03c 0e27 5d3d ad9a 013c bef4 153d
00000250: db8c b0bc bef8 4bbd f920 67bd 3c07 183d
00000260: 36b4 5c3d 85c1 21bd 50a2 143c 7750 363c
00000270: 4316 40bc 773f 02bd b5b4 9ebc 2ed8 123d
00000280: 600e 883c 701c 2dbd 11c4 e03c d966 813d
00000290: 5990 af3c a946 7f3b ad21 49bd 625f 893c
000002a0: b11b 0a3d 83bb f6bc b4a4 b8bc ad72 8ebb
000002b0: d80c 6fbb 96f2 f23c 0957 2c3d 89a0 58bc
000002c0: 9169 15bd e840 76bd 51f2 e83c a662 44bd
000002d0: 33de 343d dadb 3ebd eaa9 80bc 8bce 443d
000002e0: e685 633d 063b 3dbd e975 81bd c4de 443d
000002f0: 6c3e 96bc f1dc 1a3d 02f3 5f3d 2297 0ebd
00000300: a40e 293d e458 2c3d 2753 acbc f30c 2a3d
00000310: 98f3 53bb 70ff 02bd 7aa7 9c3c 376d a33c
00000320: 2e19 5bbd 0007 693d c479 c1bc e498 3a3d
00000330: 4ead 2ebd 6a75 343d bd8d 693d 56c1 713d
00000340: 14f8 b13c 2d12 54bc 4db8 553d 39f8 583d
00000350: f66f 9d3c 0486 513d 1a55 743d 6273 393d
00000360: 4860 89bc 8fd1 eabc fd5a 3fbd 8946 523d
00000370: 72b3 5a3d e81d f8bc 95a9 ff3c 66f7 6f3c
00000380: 160a b23c b742 04bd efc5 4c3d 650c a13c
00000390: 8721 39bd d6c2 eebc d97c 5c3d c159 58bc
000003a0: ed03 133d a3aa 22bd fcec dabc 8933 ec3c
000003b0: e137 843d 112d eabc aa14 0c3d 724b 4d3c
000003c0: 7215 75bd 0e70 15bd e424 5dbd 8378 7b3d
000003d0: 9a88 7c3d b524 673d 4514 c2bb d2f9 b6bc
000003e0: 0141 5fbd e56c e7bc fe8f 40bd 0ed3 b8bc
000003f0: d554 343d 2efb 36bd 9fb9 513d c013 5cbd

smallfc.1.0.bias f4 [32]
0.018480252 0.061810065 0.01432875 0.003239794 0.0030389645 -0.009149504 0.019841207 0.008508145
0.061815266 -0.033828642 -0.03456953 0.055132188 0.032983202 0.0057368204 0.05348865 -0.0030340045
0.023598002 0.013642061 0.0029792746 0.036325328 -0.034092017 -0.01815984 0.04408571 0.039410267
0.022156632 0.030043352 0.042111676 -0.0035958644 0.058877308 0.016990732 -0.013222846 0.02744733
00000000: e663 973c 8d2c 7d3d 22c3 6a3c b952 543b
00000010: 5d29 473b cde7 15bc 078a a23c bf65 0b3c
00000020: 0132 7d3d e78f 0abd c898 0dbd 4ad2 613d
00000030: 6519 073d f0fb bb3b ea16 5b3d 26d6 46bb
00000040: 9950 c13c f382 5f3c ef3f 433b dec9 143d
00000050: 12a4 0bbd f2c3 94bc 3893 343d a96c 213d
00000060: d381 b53c 7a1d f63c 4b7d 2c3d 98a8 6bbb
00000070: 5529 713d 2630 8b3c a3a4 58bc 39d9 e03c

smallfc.1.2.weight f4 [3, 32]
0.06007303 -0.1339357 0.007362596 0.03941269 0.12576029 -0.14413445 -0.12957941 -0.13326429
0.0989129 -0.0059435368 -0.16558373 -0.116966195 0.14927241 0.087040074 0.13365425 -0.17410979
-0.07179344 0.04636622 0.0800635 0.1484703 -0.1636979 0.09729479 0.028509786 0.17692183
-0.15023571 0.0075790607 -0.17053084 -0.05009814 0.09213905 0.118924364 -0.16198936 0.014218943
0.1491393 -0.034564544 -0.030718733 0.025581282 -0.008373139 -0.005908345 0.15571758 -0.06563807
-0.1625823 0.14664637 -0.06412711 -0.07759999 -0.060765468 0.1117677 0.0089816535 0.10018952
-0.11618445 -0.06730321 -0.119938895 0.13136187 -0.16161588 -0.16708097 0.10279039 -0.10317369
0.1503365 -0.14141381 -0.0067633945 0.07995959 0.106232375 -0.07148048 -0.044863418 0.0653025
-0.08945113 -0.1018536 0.09394275 0.043704107 -0.15698372 -0.00800133 0.06694366 -0.17095563
-0.08223896 -0.15894687 -0.17491823 -0.07593939 0.15747444 0.00031334884 -0.011788733 0.03235296
0.034754176 -0.0021303364 0.074040785 -0.05215944 0.1738129 0.012014901 -0.06217546 -0.014008906
0.105102085 -0.117753856 0.16349474 -0.019930629 -0.013661665 -0.07286058 0.10116285 0.060477637
00000000: 230f 763d 7126 09be ef41 f13b 336f 213d
00000010: 4ec7 003e fb97 13be 77b0 04be 6f76 08be
00000020: d992 ca3d 00c2 c2bb c88e 29be f98b efbd
00000030: deda 183e 1142 b23d a9dc 083e d649 32be
00000040: 7008 93bd 81ea 3d3d 55f8 a33d 9908 183e
00000050: 6ca0 27be 7e42 c73d 5b8d e93c ff2a 353e
00000060: 64d7 19be c559 f83b a39f 2ebe b533 4dbd
00000070: 66b3 bc3d 9e8e f33d 8ae0 25be 92f6 683c
00000080: f9b7 183e 8d93 0dbd daa5 fbbc d68f d13c
00000090: 7e2f 09bc ca9a c1bb 6e74 1f3e 416d 86bd
000000a0: f97b 26be 772a 163e 1355 83bd beec 9ebd
000000b0: 36e5 78bd 77e6 e43d c927 133c 2a30 cd3d
000000c0: 1df2 edbd 44d6 89bd 86a2 f5bd ba83 063e
000000d0: a27e 25be 4617 2bbe c583 d23d ba4c d3bd
000000e0: d0f1 193e c8ce 10be 779f ddbb dbc1 a33d
000000f0: 5c90 d93d 5c64 92bd b4c2 37bd 51bd 853d
00000100: 2732 b7bd 9f98 d0bd 0e65 c03d 1403 333d
00000110: 57c0 20be 0318 03bc c219 893d fe0e 2fbe
00000120: e66c a8bd f8c2 22be c41d 33be 1c86 9bbd
00000130: fb40 213e f848 a439 8825 41bc 8a84 043d
00000140: 655a 0e3d 1d9d 0bbb b2a2 973d 23a5 55bd
00000150: 02fc 313e 26da 443c b2ab 7ebd 9c85 65bc
00000160: c33f d73d ef28 f1bd 2a6b 273e 8f45 a3bc
00000170: 2dd5 5fbc ee37 95bd 782e cf3d 66b7 773d

smallfc.1.2.bias f4 [3]
0.063209325 -0.06532347 -0.10792819
00000000: e473 813d 50c8 85bd 7409 ddbd
