LPSDA/exp_heat/0/deltamodel.pt (torch, 546018 bytes, 36 tensors)

fc1.weight f4 [256, 3]
000000 51 15 14 bb 0b c6 9e 3e 91 b2 f3 be 5a 22 da be
       -0.0022595713 0.3101047 -0.47597173 -0.42604333
000010 8a a1 62 be b5 c5 1f 3e 8e a1 4a bc a4 16 ea 3e
       -0.22131935 0.15602763 -0.012367619 0.45720398
000020 07 18 4c bd aa 79 1d 3e af 65 33 be f5 ed e3 bd
       -0.0498276 0.15378442 -0.17519258 -0.11129371
000030 c6 1a 0d bf e3 26 c3 be f2 c4 74 be d8 15 cf 3c
       -0.5511898 -0.38115606 -0.23903254 0.02527897
000040 63 b2 68 3e be 5a b2 3e bc d8 c7 be 8c fa 80 be
       0.22724299 0.34834856 -0.39032543 -0.25191152
000050 b6 81 55 3e a7 9c f7 3e 17 f2 f3 bd 40 45 de 3e
       0.20850262 0.48361704 -0.11911409 0.4341221
000060 c6 bb b4 bd e2 1f 7a 3d 11 fe 06 3f 9d 07 09 bf
       -0.088248774 0.061065562 0.52731425 -0.5352724
000070 69 ec b9 be a0 c9 13 be 16 5b 65 be f4 e8 fe 3e
       -0.3631318 -0.14432383 -0.22398028 0.49787104
000080 31 d3 bf be fb 63 88 be 4f 4b cf be e3 2b 0a bf
       -0.37465814 -0.2663878 -0.40487143 -0.53973216
000090 ae 73 ab be e9 46 fe 3e af 15 84 3e a1 86 8d 3e
       -0.33486694 0.49663475 0.25797793 0.27641776
0000a0 88 7b f6 3c f4 00 97 be 06 3a c8 3d ea 22 0a bf
       0.030088201 -0.29492915 0.09776692 -0.53959525
0000b0 41 4d d5 be 9b ad 99 be 51 87 ba 3e 60 12 ad 3e
       -0.41660503 -0.30015263 0.36431363 0.33803082
0000c0 4b 80 85 be 04 b3 bc bc ee 8c bb 3e 58 2d 14 3f
       -0.26074442 -0.02303458 0.36630958 0.5788169
0000d0 98 86 6a 3e d6 09 a2 3d 57 59 c7 3e 03 50 ad be
       0.22902906 0.07912032 0.38935348 -0.33850107
0000e0 18 13 e0 3d 43 86 e4 be a5 c0 cc be da 75 99 be
       0.10941142 -0.44633684 -0.39990726 -0.29972726
0000f0 69 6c 86 3e a7 55 6f 3e e8 b0 b0 be 47 b3 37 3e
       0.26254585 0.23372518 -0.3450997 0.17939483
000100 c2 38 a2 3e d1 aa 8c bd 94 f4 a6 3c ed 76 07 3e
       0.31683928 -0.06868518 0.020380296 0.1322896
000110 c6 71 b7 3e 23 85 0e 3f 6d 20 e4 be a4 33 57 be
       0.3582899 0.556719 -0.4455599 -0.21015793
000120 cf f7 6b 3e 85 f6 f4 3e 5d f0 01 3f fc 8f 03 3f
       0.2304375 0.4784433 0.5075739 0.5139158
000130 59 25 ed 3d ce 31 00 bf 8a 9b 58 3d 1f 02 b8 be
       0.11579389 -0.50075996 0.05288271 -0.35939118
000140 bc b0 0a bf 7b 62 03 3f ac c4 e0 3e 95 8b 14 bf
       -0.54175925 0.51322144 0.4390005 -0.58025485
000150 ac 04 da 3d 59 4b ca bd b8 73 c5 bd 81 01 87 be
       0.10645422 -0.09877653 -0.09641212 -0.26368335
000160 9c 18 64 3e 7d c3 af be 0d e0 59 3e 3d 7d 95 3e
       0.22275013 -0.34328833 0.21276875 0.29197112
000170 95 1d d4 3e 18 f7 5d 3e dc 29 12 bf fc cb c0 be
       0.4142882 0.2167629 -0.5709512 -0.37655628
000180 c2 98 94 3e f2 1d f6 3d 06 60 e5 be 72 80 aa be
       0.29022795 0.1201743 -0.44799823 -0.3330112
000190 5e 69 0a 3f bd 8d c6 3e 64 5e 81 be 83 a5 13 be
       0.5406703 0.38780013 -0.25267327 -0.14418606
0001a0 24 a8 0c bf a1 0b 32 bc 51 67 de be 6e 43 e3 be
       -0.5494406 -0.01086703 -0.434382 -0.44387382
0001b0 e4 a8 fa bc 7b 4e b1 3d 6d 75 76 be 69 29 b0 3e
       -0.030598111 0.08657547 -0.24068232 0.34406593
0001c0 6a 14 b4 be 43 a1 06 3f d0 7c ca 3e 3d b5 f8 be
       -0.35171825 0.52589816 0.3954835 -0.48575774
0001d0 82 58 16 be 8b 1c b3 3c 44 c8 a7 3d 35 6f 0b 3e
       -0.146822 0.021864196 0.081924945 0.13616641
0001e0 9a b8 68 3e d5 9a 0d 3d dd b1 91 be 82 52 8c 3e
       0.2272667 0.034571487 -0.2845601 0.27406698
0001f0 ab bd 0d bf 3d ec ae be 2d 92 13 be f1 7c 8f be
       -0.55367535 -0.3416461 -0.1441123 -0.2802501
000200 29 a6 4f be b2 c2 f4 be 1b 70 fd bd c8 33 f4 3d
       -0.20278229 -0.4780479 -0.12374898 0.11923939
000210 65 31 c2 be 25 e8 fb bc c8 a2 d3 3e 13 d0 7d bd
       -0.3792831 -0.030750344 0.4133513 -0.061966013
000220 6b a0 8b 3c da 93 4f bd c0 fc f9 3d 72 df bb 3e
       0.017044267 -0.05067811 0.12206411 0.36693913
000230 7c d1 0c 3f ca 69 bc 3e 36 49 0c 3f ad 7c 2d bd
       0.5500715 0.3679946 0.5479921 -0.04235523
000240 04 36 04 bf 98 a6 8c be b3 39 c8 3e 8d 9f 87 bb
       -0.5164492 -0.2747085 0.3910652 -0.004138893
000250 53 c2 92 be 81 48 e2 be 6a 88 0a bf 10 36 f9 be
       -0.28663883 -0.4419594 -0.541144 -0.4867406
000260 ae 58 ef bd 8a 29 a3 3e b4 8a a0 3e 18 51 0f bf
       -0.11686836 0.3186763 0.31355822 -0.55983114
000270 f7 4b b8 3e a5 23 e7 be 6f 68 01 be 4a 9c 72 be
       0.35995457 -0.45144382 -0.12637495 -0.23692432
000280 41 16 e4 bd 87 44 f0 bd 71 4b 05 bf 53 65 fe be
       -0.11137057 -0.117318206 -0.5206824 -0.4968668
000290 55 52 bf bd e1 0d 39 3c b9 ed 85 be 60 cb 5f 3e
       -0.093418755 0.011294813 -0.2615793 0.21854925
0002a0 77 bb 05 bf e1 77 1f bd b0 bc 01 3f 04 7a 6f be
       -0.52239174 -0.038932685 0.5067854 -0.23386389
0002b0 c8 47 05 3f a0 e8 58 3e 49 30 05 bf 70 55 bb 3e
       0.52062654 0.2118249 -0.520268 0.3658862
0002c0 e8 9f 87 bd cb 37 84 be 03 ca eb 3e c8 d5 ee be
       -0.066222966 -0.25823817 0.4605256 -0.46647477
0002d0 d4 29 72 3d 03 a7 fb bd d7 b8 d1 3e 50 b2 28 3e
       0.05912192 -0.12287714 0.40961334 0.16474271
0002e0 5e 5a 8e 3e 3e 88 50 3e 4f 47 0d be 84 68 f6 bd
       0.2780332 0.20364472 -0.13796733 -0.120316535
0002f0 fb 69 f3 be e2 a6 9f 3e 0c 77 ea 3e 95 82 ca 3e
       -0.47541794 0.3118201 0.4579395 0.3955275
000300 90 bb cf be 2d 88 db 3c b7 1c d1 be 60 63 a4 be
       -0.40572786 0.026798332 -0.4084222 -0.32107067
000310 08 0c ad be ee 2d 48 3e 1d bf af be e9 ec 46 bc
       -0.33798242 0.19548771 -0.34325495 -0.012141445
000320 2f 26 b9 3c fb 75 be 3e da cf de be 05 ba ca be
       0.022601215 0.37199387 -0.43517953 -0.39595047
000330 2e 46 ab be 4b 2b ce 3e dc 62 52 be e8 68 fb 3e
       -0.3345198 0.40267405 -0.20545524 0.49103475
000340 d2 53 56 3e f7 09 95 3d 50 6d 4b bb 74 ec eb bd
       0.20930412 0.07277291 -0.0031040497 -0.11519709
000350 4d c8 90 3d 60 02 0b be c9 7c 75 bb 83 bf 94 3d
       0.07069454 -0.13575125 -0.003745841 0.072630905
000360 32 67 e7 be e6 3c 9b be a9 07 f0 3e 61 57 f1 be
       -0.4519592 -0.303199 0.46880844 -0.47136977
000370 7f 45 2d bd 42 95 11 3f bc ed 53 3e 37 65 86 3c
       -0.042302605 0.56868374 0.20696157 0.016405685
000380 b4 99 fe be 83 09 92 3e f1 d3 d1 be f5 c0 2a be
       -0.4972664 0.28522882 -0.4098201 -0.1667517
000390 a0 48 48 be bd 07 b1 bd 0f 70 0e 3c 13 bc f5 3e
       -0.19558954 -0.08644054 0.008693709 0.47995052
0003a0 b7 53 90 3d 6e 80 04 3f ee 36 b2 3e 8d 0a bb be
       0.07047217 0.5175847 0.34807533 -0.36531487
0003b0 5b 77 84 3e df 0d d0 be 3d 2e 7a be d9 a4 30 3e
       0.2587231 -0.40635583 -0.24431701 0.17250384
0003c0 bc 28 45 3e 63 f2 dd 3e 04 94 3b be 2d 68 5f ba
       0.1925382 0.4334899 -0.18318182 -0.00085222983
0003d0 c5 4a 98 3e ce 3e 0e bf 18 34 d6 3e 75 41 f4 be
       0.29744545 -0.5556458 0.4183662 -0.4770619
0003e0 0e 7a 18 3c 9f 7c c5 bd 43 28 9b be 3c 20 96 3d
       0.009306444 -0.0964291 -0.30304155 0.07330367
0003f0 3f dd f3 3e 76 c3 2c be 6c 6b b0 be 23 7f 5a be
       0.47629735 -0.16871437 -0.34456956 -0.21337561

fc1.bias f4 [256]
000000 a1 d8 e1 be a0 9b 2d be 97 8c 41 3e ff 52 01 bf
       -0.44110587 -0.16953897 0.18901287 -0.50517267
000010 0b 3d a2 3e 91 26 9c 3e 0b 0f b8 3e 0b 98 ba be
       0.31687197 0.30498174 0.35948977 -0.36444125
000020 8a 71 14 3f 23 c9 ae be c8 e0 13 3f 8d 43 0e bf
       0.57985747 -0.3413783 0.57764864 -0.55571824
000030 59 51 03 bf 4a 90 b3 3e d8 6c 76 3d 15 05 04 3d
       -0.51296 0.3507102 0.060162395 0.03223141
000040 43 ea a5 be bb 6d 75 be 6a 78 2a be f6 99 0f bf
       -0.3240529 -0.2396764 -0.16647497 -0.560943
000050 ca 94 04 3d c8 70 d9 3d 8f 23 3e bb 4f ab 40 3e
       0.03236846 0.106172144 -0.0029012894 0.18815349
000060 38 d3 0c 3f 20 81 20 3e d8 73 57 be 3e 57 72 be
       0.55009794 0.15674257 -0.21040285 -0.23666093
000070 4d e3 bd be af 4f cc be 69 e5 be bd c1 8f cf bd
       -0.3708748 -0.39904544 -0.093211 -0.10134841
000080 9b 6a 84 3e c3 50 7e be cc b7 eb 3e e7 c9 cf be
       0.25862584 -0.24835496 0.46038663 -0.40583727
000090 d3 3e 8d 3b 00 53 05 3f 59 00 13 3f c1 fc ac be
       0.0043104677 0.5207977 0.57422405 -0.33786586
0000a0 05 97 d4 3d 62 1c 8c 3d e1 c3 89 be 7c fe 4f be
       0.10380367 0.06841351 -0.26907256 -0.20311922
0000b0 8f 44 1d 3e 9b 56 ce be 21 1e ce 3d 5e 63 80 3e
       0.15358184 -0.4030045 0.100643404 0.2507581
0000c0 2d 55 69 be e5 5f f5 3e e0 f8 1e bd d8 9c 87 3e
       -0.22786398 0.47924724 -0.038811564 0.2648685
0000d0 46 a0 12 3f 52 ad 36 be 73 44 9f 3e 16 0b 27 be
       0.5727581 -0.17839554 0.3110691 -0.16312823
0000e0 60 88 b0 bd 72 ab c4 bd ac 22 4c bb 35 53 60 be
       -0.086197615 -0.09603013 -0.0031148596 -0.21906741
0000f0 fe bd 06 3e 46 10 c8 3c e8 4d bb 3e e3 b4 f1 bd
       0.13158414 0.024421822 0.36582875 -0.118020795
000100 72 72 77 3d 34 7a 5d be b7 43 f6 be 0a f9 6e 3e
       0.060411878 -0.21628648 -0.48098537 0.23337188
000110 2f f6 95 3d b6 01 69 be 79 47 48 be bb 0b 17 3e
       0.073223464 -0.22754559 -0.19558515 0.14750569
000120 33 b9 d3 bd ea 2f c0 3e 81 7d fa 3c 8e f1 5e 3e
       -0.10338058 0.37536556 0.030577423 0.21771833
000130 48 92 7f 3e 8a 50 0d be bb 0c 7b 3e 6c 45 db 3e
       0.24958146 -0.13800254 0.24516575 0.42826402
000140 04 c4 ea 3c 74 7a e4 3d 71 58 ab 3c bb 66 cd 3e
       0.02865792 0.111561686 0.020916196 0.4011744
000150 69 3f 79 be 39 41 9d be a0 e3 82 3e 5e 43 01 bf
       -0.24340595 -0.30713823 0.2556429 -0.5049342
000160 b7 0c 3b 3c bf ca 87 be 9c d4 c4 3e 71 9e 09 bf
       0.011416606 -0.2652187 0.38443458 -0.5375739
000170 5f 55 b2 3e 6d 69 13 3f 30 a8 f2 3d 10 0b 17 bd
       0.34830758 0.5758274 0.118484855 -0.036875784
000180 15 d6 10 3f d8 f8 7a be 9d 7c 33 bd e8 0c 81 be
       0.56576663 -0.24508989 -0.043820012 -0.2520516
000190 41 e0 9f bd d5 d9 00 3e 15 8d 9c 3d c8 78 e1 bd
       -0.07806445 0.12583096 0.07644097 -0.11009365
0001a0 2d a0 14 bf 44 49 f9 3c 49 6d 20 bc c5 70 b3 3d
       -0.5805691 0.030430444 -0.009791681 0.087617435
0001b0 a8 a8 e4 3e a9 f3 0f 3f 78 de ae be cd 42 0d bd
       0.44659925 0.5623117 -0.34154105 -0.034487534
0001c0 00 8d 66 be 12 98 08 bf 16 41 d7 be 46 36 0c 3f
       -0.22514725 -0.5335704 -0.42041844 0.54770315
0001d0 78 d2 ab 3e 13 c6 a0 3e 92 fb a4 3e bd 9a ec be
       0.33559012 0.3140112 0.32223183 -0.46211806
0001e0 51 58 81 3d 99 96 09 3f 6b 19 a4 be 5d 14 04 3f
       0.06315673 0.5374542 -0.32050642 0.5159357
0001f0 9b 35 1b 3e b6 52 d1 3e 0a b1 7c be 2d 3c 89 3e
       0.15157168 0.40883416 -0.2467691 0.26803723
000200 6d 55 03 bf c7 f4 0f bd db c5 45 3e c6 6a 31 3e
       -0.51302224 -0.035145547 0.19313757 0.17325887
000210 f3 8d f8 3e 01 ea 11 3f f5 12 06 3f 9b 41 c6 3e
       0.485458 0.56997687 0.52372676 0.38721928
000220 e2 3a d0 3e ac ee 93 bd 5d ee e4 be 45 b6 59 be
       0.40669924 -0.072232574 -0.44713107 -0.21260937
000230 30 b4 83 bd 73 61 9e be 93 8c 97 3e 71 36 4d 3e
       -0.064308524 -0.30933723 0.29599437 0.20040299
000240 18 b1 c0 3d 85 94 12 3e 3a 00 02 3f 77 d7 58 3e
       0.09408778 0.14314468 0.50781596 0.21175943
000250 ef e8 00 bf 55 1f d4 be 3e a9 84 3e 78 64 a9 3d
       -0.5035543 -0.41430154 0.25910372 0.08271116
000260 fa 40 91 3e 9c b4 13 bf 75 64 08 bf ba 46 b7 3e
       0.28369886 -0.57697463 -0.53278285 0.35796148
000270 4c 97 bb 3e 5b 0a 06 bf e9 89 61 3e 0a 52 e6 be
       0.36638868 -0.5235955 0.22025265 -0.44984466
000280 b2 97 e0 3e ac c2 37 3e a9 63 12 3f 94 26 12 bf
       0.43865734 0.17945355 0.5718332 -0.57090116
000290 a0 1a 0d bf 6f 76 c9 3e 62 20 03 3f 2f 30 b7 3e
       -0.5511875 0.3934817 0.5122129 0.3577895
0002a0 ce 39 c6 3e 2c a0 f6 be 5a 41 d7 3e f5 8b 0b bf
       0.38715976 -0.48169076 0.42042047 -0.5451043
0002b0 3b cb 09 3e 94 39 c2 be 3d 76 6a be 41 62 d7 3d
       0.13456433 -0.37934554 -0.22896667 0.10516787
0002c0 76 cb 67 be f8 4c be bd 2b 3d 0d bf d1 e8 0b bf
       -0.22636208 -0.092920244 -0.5517146 -0.54652125
0002d0 87 6c 63 3e b2 6d 7d be d9 5e b4 be d8 85 69 be
       0.22209369 -0.24748877 -0.35228613 -0.22804964
0002e0 cb 04 f1 be 71 58 ea be e2 4d b3 3e fb b6 96 3e
       -0.4707397 -0.457706 0.35020357 0.29436478
0002f0 02 de 9d 3d 00 0f a1 be 6f c6 49 3e a1 05 e5 3c
       0.0770836 -0.31456757 0.19704603 0.027956786
000300 32 9f d4 be 80 a8 02 3e c0 4b 08 3f ed 48 11 bf
       -0.41527706 0.1275959 0.53240585 -0.567519
000310 e7 4e 12 bf ea 20 98 3d ba b8 dd 3e eb 43 b4 be
       -0.57151645 0.07428153 0.43304998 -0.35208067
000320 76 be 01 3e 79 c4 d2 3e bb b7 37 3e 2a ac 02 3e
       0.12670311 0.41165522 0.17941181 0.12760988
000330 9c d7 13 3f 66 f1 c2 3e 14 26 a5 be ad d9 57 3d
       0.5775087 0.38074797 -0.32255614 0.052697826
000340 83 4e 97 3e 5f e2 02 3f e1 b3 13 bf 7d 53 a3 3e
       0.29552087 0.51126665 -0.5769635 0.31899634
000350 1c 70 2b be a1 32 10 bf 0b b1 05 3e 68 48 9f be
       -0.16741985 -0.56327254 0.13055818 -0.3110993
000360 ca d7 aa 3d f8 04 be be 10 27 dd be 8f f7 45 bd
       0.0834194 -0.37113166 -0.43193865 -0.048331793
000370 33 f1 49 be 4c ac ad 3e 91 8c 48 3d e6 5e e6 3e
       -0.19720916 0.33920515 0.04896218 0.44994277
000380 42 30 ea 3d 23 f2 36 be ef ca c9 3e 31 52 00 3d
       0.11434986 -0.17865805 0.3941264 0.031328384
000390 ed 6c da 3d 1f ac 3d be 66 0d a6 3b ca 48 df bd
       0.10665307 -0.1852269 0.005067515 -0.10902555
0003a0 13 43 5c bd 18 dc e7 be c3 77 f4 39 14 b2 f3 be
       -0.053774904 -0.45285106 0.00046628536 -0.475968
0003b0 38 b1 01 be 63 fb aa 3e 9d e8 cd be b1 13 c5 be
       -0.1266526 0.33394918 -0.40216532 -0.38491586
0003c0 e0 e3 0c be c2 05 24 be e1 80 d3 3d b3 01 cc 3d
       -0.13758802 -0.16017821 0.10327316 0.099612616
0003d0 49 60 94 3e ad a8 cb be a9 78 21 bd e3 a2 a5 3e
       0.2897971 -0.39777127 -0.03942171 0.32350835
0003e0 13 b5 fe 3e 1f 15 26 bd 26 e4 ab be 2b 60 2a 3e
       0.49747524 -0.040547486 -0.335725 0.16638248
0003f0 c6 8c a9 3e 12 65 ba be 90 2d ac be 6f 5f 82 3e
       0.33115214 -0.36405236 -0.3362851 0.25463435

fc2.weight f4 [256, 256]
000000 cc 48 6a bb 35 cc 75 bd db 15 12 bd 7c c0 d2 3c
       -0.0035748957 -0.0600092 -0.035665374 0.02572655
000010 23 ab b0 bc 00 c1 2c 3d 0f 65 46 3d 5c 53 0a 3c
       -0.02156598 0.042176247 0.04843622 0.008442726
000020 c0 6c c9 bb 31 f3 a0 bc 6b fd 1c bb 60 98 3b 3c
       -0.006146997 -0.019647213 -0.002395476 0.011449903
000030 39 8d 42 bd 30 fe 77 bc 23 85 56 bd d6 3d 1b 3d
       -0.04749796 -0.015136287 -0.052373063 0.03790077
000040 5e 4f 26 bd b0 1a 6b 3d 53 10 89 bc b5 6e 11 bd
       -0.040603034 0.057398498 -0.016731417 -0.03550597
000050 02 8b fb 3c 6f 5a 1d 3c 75 31 2d 3d a2 b8 cf 3c
       0.030705933 0.009604081 0.042283494 0.025356594
000060 d2 d7 78 bd 82 4d 22 3d 40 23 44 bc a3 1c dd bc
       -0.060752697 0.0396247 -0.011971295 -0.026991194
000070 80 d7 24 3d 45 a1 3e 3d 30 e2 64 bd 08 c1 c3 bb
       0.04024458 0.046540517 -0.05587977 -0.005973939
000080 83 89 53 3d f7 e9 c4 3c 88 10 57 3d c9 2e b0 bc
       0.051644813 0.024037344 0.052506 -0.021506684
000090 c1 0d 0a bd 6e db 57 3d 4b 11 cd 3c 35 46 78 3d
       -0.033704523 0.0526995 0.02503266 0.06061383
0000a0 48 71 d5 bc fe 12 26 bd ab 01 ef bb 36 21 73 bd
       -0.026054993 -0.040545456 -0.0072939 -0.059357844
0000b0 bf 63 be 3c bc 55 40 3d 9b 61 62 3c e9 a3 c4 bb
       0.023240922 0.046956763 0.013817216 -0.006000985
0000c0 84 bd f2 3c fe 88 24 bd 96 d9 78 3d ec 4b 7c bd
       0.029631384 -0.04016971 0.06075438 -0.061595842
0000d0 d3 82 79 bd 4c 56 6d bc 67 b3 4e 3d 94 75 bf 3b
       -0.06091578 -0.014485907 0.05046406 0.005842874
0000e0 a6 b3 ba 3c e2 16 3a bd e3 bf c3 3c 2b 8a c1 bb
       0.022790741 -0.04543198 0.02389521 -0.0059063635
0000f0 06 b4 c4 3c ad 41 32 3d 60 a8 dd 3c cc a9 c7 bb
       0.024011623 0.043519665 0.027057827 -0.0060932394
000100 be ff 68 bb 6e 92 23 bd 7d 99 b4 bc 93 2c 24 3d
       -0.0035552825 -0.039934568 -0.022045845 0.04008157
000110 dc 25 c4 bc 44 0e 20 3d 9c a3 cd bc 6a b2 80 bc
       -0.023943834 0.039076105 -0.02510243 -0.015710074
000120 31 1c b1 39 e7 7c 70 bd dc a1 2e ba 1d da e7 bb
       0.00033781075 -0.058712866 -0.0006661692 -0.0070755617
000130 5f 0f e4 bb 63 51 56 bc a6 c0 45 3d 53 86 38 3d
       -0.00695984 -0.013080928 0.048279427 0.045049977
000140 41 13 2b bd ca 01 f3 3c ac b5 4b bd cc da 5e bd
       -0.04176641 0.029663939 -0.049733803 -0.05440788
000150 b4 0b 9d 3c 02 cc 6e 3a 96 6c f1 bc 9d f9 78 bd
       0.01917062 0.0009109379 -0.029470723 -0.060784925
000160 23 45 c9 bc eb 83 ac 3c 6b ea 6d bd ec ea 78 bd
       -0.0245691 0.021058997 -0.058084887 -0.060770914
000170 fc b4 e4 3b 9a 94 39 bd 5a 62 5d bd e7 e1 cb bc
       0.006979583 -0.045307733 -0.054048873 -0.024887992
000180 8e 4f 29 bc 8d 43 65 bd bb 66 2d bd 39 0a ac 3b
       -0.010333909 -0.055972625 -0.0423343 0.005250242
000190 8c 2e 6e bd 3e 20 0d bc 49 90 28 bd 8b 5e 32 bd
       -0.05814986 -0.008613644 -0.041153226 -0.043547194
0001a0 4b ee ca 3c 62 6f 48 bd 6f 95 41 bd 84 15 0f 3d
       0.02477183 -0.048934348 -0.04726165 0.03493263
0001b0 1f 9f 3a 3c e3 e9 6a 3d 30 f4 8d bc f1 e5 fd bc
       0.0113904765 0.057351958 -0.017328352 -0.030993434
0001c0 5e 68 d8 bb 08 4d 64 3a 09 a5 46 3d d5 e7 7f bd
       -0.0066042384 0.00087089883 0.048497234 -0.06247695
0001d0 f8 c6 66 bb db 37 db 3c 62 26 0b bd e8 dd 00 bd
       -0.003521381 0.026760032 -0.03397215 -0.031461626
0001e0 14 f7 f4 3c db d7 76 bd 0b 19 6f 3c 3f fb 4a bd
       0.029902972 -0.06026445 0.014593373 -0.049556013
0001f0 f7 df fd 3c d7 00 60 bd 72 c2 19 3d 6f bc 78 bd
       0.030990584 -0.0546883 0.037538953 -0.06072658
000200 0e 81 56 bd 7c fe 4f 38 8c 26 49 3d 0c 17 5e bd
       -0.05236917 4.9589653e-05 0.049109027 -0.054221198
000210 97 26 e9 bc a3 b7 61 3d 9f 7a 37 bc 94 a5 cb 3c
       -0.028460784 0.05510677 -0.011198669 0.024859227
000220 86 e2 72 bd d9 a5 9b bc d4 00 00 bd 88 b5 53 3d
       -0.05929806 -0.01899998 -0.03125079 0.051686794
000230 73 8b d1 3c d8 71 38 bd 3f 3d 1c 3c e2 02 de ba
       0.02557919 -0.045030445 0.009536087 -0.0016938115
000240 0a 90 d2 bc 26 1f 10 bd 83 10 af bc 50 1e 44 3d
       -0.025703449 -0.035185955 -0.021370178 0.04788047
000250 94 b5 32 bd c9 70 36 bd 4f 84 a1 bc 95 4b 2c 39
       -0.043630198 -0.044541154 -0.01971641 0.00016431355
000260 4a dd 90 3c 93 01 f8 3a 80 ea 70 bc 40 0c 1b bd
       0.017683644 0.0018921368 -0.014704347 -0.03785348
000270 f3 3d 48 bc c8 78 c8 bc 71 c6 4c 3d b3 37 79 bd
       -0.012221801 -0.024471655 0.049993936 -0.060844135
000280 3b 1f 24 bd fe 1a 54 bd 38 78 37 bc cd 86 48 3d
       -0.040068846 -0.051783554 -0.011198096 0.04895668
000290 64 2d 60 3d 3e 61 61 bd 9c 31 10 bb f2 02 15 3d
       0.054730788 -0.055024378 -0.0022002226 0.036379762
0002a0 93 7b d9 3c 67 61 52 3d 8a ed 9d ba c7 31 2b bd
       0.026548183 0.05136242 -0.0012048942 -0.04179552
0002b0 de 64 24 3d f2 b8 a5 bc cd f5 03 3d d1 3d 6c bc
       0.040135257 -0.02022979 0.032216836 -0.014419035
0002c0 9c c8 d4 3c c8 e9 64 3d 04 72 71 3d c5 85 68 bd
       0.025974564 0.055887014 0.058946624 -0.056768198
0002d0 82 89 25 bd e9 90 da bc 84 04 20 bd 34 06 74 3d
       -0.04041434 -0.026680427 -0.039066806 0.05957623
0002e0 18 5f b7 bb 95 df 27 bd 69 0d e5 bc d6 79 11 bd
       -0.005596053 -0.04098471 -0.027960496 -0.035516582
0002f0 65 6e d9 3c 1b 70 5e bd e0 06 6d bd 38 b1 80 bd
       0.026541898 -0.05430613 -0.057867885 -0.06283802
000300 ae 25 dc 3c a1 b1 fa 3c ba 10 1d bd 06 62 7f 3c
       0.026873436 0.030602278 -0.03834603 0.015587335
000310 78 37 40 3d 5f 2e 0b 3c 65 6b 50 bc da 39 7c 3b
       0.0469279 0.008494942 -0.012720917 0.003848663
000320 63 06 d8 bb d7 93 fa 3c f2 28 30 bd c8 e8 01 3d
       -0.006592558 0.030588074 -0.0430078 0.031716138
000330 aa 16 0c 3d d8 43 1a bd e2 a8 52 3d 1c 43 7b 3d
       0.0342013 -0.037662357 0.05143059 0.061343297
000340 b4 ed d1 bc 56 24 98 bc 7e 21 02 3d 98 11 47 bd
       -0.025626041 -0.018572014 0.031770222 -0.048600763
000350 83 bb c8 3c 41 19 76 3c e4 7d 21 3d 39 0e 61 bd
       0.024503475 0.015020669 0.0394267 -0.054945204
000360 ed 0e 5a bd 16 8c ef 3c 0f 32 b8 3c 02 96 71 bd
       -0.05323689 0.029241603 0.022484807 -0.05898095
000370 79 1d 12 bd 02 4c 70 bd 7b dc 33 bd f3 b4 ee bc
       -0.03567264 -0.058666237 -0.04391144 -0.029139018
000380 98 ec 4f 3d de b1 53 bc 32 21 0f 3d 8d a1 72 3d
       0.050762743 -0.012920825 0.034943767 0.059236098
000390 c0 ea eb 3c eb 0f 64 bd c8 8b fa 3c ce b5 c2 3c
       0.028798461 -0.055679243 0.030584231 0.023768332
0003a0 fd 7a 43 3d fc 6b 7c bd 70 8c 20 3d 3b bb 4e 3d
       0.047724713 -0.06162642 0.03919643 0.050471526
0003b0 ef 88 69 bd cd af c8 3b 9c d2 59 3d 2a 5c 3d bd
       -0.057015356 0.0061244727 0.05317937 -0.046230473
0003c0 92 9d a4 3c a3 0c dc 3c ab c4 7d 3c 17 2a 7a 3d
       0.020094667 0.026861494 0.015488784 0.061075296
0003d0 f1 2b 52 3d 8f ec 5b 3d f2 5b 04 bc bc 85 58 3d
       0.051311437 0.053692397 -0.008078562 0.052861914
0003e0 85 65 70 bd c5 69 08 bd 6e fd 69 bc 0f fe 99 bc
       -0.058690567 -0.033303995 -0.014281614 -0.018797902
0003f0 39 fe 6f 3d d5 1b ed 3c c0 55 26 3d e6 6a 29 3d
       0.058592055 0.028943935 0.04060912 0.041361712

fc2.bias f4 [256]
000000 54 89 e5 3c 67 b4 50 3b 9d 20 36 bb ff 3a 4d 3d
       0.028019585 0.003184581 -0.0027790435 0.05010509
000010 39 f1 cf 3a 47 22 90 3b dd db 15 ba 72 21 81 3d
       0.0015864737 0.0043986174 -0.0005716661 0.06305207
000020 45 1d 81 bd c0 20 a9 3c 0d 50 e4 bc fd 9e 19 3c
       -0.06304411 0.0206455 -0.027870202 0.009376285
000030 f0 28 4d 3d bd 6a 16 3d a9 40 f1 3c 3e 27 ab 3c
       0.05008787 0.036722887 0.029449778 0.020892736
000040 ec ae 34 3d 61 94 80 3d 6b 72 81 3d 27 b4 d2 bb
       0.04411213 0.06278301 0.063206516 -0.0064301672
000050 c7 cc 56 bd 3a 16 47 bc ac ce 66 3d a9 71 0f 3d
       -0.052441385 -0.012151295 0.05634944 0.035020504
000060 53 77 2f bd 2a 46 c8 3c 14 ab d8 bc b4 64 58 3d
       -0.042838406 0.02444752 -0.026448764 0.052830413
000070 bb bd 6c 3d 7d 71 e3 bc 7a 7d a4 bc c1 a9 c0 bc
       0.05779813 -0.027764076 -0.020079363 -0.023518445
000080 75 46 be 3c af 25 37 3d 74 44 b3 bc b1 71 42 bc
       0.023226956 0.044713672 -0.021883227 -0.011867926
000090 3e 75 42 3c ca ce d2 3c 2d f7 5d 3c 16 7a 22 3d
       0.011868773 0.02573337 0.013547701 0.03966721
0000a0 c5 85 41 3d da f3 90 3c c0 9c fd bc 21 23 b2 3b
       0.047246713 0.017694402 -0.030958533 0.0054363166
0000b0 ab 03 02 bd 2e fb dd 3c 32 31 66 3d 12 ca f7 3c
       -0.03174178 0.02709731 0.05619926 0.030247722
0000c0 96 f5 e4 3c 8d d4 3e bd b4 26 34 3d d3 2a 14 bd
       0.027949136 -0.046589423 0.043982223 -0.036173653
0000d0 e2 91 26 3c 81 8a fc 3c 99 15 13 3d df 4c 8d ba
       0.010166617 0.030827763 0.03590927 -0.0010780356
0000e0 5e f9 e5 bc 54 a8 2f 3d 51 8b ca bc 2c b6 24 3d
       -0.02807301 0.04288514 -0.024724634 0.040212795
0000f0 f3 7f 7c 3d b5 1c 3c bb d5 11 94 3c 8a 5c 6f 3d
       0.06164546 -0.0028703634 0.01807491 0.05843786
000100 a5 75 07 bd db 77 3d 3c 5f 38 87 bd 84 4e b5 bc
       -0.03307118 0.01156422 -0.06602549 -0.022132166
000110 10 d9 15 3d c7 71 07 3d ea dc f4 3c 67 11 4e 3d
       0.03658396 0.03306749 0.029890496 0.050309565
000120 b5 7c ce 3c ed a0 0f 3d 49 a5 d9 bc 50 8c f4 bb
       0.02520595 0.03506558 -0.026568072 -0.0074630156
000130 2b 71 3a 3d aa 61 3b bc 65 72 12 3d 56 a7 d6 3c
       0.04551808 -0.011436859 0.035753626 0.026202839
000140 d2 ea 5e 3d 8e 95 6d 3d 02 01 6e 3d 05 81 56 3d
       0.05442316 0.058003955 0.05810643 0.052369136
000150 7a 3b 23 3d d0 14 10 3d 23 09 b4 bc 60 3e e2 3c
       0.039851643 0.0351761 -0.021977013 0.027617633
000160 a5 53 53 bd b2 a8 98 bc b4 33 35 3a 4a 96 be bc
       -0.05159344 -0.018635128 0.00069123064 -0.023265023
000170 8f ad f0 bc 43 9f 20 3d ee 80 c5 3c 9f 8a 6b 3d
       -0.029379634 0.039214384 0.02410933 0.057505246
000180 bd 7f 19 3d 2e 65 12 bd a0 89 03 bb 2c d7 57 bd
       0.037475336 -0.035741024 -0.0020071045 -0.05269544
000190 5a 78 c5 bb ac 99 9f bc 6e c8 5e 3d 22 bd 39 bd
       -0.00602631 -0.019482456 0.054390363 -0.045346387
0001a0 1c 97 bb 3c bb 93 46 bd ca dc 0e bd 2d 9c 34 3d
       0.022899203 -0.04848073 -0.03487853 0.044094253
0001b0 ec e5 35 bb 27 0d 6c bd 0c d9 e0 bb 9f 99 b0 3c
       -0.0027755452 -0.05762973 -0.0068618115 0.021557627
0001c0 25 bd 3a bd 59 ee d4 3c c6 7d 7d bc cf 8d 63 3d
       -0.04559054 0.02599256 -0.015471881 0.05555516
0001d0 99 3c 2c bd 41 bb dc 3b 85 c0 af bc 04 bc 12 bd
       -0.042049978 0.0067361896 -0.021454105 -0.035823837
0001e0 4f 55 4a 3c 99 97 72 bd 98 77 c7 bb 54 47 10 3d
       0.012349441 -0.059226606 -0.0060872547 0.035224274
0001f0 a0 fc a2 bc 9d 7f 3b bc b8 cb ba bc fa 44 5a bd
       -0.019895852 -0.011444 -0.022802219 -0.053288437
000200 ff cf 26 bd ac fb 0a 3d 79 d2 5c bd 75 9e 50 3c
       -0.040725704 0.03393142 -0.05391166 0.012733092
000210 ff 6a 40 3c 2d 18 41 bd 6e 9b 6f bd 42 c6 90 bc
       0.01174426 -0.047142196 -0.05849784 -0.017672662
000220 46 4c 5a bb a5 0f cf bc 24 c6 c9 3b a6 8e 31 bc
       -0.0033309623 -0.025276015 0.0061576534 -0.010837233
000230 54 ce ad bc b1 57 fb 3c ff 29 8b 3c f7 38 63 bd
       -0.021216549 0.030681463 0.016987799 -0.055474248
000240 2c ca 7f bd b5 ec c3 3c 48 71 3f bd 52 25 c9 bc
       -0.062448665 0.023916582 -0.046738893 -0.024553929
000250 1d 34 16 3d e8 e9 d2 3c 37 54 dd 3c b1 ef 60 3c
       0.036670793 0.0257463 0.027017696 0.013729022
000260 7f 12 ce bc 8e 6b 76 3d b3 56 2f 3d 02 dc 7d 3d
       -0.025155304 0.060161166 0.042807292 0.061977394
000270 70 4d 15 3c f9 e9 6c bc b3 21 b7 3b 1a 50 0a 3d
       0.009112701 -0.01446008 0.005588734 0.033767797
000280 71 bc e1 3b 34 51 34 3b 68 f4 38 3c e0 be 1f bd
       0.006888919 0.002751422 0.01128874 -0.039000392
000290 60 57 93 3c b0 bd 2f 3d a4 fa 84 3c 2c 42 72 bd
       0.017986 0.04290551 0.016232796 -0.059145138
0002a0 f4 cb 1b bd 3b 59 bb bc ce 86 55 bd 7c 23 ed bc
       -0.0380363 -0.022869697 -0.052130513 -0.028947584
0002b0 db 5d 8d 3b 00 e8 85 3d dd 6b ca 3b 22 b4 ad 3c
       0.004314167 0.06538391 0.006177409 0.021204058
0002c0 b1 ef 8d 3c 11 3a 2f 3d d5 a2 df 3c d9 17 37 bd
       0.017326208 0.042779986 0.027299324 -0.044700477
0002d0 3e c4 6a 3c fb 49 62 3d ed 08 6c 3d a0 5a 47 3d
       0.014329014 0.055246335 0.0576257 0.04867041
0002e0 90 9d 14 bd 60 4c 06 bd e8 1f d5 3c 87 14 50 3d
       -0.036283076 -0.03278768 0.02601619 0.050800826
0002f0 53 e8 00 bd 4a 2c 41 3d f0 13 9d bc 9d d1 28 3d
       -0.03147156 0.047161378 -0.019174546 0.041215528
000300 45 dd 91 bb 4d a6 fd 3c 20 10 68 bd 59 4a dc bc
       -0.004451426 0.030963087 -0.056656003 -0.02689092
000310 1a 47 20 bd a1 c1 3f 3d bb 0b 6b bd 7e c6 33 3d
       -0.039130308 0.04681552 -0.057384234 0.04389047
000320 3a ad 63 bc 54 9e cc 3c a7 4a 1f 3d 4e 55 39 3d
       -0.013896281 0.02497784 0.038889553 0.04524737
000330 71 08 1a bd 14 9f fb 3c 48 85 54 bd 10 3c 67 bc
       -0.037605707 0.030715503 -0.05188492 -0.014113441
000340 76 bd 46 bd 32 6c 96 3c 2e 33 7e bd ce 37 63 3d
       -0.048520528 0.018362138 -0.062060528 0.05547314
000350 24 68 8c bc d0 12 bd bc 35 cf 30 bd 06 0f 9c 3c
       -0.017139502 -0.02308026 -0.043166358 0.019050132
000360 f2 bc c2 bb 17 c0 8b bc b1 13 4d 3c cd bb 62 bd
       -0.005942934 -0.017059369 0.012516902 -0.055354882
000370 04 1d ea 3c f7 56 6b bc 28 a0 02 3c 03 c0 7b 3b
       0.028578289 -0.014363996 0.007972755 0.0038414008
000380 50 f4 2c 3d 6d ca 0a 3c 0c f0 a0 3c ff d1 83 bd
       0.042225182 0.008471114 0.019645713 -0.06436538
000390 77 1e a7 3a 39 b8 0b 3d 7b a9 02 3d 6b 95 38 3a
       0.0012750168 0.034111235 0.03189991 0.0007041308
0003a0 a5 71 8d bb fa 68 39 3d bd ae 99 3c 2c 2d ff bc
       -0.004316526 0.04526613 0.01876008 -0.03114947
0003b0 20 bd 47 bd 28 c0 42 3c 8f 01 54 3d 01 5a 67 3d
       -0.048764348 0.011886634 0.0517593 0.05648232
0003c0 b4 7d 56 bd 30 c1 df 3a 25 5e 72 bd 4d d1 fc bc
       -0.052365974 0.0017071124 -0.059171814 -0.030861521
0003d0 9e bd 67 bd ba 98 6a bc 99 ce 4c 3d fb 61 d9 3c
       -0.056577317 -0.014318639 0.050001714 0.026535979
0003e0 08 68 b3 3b 91 52 80 3c ad 58 39 bd 4f 22 d3 ba
       0.005475048 0.01566437 -0.045250583 -0.0016108247
0003f0 c4 dc 41 3d 30 48 f3 3b 75 bd dd bb f0 24 70 3d
       0.04732968 0.007424377 -0.00676697 0.058628976

smallfc.0.0.weight f4 [32, 256]
000000 90 db 41 bd 16 43 ff bc 05 b4 8d bc 43 8b 51 3d
       -0.04732853 -0.031159919 -0.017297754 0.0511582
000010 fa b1 26 3d 03 5b 52 bd d1 c9 59 3d 6b 29 5f bd
       0.040697075 -0.051356327 0.053170983 -0.05448286
000020 b5 8a 77 bd a5 d3 af bc da 0a 6a bd cc 94 1f 3d
       -0.060435016 -0.021463225 -0.057139255 0.038960263
000030 4e 1f ed 3b f4 a5 d5 3c 99 ab 79 bc a4 05 71 3d
       0.007236398 0.02608011 -0.015238666 0.05884327
000040 3f 65 58 bd e5 23 f3 bc 97 f3 52 bd 40 87 8f bc
       -0.05283093 -0.029680202 -0.051501837 -0.017520547
000050 9f d1 71 bd 96 af 20 bd 03 9c 22 3d 3f 5d ba 3c
       -0.0590378 -0.03922995 0.039699566 0.022749541
000060 e0 c6 57 bd ac ab 81 3c d2 e1 35 3c fa 64 3d 3d
       -0.052679896 0.01582893 0.011101203 0.046238877
000070 16 c3 5c 3d 82 e8 5e 3c 07 e5 b5 bc f1 22 b7 3c
       0.053896986 0.013605239 -0.022203935 0.022355529
000080 1f 0e 48 bd 6a 71 79 3c d2 03 c2 bc 0c 72 af bc
       -0.048841592 0.015224794 -0.023683462 -0.021416686
000090 ec 03 99 3c 24 d1 fe bc 2f 4b 08 bd 7b e7 3b bd
       0.018678628 -0.031105585 -0.033274826 -0.045875054
0000a0 35 fc d7 bc 12 88 26 3d 91 0c 4f 3d 72 38 16 3d
       -0.026365379 0.04065711 0.050549094 0.036674924
0000b0 92 07 b8 bc af a6 f1 bc d5 d7 31 bc 83 d8 ff bc
       -0.022464547 -0.029498426 -0.010854681 -0.03123117
0000c0 b1 4a 01 3d 5d c6 1e bc 12 a5 0f bd 06 8e b9 3b
       0.031565372 -0.009690848 -0.035069533 0.0056626825
0000d0 a9 a5 2f 3b 71 e8 2a 3c d0 1a 0b 3d e2 9f 94 3c
       0.0026801622 0.010431395 0.033961117 0.018142644
0000e0 ae bf a6 3c cc f5 cc 3c d2 39 37 bd d2 14 e2 3c
       0.020355072 0.025019549 -0.044732876 0.027597819
0000f0 f5 7f 84 bc a8 b4 4b bd ee 47 6c bc d5 db 86 bc
       -0.016174296 -0.049732834 -0.014421446 -0.016462246
000100 86 55 2e bc c2 13 14 3d 94 f3 c9 bc e9 01 1c bd
       -0.010640508 0.036151655 -0.02465228 -0.03808776
000110 f2 aa 09 bd 66 c7 08 bd 2f 82 2b 3d 95 8f 01 3d
       -0.03361029 -0.033393286 0.0418722 0.03163107
000120 85 82 af 3c 94 42 1c 3d e4 d3 bd bb 8c 41 3f bd
       0.021424541 0.03814943 -0.0057930816 -0.04669337
000130 0c d4 70 3d d5 a9 41 bd d3 81 68 3d b9 43 3e 3d
       0.058795974 -0.047281105 0.056764435 0.046451304
000140 51 b9 2b 3c 92 20 4b 3d 0d 28 2d 3d bd 79 54 bd
       0.010481195 0.04959161 0.042274524 -0.05187391
000150 b6 6b 74 bd 34 b9 f4 3b 8c b1 5e bd a8 75 b4 3c
       -0.059673034 0.007468367 -0.05436854 0.02202876
000160 ff 4b 17 3c 29 49 6f bc 7d 98 19 3d e1 0d ec 3c
       0.0092344275 -0.014604845 0.03749894 0.028815212
000170 68 7a d0 bc ad 1e 57 3d 6d 3b b4 bb ba 68 d7 ba
       -0.025448993 0.05251949 -0.005500248 -0.0016434409
000180 5b 37 14 3a c0 9e ac bc 92 d7 52 bd 69 0f 47 3d
       0.00056540006 -0.021071792 -0.051475115 0.04859868
000190 b6 d0 82 bc 7e 72 31 bd 1a f8 a7 3c 06 45 a8 3c
       -0.015968662 -0.04332208 0.020504046 0.020540725
0001a0 26 23 36 3d 4f ea bc bc 2b 09 bd bc 17 5a 0a 3d
       0.044467114 -0.023060946 -0.02307566 0.033777323
0001b0 17 bb 00 bd 29 df 53 b9 b3 7e 9b ba cc 66 6d 3c
       -0.031428423 -0.00020205662 -0.0011863321 0.014489841
0001c0 10 88 72 3d 3c 61 7d 3d 87 01 3f 3d d1 f4 58 bd
       0.05921179 0.061860308 0.046632316 -0.05296785
0001d0 59 ce f5 bc d2 12 61 bd fc 4c cf bc 88 be 64 3d
       -0.03000562 -0.05494959 -0.025305264 0.055845767
0001e0 9b a4 41 3d 89 52 0d bc 1b 70 d4 bb 9d 81 fd bb
       0.04727612 -0.008625635 -0.0064830906 -0.0077363984
0001f0 be 34 30 bd c6 c9 75 bd 12 75 05 3a 4b 7e 72 3d
       -0.04301905 -0.06000688 0.0005090992 0.059202474
000200 5a ff 96 bc 84 b0 10 3d 35 85 b6 3c 87 6b 4f bd
       -0.018432308 0.03532459 0.022280315 -0.050639655
000210 36 1a 9b bc d8 f5 fb 3c 04 d2 a4 bc 54 e9 7a bd
       -0.018933397 0.030756876 -0.020119675 -0.061257675
000220 45 45 52 3d 1f 1a d2 3c d3 10 0b bd c1 07 73 bd
       0.05133559 0.025647221 -0.03395159 -0.059333567
000230 eb c6 55 bc 0c cf 85 3d 3e 69 30 bd 82 cf 8a bc
       -0.013047914 0.06533632 -0.043069117 -0.01694465
000240 66 f3 2b 3d 81 a6 65 bd d4 eb 96 b8 8e 28 1d bd
       0.04198017 -0.056066994 -7.196484e-05 -0.038368754
000250 88 de 41 3d 76 6d 98 3c c9 7b 16 bd b0 17 62 bd
       0.047331363 0.018606883 -0.036739144 -0.05519837
000260 14 53 1f bd 3a 2a c7 3c 43 c3 1e 3c ed 8e f1 3c
       -0.03889759 0.024312127 0.009690109 0.029487098
000270 77 40 b5 3c 42 c6 79 3d af 3c 3a bd 51 a7 17 bc
       0.022125466 0.06098009 -0.04546803 -0.0092562
000280 a3 74 a3 bc 47 d3 66 bd 41 5c 94 bc ed ce 5f bd
       -0.019953078 -0.056353834 -0.018110396 -0.0546407
000290 ad c3 92 3c f9 b0 0d bd e0 3c 28 3d 68 1d 6b bd
       0.017915571 -0.034592602 0.04107368 -0.05740109
0002a0 7d 22 9e bc f8 e0 6f bc 5d f0 6b 3d 2e 46 29 3d
       -0.019303555 -0.014641039 0.057602275 0.041326694
0002b0 be 5b 63 3d 10 90 29 3d 3b bd 33 bd f5 18 6b bd
       0.055507414 0.041397154 -0.043881636 -0.057396848
0002c0 64 64 35 bd 51 bd d9 3c 3c 3c 4c 3d 53 67 21 3c
       -0.044285193 0.02657953 0.04986213 0.009851295
0002d0 f7 63 bf 3c 0b db 25 bd 41 63 93 3c 52 bf 5b 3d
       0.023363097 -0.0404921 0.017991664 0.053649254
0002e0 ba e1 76 bc 6f d6 0d bd 0f bc 9a 3c e8 a2 a7 bc
       -0.015068466 -0.034628328 0.018888501 -0.020463422
0002f0 60 66 90 3c 47 c3 ec bb 78 56 86 bc f6 69 7d 3d
       0.017626941 -0.0072254273 -0.016398653 0.06186863
000300 8e 9e 06 bd ed 85 e0 3c 3a d7 11 3d 7e cf 30 bc
       -0.032866053 0.02740761 0.035605647 -0.0107916575
000310 ef 42 87 3c bd 95 c4 3c 12 62 9d bc c1 ee 5a 3d
       0.016511409 0.023997182 -0.019211803 0.05345035
000320 eb 2d 75 3d 6b c8 19 3d 28 19 80 bd 25 50 a7 bc
       0.059858244 0.03754465 -0.06254798 -0.020423958
000330 7d b4 ed 3c 2f f6 a8 bc 2b f2 c2 3c 62 d6 7c bb
       0.029016728 -0.020625202 0.023797115 -0.003857993
000340 fb 31 ec bc 29 65 2a bd f1 f0 f7 3c 9d d3 00 3d
       -0.028832426 -0.04160038 0.030266257 0.03145181
000350 7e 1c 64 3d 6d ae 74 bc 58 32 d4 bc 13 90 22 bd
       0.055691235 -0.0149341645 -0.025902912 -0.03968818
000360 18 21 73 3d 30 39 50 3b f9 ad 77 bd 1d 4a 56 bd
       0.059357733 0.0031772368 -0.060468648 -0.052316774
000370 1f ed 03 3d e8 e0 60 bd 55 d8 7d bd dd 48 1d bd
       0.03220856 -0.054901987 -0.06197389 -0.038399566
000380 cd 73 06 b8 22 28 9e 3c d2 80 60 bd c6 ff 30 bd
       -3.2055937e-05 0.019306246 -0.054810353 -0.043212675
000390 bf 58 37 3d 04 96 64 bc e1 8e 6b 3d 01 1e af bb
       0.04476237 -0.013951782 0.057509307 -0.005344153
0003a0 54 78 1b 3d af 12 00 bd 2f b5 bf 3c bc c3 2d 3d
       0.03795655 -0.031267818 0.023401825 0.042422995
0003b0 26 d8 28 bd 12 49 35 3d 0b 64 5c 3d 95 aa 4b 3d
       -0.04122176 0.04425914 0.053806346 0.049723227
0003c0 83 5a 5a 3d 64 a1 e6 bc 99 a3 55 3d d7 1c cf 3c
       0.053308975 -0.028153129 0.052157972 0.025282307
0003d0 27 94 83 bb cd cb f2 bc 10 cf 4c bd 76 31 5f 3d
       -0.004015464 -0.029638195 -0.050002158 0.05449053
0003e0 ad c8 58 bc fe aa 68 bd 28 7d 79 3d 0e cd 1e 3d
       -0.013231439 -0.056803696 0.060910374 0.038769774
0003f0 22 41 5e 3d ff ac 5d bb 44 bf 07 3d 6a 6f 4d 3d
       0.054261334 -0.0033825038 0.03314139 0.05015508

smallfc.0.0.bias f4 [32]
000000 bd da 2c 3c 79 4e 98 bc 06 76 c8 3c bf bf c6 bb
       0.010550198 -0.018592106 0.02447034 -0.0060653384
000010 89 af 32 3b b6 29 79 bd 63 89 29 3d 9b 1b 7a bd
       0.0027265272 -0.060830794 0.041390788 -0.061061483
000020 b5 34 03 3c 60 e0 3a bd ca ea 66 3d 8d 83 e1 3c
       0.008008172 -0.045624137 0.056376256 0.027528549
000030 8b e6 eb bc 7c 28 9a 3a 05 cd da 3c f4 df 0c bd
       -0.028796455 0.0011761333 0.026709089 -0.034393266
000040 d9 44 3a 3d cb 9f 7e 3d f9 bd c9 bc a7 4a 23 3d
       0.045475814 0.06216411 -0.024626719 0.039866116
000050 12 f2 44 3d 9f d9 4b bd b4 46 da bc fb 1d 7e bd
       0.04808242 -0.049768087 -0.026645042 -0.06204031
000060 59 f6 29 bd bf f6 6b bd 5c ed 67 bb 17 3e 28 3d
       -0.0414947 -0.057608362 -0.003538928 0.04107484
000070 73 70 c6 3c df 80 ca bb 32 40 69 3d 88 69 55 bd
       0.024223542 -0.0061799134 0.056945987 -0.052102596

smallfc.0.2.weight f4 [3, 32]
000000 a7 b6 07 be 65 24 0f 3e 24 4b f9 bd 7d 7d 2d 3e
       -0.1325327 0.13978727 -0.12172535 0.16942401
000010 21 b1 76 bd c5 2d 20 be f4 9e 06 be 4b 61 c8 3d
       -0.060227517 -0.1564246 -0.13146573 0.09784182
000020 91 1a 8b bc d2 74 a5 bd 98 71 8b bb 3a 7e 29 3c
       -0.016980441 -0.08078922 -0.004255485 0.010345036
000030 28 e3 46 bc 52 44 c8 3d 27 23 1a bd 65 1a 94 bd
       -0.012139119 0.09778656 -0.03763118 -0.07231597
000040 1b 5e fa 3d 5c 5f 07 3e b7 10 0f bd 1e 50 b2 bd
       0.122249804 0.1321997 -0.03492805 -0.087066874
000050 d5 80 66 3d 4c b7 b7 3d 43 3e 62 bc 46 8e a0 bd
       0.056275208 0.08970508 -0.01380879 -0.078396365
000060 07 f5 ec bd 4c 7b 33 be f0 34 0e bd c4 0b 8d bd
       -0.11570173 -0.17527503 -0.034718454 -0.0688701
000070 c0 cb a4 bc 65 0a 00 be eb a4 a4 bd aa 69 09 3e
       -0.020116687 -0.12503965 -0.08039268 0.13419214
000080 2d 52 26 be 84 5f bf bd a6 ae 05 3e f4 aa 83 3d
       -0.16242285 -0.0934439 0.13054904 0.06429091
000090 e1 79 22 3e 17 e3 3d 3c 86 5e e0 3d 78 25 f4 3d
       0.15866806 0.011589787 0.10955529 0.11921209
0000a0 6e eb 0f 3e 8d 74 fa bb 3b e9 04 be cc fc 0a be
       0.14054653 -0.0076432885 -0.12979595 -0.13572997
0000b0 f2 d3 0d be fc 5b ce 3d 17 c6 30 be 30 07 87 3c
       -0.13850382 0.100761384 -0.17263065 0.01648292
0000c0 44 7b 41 3d 69 6b c8 3d 0f 36 08 3d 9e 02 c6 3d
       0.047236696 0.09786112 0.03325468 0.09668468
0000d0 3e 98 63 3d 6b 47 26 3e 47 1c 78 3d 56 7b 16 bd
       0.05556511 0.16238181 0.060573842 -0.036738716
0000e0 cf a9 87 bd 0d 6f 1c be 21 91 07 bd 8e 91 9f ba
       -0.06624185 -0.15276738 -0.03309739 -0.0012174116
0000f0 3e 92 b6 3d 04 59 9c bd 1c 78 18 be d5 cc a5 bd
       0.08914612 -0.07634166 -0.14889568 -0.08095709
000100 40 3b da bd ef 69 db 3d e2 b0 24 be 41 bb 30 be
       -0.10655832 0.107135646 -0.160831 -0.17258932
000110 3f b2 14 be f2 68 be 3d d4 7d 2a be 95 e5 8d 3c
       -0.1452112 0.092973605 -0.16649562 0.017321387
000120 f3 18 4d bc 87 56 10 3e c2 ca 0d be f7 ed 24 3e
       -0.012518155 0.14095508 -0.13846877 0.16106401
000130 81 72 4e bd 00 c5 b3 3d 1d 66 82 bd 6e 63 3e 3d
       -0.05040217 0.08777809 -0.06367133 0.046481542
000140 b9 e5 0c 3e fa 7f c5 bd a8 1d 13 be 4a 08 d1 3a
       0.13759507 -0.0964355 -0.14366782 0.0015947905
000150 89 df b3 3d 8c 7c 6b 3d 52 8d 6a bd 32 b9 2d be
       0.0878287 0.057491824 -0.05726368 -0.16965178
000160 77 80 21 be d1 18 e1 3d cd 87 f3 3d 8a ed b4 bd
       -0.15771662 0.109910615 0.11891136 -0.088343695
000170 74 d8 22 3e 9a df 21 be fb 6d 1f 3e e6 2f c3 bd
       0.15902883 -0.15807953 0.15569298 -0.0953062

smallfc.0.2.bias f4 [3]
000000 83 9f 90 bd 65 40 1f be 82 e1 05 3e
       -0.070616744 -0.15551908 0.13074306

smallfc.1.0.weight f4 [32, 256]
000000 5f 3b 6f bd e1 0b 2f 3c d3 08 ed bc 2c 38 2a bd
       -0.05840623 0.0106839845 -0.028934872 -0.041557476
000010 ce 29 1f 3d 15 94 26 3d 63 15 6d bc ff 0a 6e 3d
       0.038858227 0.040668566 -0.014470431 0.058115955
000020 32 20 5b bd ab aa 39 bc 9f f8 33 bc 5c c3 18 3c
       -0.0534975 -0.011332194 -0.010984569 0.009323921
000030 ce 16 81 3c be 43 57 3d 3c c2 4d 3d 4b 68 be bb
       0.015757944 0.05255484 0.050234064 -0.0058107725
000040 92 b0 39 bd 5b 29 6e 3d 70 96 9d bc 7e ca 58 3d
       -0.045334406 0.05814491 -0.019236773 0.052927487
000050 86 a9 63 bd f5 6c 55 3d 3b 04 1f 3d 8e b8 aa bb
       -0.055581592 0.052105863 0.038822394 -0.005209989
000060 1d e2 2b bd 86 e8 40 bd e2 39 a1 bb 5b 0f 11 3d
       -0.041963685 -0.04709675 -0.0049202302 0.035415035
000070 c9 db 9e bc 1f be 3d bd 40 ac ce bc 98 9e 4b bd
       -0.019391911 -0.04632389 -0.02522862 -0.049711794
000080 e5 33 4f bd e6 ea 07 3d fd c5 aa ba 20 46 65 bc
       -0.0505866 0.033183 -0.0013028976 -0.01399377
000090 4e d7 21 bd 70 39 3b 3c f0 79 01 3d da a5 bb bc
       -0.03951197 0.011427268 0.03161043 -0.022906233
0000a0 5b d1 1d 3d 8f 62 23 bd 75 37 f1 bb ac ae b7 bc
       0.038529735 -0.039888915 -0.0073613473 -0.022422157
0000b0 17 5f 77 bd ab 0b 83 bd 8a 7f 83 3d 5f a6 72 bc
       -0.06039342 -0.0639871 0.064208105 -0.014810174
0000c0 0f e0 2c bc 62 8d 24 3d f8 1d 74 bd f3 df 94 3c
       -0.010551467 0.040173896 -0.059598893 0.018173194
0000d0 32 59 dd 3c f1 05 7c bd c5 8c 84 3d 4a 5f b6 3c
       0.02702007 -0.061529104 0.06472162 0.022262234
0000e0 82 1a 93 bc 1b ee 5a 3d 08 97 6c bd ab 0c 47 3d
       -0.017956976 0.05344973 -0.057761222 0.048596065
0000f0 a1 fe 80 34 ec 9b b1 bb 3d 8c 67 bd aa 2f 1c 3b
       2.4027125e-07 -0.0054201987 -0.056530226 0.002383212
000100 8c fe fd bc c7 03 6f 3d 4e 78 7e bd ca 20 90 bc
       -0.031005166 0.05835321 -0.06212645 -0.01759376
000110 47 fa fd 3a 75 50 88 3c 3a 5f 49 3d 33 5a f3 3c
       0.0019376957 0.016639927 0.04916308 0.029706096
000120 0d d1 9f 3c 1d 31 fe bc e5 7d 58 bd fb b1 4b bd
       0.019508863 -0.031029278 -0.052854437 -0.049730282
000130 8f 5f ac 3b cf c8 28 3d 31 da da 3c 85 bd 41 3c
       0.005260415 0.04120713 0.02671537 0.01182497
000140 b1 d4 b1 3c f2 28 6f 3d 67 9b 55 b9 22 92 fd 3b
       0.021707864 0.058388658 -0.00020371155 0.0077383677
000150 4d 25 00 bd 09 d8 76 3c ec 4f d5 ba 4e 2a 29 bd
       -0.031285573 0.015066155 -0.0016274429 -0.04130011
000160 d6 ee 21 3d 90 21 d0 3c f8 9f 67 3d 60 ee 0c bd
       0.039534412 0.025406629 0.056549042 -0.03440702
000170 f7 57 a7 3c 0b 63 73 bd 6d d2 dd 3c 4f 12 26 3d
       0.020427687 -0.059420627 0.027077878 0.040544804
000180 63 b7 18 bd ea b2 ba 3c 47 5d b8 bc b2 e6 62 3d
       -0.037284266 0.022790391 -0.022505416 0.05539579
000190 52 03 06 bd a7 66 2e bc 32 28 4c 3d 92 11 1c bc
       -0.03271801 -0.010644591 0.04984302 -0.009525673
0001a0 67 1d 46 bd b8 f0 19 3d 88 12 d5 bc 0b 33 c5 bc
       -0.048367884 0.037583083 -0.026009813 -0.02407219
0001b0 ba 0c 2c bd c8 c9 6f 3d 4e 7c 34 bd cc ea 6f 3d
       -0.042004324 0.058542043 -0.04406386 0.05857353
0001c0 61 3f 91 bb e9 7e 70 bd ed 58 10 3b 7d 41 57 bc
       -0.004432604 -0.05871478 0.002202566 -0.013138172
0001d0 8c ef 42 bd 11 d4 f1 bb 49 56 8e ba 4b a3 5b bc
       -0.04759173 -0.0073800166 -0.0010859455 -0.013405631
0001e0 d6 0f 33 bd f1 33 01 3d f5 a2 64 bd 2b 81 68 3c
       -0.043716274 0.031543676 -0.05581947 0.014190952
0001f0 d8 87 39 bd 25 7b 93 bc b5 61 6e bd be 31 d3 3b
       -0.045295566 -0.018003056 -0.05819865 0.0064451387
000200 5c 86 29 3d 70 6a e1 bc 6c 30 b9 3c 23 c6 0c bd
       0.0413879 -0.027516574 0.022606097 -0.034368645
000210 ea a8 ea ba 2e ea 7d 3b cf 46 20 bd cc 2f 73 3d
       -0.0017903124 0.0038744318 -0.03913003 0.059371755
000220 cd 9c 53 bd 6b 1e 68 bc e3 9c 2b bd 22 68 49 3d
       -0.05166321 -0.014167408 -0.041897666 0.049171574
000230 02 0c 0c 3d 0a a8 5b 3d ad 08 4f 3d 8b a9 41 3d
       0.03419114 0.05362705 0.050545383 0.04728083
000240 ff 99 c9 3c 4c 92 5f 3d 5b 65 0e 3c ce 17 19 3d
       0.024609564 0.05458288 0.008691157 0.037376218
000250 0c 88 ae bc c4 08 46 bd 84 b8 69 bd cf 3f 17 3d
       -0.021305107 -0.048348203 -0.057060733 0.036926087
000260 41 d3 66 3d ce 63 25 bd 64 9d 10 3c eb ce 17 3c
       0.05635381 -0.040378384 0.008826587 0.009265642
000270 56 b0 33 bc 80 72 02 bd 4d ee ac bc 0b a1 12 3d
       -0.010967335 -0.031847477 -0.021109724 0.035798114
000280 c1 cb 8d 3c 35 68 2d bd 95 a8 da 3c 75 20 81 3d
       0.017309071 -0.042335708 0.026691714 0.06305019
000290 87 8a b1 3c 23 f3 ae 3b 4b 1f 43 bd 32 52 85 3c
       0.0216725 0.0053390427 -0.047637265 0.016274545
0002a0 c6 f0 09 3d aa d2 03 bd 52 54 b5 bc 76 42 91 bb
       0.033676885 -0.032183327 -0.022134934 -0.0044329716
0002b0 96 f7 e9 bb c5 27 01 3d b3 ad 2f 3d 7a 56 3f bc
       -0.0071401102 0.031532068 0.04289026 -0.011678332
0002c0 ad b8 11 bd 84 a4 7a bd 04 5b eb 3c e8 1d 3f bd
       -0.03557651 -0.06119205 0.028729923 -0.04665938
0002d0 76 54 3e 3d c6 b6 3f bd 21 3e 86 bc f2 11 40 3d
       0.046467267 -0.046805166 -0.016387047 0.046892114
0002e0 9a 86 62 3d 14 e0 32 bd 28 28 81 bd 8e 28 47 3d
       0.055304147 -0.04367073 -0.06306487 0.04862266
0002f0 cb 95 99 bc 12 48 1c 3d af e1 67 3d ca 4e 17 bd
       -0.018748185 0.03815467 0.056611713 -0.036940373
000300 5f b9 2d 3d c0 32 26 3d 77 42 ae bc 22 b7 28 3d
       0.04241311 0.040575743 -0.021271927 0.041190274
000310 f3 7c 60 bb ca d8 01 bd 40 67 92 3c 7e b7 9c 3c
       -0.0034254163 -0.031700887 0.017871499 0.019130465
000320 2b 31 59 bd 4a 86 61 3d 1f af c2 bc 78 d9 41 3d
       -0.053025406 0.05505971 -0.023765145 0.047326535
000330 aa 99 33 bd 8b 02 34 3d 75 2d 6b 3d 4b b0 77 3d
       -0.043847717 0.043947738 0.057416398 0.06047086
000340 90 c3 a7 3c dc 64 49 bc 4d 35 57 3d 2c 3a 54 3d
       0.020478994 -0.012292113 0.052541066 0.05181329
000350 b8 80 a6 3c 4a 9c 4e 3d c6 c8 73 3d f6 4b 35 3d
       0.02032505 0.050442018 0.059517644 0.044261895
000360 5e 01 81 bc 3f 42 ea bc 44 75 35 bd 0b 20 4f 3d
       -0.015747722 -0.028596042 -0.044301286 0.050567668
000370 6e 40 5d 3d 62 9f f6 bc 20 b4 fd 3c e2 84 50 3c
       0.054016523 -0.030105297 0.03096968 0.012726994
000380 d9 78 b4 3c 39 29 08 bd bb e9 52 3d 21 3b a3 3c
       0.02203028 -0.033242438 0.051492434 0.019925656
000390 2b 39 45 bd 77 08 fb bc ca ce 5f 3d 4b 2a 6f bc
       -0.048150223 -0.030643685 0.05464057 -0.014597486
0003a0 b2 65 0e 3d 79 21 20 bd b3 bf f3 bc 76 91 d9 3c
       0.034764953 -0.039094422 -0.029754495 0.026558619
0003b0 01 6c 83 3d c6 ed da bc 53 2c 06 3d 64 b6 52 3c
       0.064170845 -0.026724707 0.032757115 0.012860868
0003c0 d5 30 74 bd 1f 30 18 bd 89 d5 5c bd 13 a5 7c 3d
       -0.059616882 -0.037155267 -0.05391458 0.061680865
0003d0 7f f5 7f 3d 80 44 6c 3d 85 fb a7 bb da c6 b5 bc
       0.062489983 0.057682514 -0.005126419 -0.022189546
0003e0 8e be 64 bd c3 93 e9 bc 76 8e 44 bd b0 3e b1 bc
       -0.05584579 -0.028512841 -0.047987424 -0.021636337
0003f0 d4 c5 35 3d 63 19 42 bd f5 0e 5c 3d e4 8d 64 bd
       0.044378117 -0.047387492 0.0537252 -0.05579938

smallfc.1.0.bias f4 [32]
000000 a2 c3 9a 3c ef 75 72 3d e1 e6 6b 3c ab f3 66 3b
       0.018892113 0.0591945 0.014398308 0.0035240452
000010 46 40 72 3a 11 bd 19 bc 7c d2 94 3c 83 70 ff 3b
       0.0009241145 -0.009383456 0.018166773 0.007795395
000020 59 df 81 3d fc 72 0a bd e9 17 13 bd 1e ad 68 3d
       0.06341428 -0.033801064 -0.035911474 0.056805722
000030 33 74 0f 3d 6c 1e 8d 3b d5 2c 58 3d f2 43 9c bb
       0.035022926 0.004306605 0.05277713 -0.004768842
000040 a5 3d be 3c 1e 9b 85 3c 21 9e a4 3b 02 1f 12 3d
       0.023222754 0.016309317 0.0050237332 0.035674103
000050 1f d2 05 bd a1 83 88 bc 15 98 33 3d 2b 1b 23 3d
       -0.03267109 -0.016664328 0.04384621 0.03982083
000060 9d 48 ac 3c 72 e0 ff 3c d0 76 2c 3d b9 68 9b bb
       0.021030718 0.031234954 0.042105496 -0.0047427085
000070 6b 28 71 3d ae ae 89 3c a4 04 4d bc b4 a5 d8 3c
       0.058876436 0.016806927 -0.012513313 0.0264462

smallfc.1.2.weight f4 [3, 32]
000000 18 dc 78 3d 54 50 07 be 28 29 0b 3c f2 8b 25 3d
       0.060756773 -0.13214236 0.008493699 0.040416665
000010 83 35 01 3e 84 b7 12 be 54 d8 04 be 18 df 08 be
       0.1261807 -0.14327818 -0.12973148 -0.13366354
000020 c8 69 cb 3d 4b 0d c0 bb ce 05 29 be b0 59 f2 bd
       0.099322855 -0.0058609596 -0.1650612 -0.11833513
000030 01 2e 18 3e 40 9e af 3d aa 3c 09 3e ba f4 31 be
       0.14861299 0.08575106 0.13402048 -0.17378512
000040 ab 7b 92 bd a9 64 3a 3d e4 31 a7 3d 9a e9 16 3e
       -0.07152494 0.045506153 0.08163813 0.1473755
000050 d8 20 27 be 52 b3 c6 3d 6c b2 d4 3c ab db 35 3e
       -0.16321123 0.097021714 0.025963984 0.17759578
000060 1d c8 1b be c6 69 19 3c 3d 6b 2f be ea 93 4b bd
       -0.15213056 0.009363597 -0.17130752 -0.04970161
000070 b2 8c bb 3d 02 d4 f2 3d 61 1b 25 be 26 ce 69 3c
       0.09157695 0.118568435 -0.16123725 0.014270341
000080 73 93 19 3e 0d 6a 11 bd b1 cd ee bc e0 32 d6 3c
       0.14997654 -0.03550153 -0.029150816 0.026147306
000090 6f 3d 05 bc 4b f3 fd bb 42 92 1f 3e 8a 90 84 bd
       -0.008132323 -0.00774995 0.15583137 -0.06472881
0000a0 e9 6c 27 be 66 b3 17 3e 3b 6f 80 bd 17 4b a1 bd
       -0.1635014 0.14814529 -0.062712155 -0.078756504
0000b0 55 0c 80 bd 4f 6e e4 3d 3a 79 1b 3c 03 b1 d0 3d
       -0.06252352 0.11153852 0.009489352 0.10190012
0000c0 92 41 f0 bd d0 27 8b bd 12 fe fa bd 64 f0 06 3e
       -0.117312565 -0.06794703 -0.12255491 0.13177639
0000d0 91 c4 22 be ab 31 2a be a9 99 cc 3d 7d 72 d6 bd
       -0.15895297 -0.1662051 0.09990246 -0.10471056
0000e0 b3 ed 1b 3e b3 43 12 be 85 7c 10 bc 70 63 a7 3d
       0.15227394 -0.14283638 -0.00881875 0.08173263
0000f0 37 bf d8 3d 76 1a 93 bd 30 ce 35 bd d5 99 87 3d
       0.10583346 -0.071827814 -0.04438609 0.06621138
000100 46 be ba bd 71 fb ce bd d6 05 c2 3d e3 33 31 3d
       -0.09118323 -0.101065524 0.09473769 0.043262374
000110 7c 31 22 be 97 be 03 bc c6 9e 8d 3d b1 a4 2c be
       -0.1583919 -0.008041046 0.06915049 -0.168597
000120 6d 90 a6 bd 0e a2 23 be b4 d6 33 be c9 6b 9d bd
       -0.08133016 -0.15979788 -0.17562371 -0.07686574
000130 7a 3f 20 3e 92 88 67 ba 8b 17 55 bc 10 9f 07 3d
       0.15649214 -0.0008832301 -0.013006101 0.03311068
000140 f7 7e 16 3d d6 d4 72 bb a6 71 94 3d 1f 08 5b bd
       0.036742177 -0.003705313 0.07248239 -0.05347454
000150 2c f4 31 3e 39 52 44 3c 65 3c 7d bd 04 58 4f bc
       0.173783 0.011982494 -0.061825175 -0.012655262
000160 b4 96 d7 3d e7 c1 f2 bd 3d 2e 29 3e b0 90 a5 bc
       0.10526791 -0.1185339 0.16521545 -0.020210594
000170 8c 97 5b bc da 9e 93 bd 0c 9a d2 3d 59 f5 72 3d
       -0.013402831 -0.07208033 0.10283288 0.059316013

smallfc.1.2.bias f4 [3]
000000 86 27 82 3d f7 6b 87 bd 17 58 da bd
       0.06355195 -0.066123895 -0.10661333
