saved_models/kdv/model_89.pt (torch, 329676 bytes, 7 tensors)

layers.0.weight f4 [200, 4]
0.009055522 0.3277784 -0.097161055 -0.009144759 -0.222049 0.32055357 -0.046883754 0.15866126
0.11014744 0.19405058 -0.0031417313 -0.060294 -0.69749296 -0.117583014 -0.020549644 0.018521527
0.07791067 0.39543658 -0.012068196 -0.079352304 0.46003893 0.48658475 0.016461687 0.10740211
-0.19281515 -0.14030322 0.010188187 -0.22298083 -0.18966363 -0.23163363 -0.035458867 -0.0023872496
0.12562746 -0.53964144 -0.053192854 -0.24948286 -0.27276433 0.393198 0.00828686 0.042731736
0.6666914 -0.51892316 -0.00866134 -0.16820145 -0.043811716 -0.6388776 0.0048680054 0.28837597
-0.14135964 0.2793556 0.015811317 0.24642408 0.09638223 0.2079714 0.024135487 -0.0053321524
0.16953942 -0.4147938 -0.047210783 -0.07672958 0.46136934 0.22077413 -0.010255095 0.045111556
0.57734853 0.01710878 -0.009766547 0.05234026 0.1438884 0.24398147 0.038231257 -0.0017522735
-0.3315116 0.68660194 0.13456209 0.11523813 0.020978643 -0.78192604 0.0080167875 -0.055533417
-0.21771818 0.42883295 0.017738974 -0.31682384 0.4125182 -0.119145066 -0.011301774 -0.03503614
0.24433793 -0.21695876 0.01664093 0.04261663 0.7371679 -0.36111364 -0.02813785 -0.15474455
0.52115387 -0.26518545 -0.01214066 -0.27033684 0.3744434 0.10326742 0.0041285376 -0.067055106
-0.26476154 0.23156384 -0.15838672 -0.20789477 0.05511518 0.0061418945 -0.0009785416 0.26269004
-0.24808292 0.96478444 0.013728632 0.07094651 0.09031103 -0.17438562 -0.007988641 0.055234946
0.4523708 0.1251885 -0.042698443 0.049217757 -0.690654 -0.20078276 -0.007771285 -0.045874473
-0.062343046 -0.44129524 -0.0060738795 0.10903444 -0.42927584 -0.086967416 0.0030200575 -0.020048112
0.033920504 -0.27506378 0.0048887245 -0.0058305683 0.7367887 0.22986759 0.020370116 -0.007344511
-0.08582248 -0.32055134 0.0767648 -0.034342863 0.06889372 -0.6035228 -0.07290542 -0.16386358
-0.12316353 0.23343354 0.029589377 0.016805401 0.3125818 -0.34325475 -0.013456402 -0.051751446
0.48277128 -0.50714695 -0.08509832 -0.23052879 0.37953156 -0.011089022 -0.024475256 0.0491965
-0.6159693 -0.15550363 -0.0063153193 -0.035627108 1.1183299 0.4307081 0.002669485 0.13815263
-0.34239617 -0.3283601 0.0370178 -0.14868732 0.092898235 -0.25595415 0.025897425 -0.0021259673
0.5001286 0.08005268 0.0036364396 -0.025726654 -0.6422739 0.48411345 -0.00678872 0.14358698
-0.6690501 -0.0128247095 -0.016771449 -0.023208734 -0.26140264 0.14314876 -0.008763478 -0.042245694
0.021357315 0.47578984 -0.021362292 -0.027779276 0.25072497 0.45057398 -0.0128183765 0.23167078
0.5288095 -0.006354873 0.0009448739 -0.029595131 0.15009862 -0.17302553 -0.02513513 0.07520245
-0.71292245 -0.46153215 0.011887498 -0.13992079 -0.059404187 0.7419007 -0.001296622 -0.10050628
-0.38268855 0.12980153 -0.01616512 0.0123845255 -0.04815374 -0.26180968 -0.003482604 -0.005993979
0.16177613 0.23712884 0.03797988 -0.004544768 0.018056255 -0.27546123 0.006399328 -0.0037112958
0.14673726 0.26631537 0.007562766 -0.036657657 0.40744466 -0.56283057 0.10845809 -0.08000222
0.13579929 -0.114614435 -0.0015811134 0.02935627 0.6550021 -0.15692969 0.0033716143 -0.066900864
00000000: 9d5d 143c 92d2 a73e 60fc c6bd e6d3 15bc
00000010: d060 63be 991f a43e 2e09 40bd 1978 223e
00000020: fb94 e13d 32b5 463e 81e5 4dbb d7f6 76bd
00000030: e68e 32bf 5dcf f0bd ba57 a8bc 75ba 973c
00000040: a18f 9f3d aa76 ca3e afb9 45bc 7683 a2bd
00000050: 398a eb3e a321 f93e a9da 863c a3f5 db3d
00000060: 5671 45be a6ab 0fbe 5aec 263c 1655 64be
00000070: 2f37 42be 5e31 6dbe 513d 11bd 6773 1cbb
00000080: 7ca4 003e f125 0abf c0e0 59bd 6f78 7fbe
00000090: c4a7 8bbe 4051 c93e 9cc5 073c 7907 2f3d
000000a0: 4aac 2a3f 26d8 04bf 4be8 0dbc 003d 2cbe
000000b0: ea73 33bd 7b8d 23bf ca83 9f3b 04a6 933e
000000c0: 95c0 10be b207 8f3e bc86 813c 9856 7c3e
000000d0: 0c64 c53d 74f6 543e c9b7 c53c 56b9 aebb
000000e0: be9b 2d3e da5f d4be 1860 41bd 6624 9dbd
000000f0: 9a38 ec3e 9d12 623e fc04 28bc e5c6 383d
00000100: 1dcd 133f b627 8c3c de03 20bc be62 563d
00000110: 7b57 133e 47d6 793e 6198 1c3d 8bac e5ba
00000120: e3bb a9be 25c5 2f3f a5ca 093e f801 ec3d
00000130: 67db ab3c 4e2c 48bf d858 033c 0277 63bd
00000140: 84f1 5ebe fe8f db3e 5351 913c bc36 a2be
00000150: 9635 d33e 5402 f4bd 132b 39bc 0e82 0fbd
00000160: b933 7a3e 702a 5ebe 8f52 883c c78e 2e3d
00000170: 09b7 3c3f e3e3 b8be 5981 e6bc 5b75 1ebe
00000180: 576a 053f 63c6 87be 9ee9 46bc 9769 8abe
00000190: 0cb7 bf3e de7d d33d af48 873b 3054 89bd
000001a0: d38e 87be 121f 6d3e 2130 22be 5ee2 54be
000001b0: 74c0 613d f241 c93b 6842 80ba 4f7f 863e
000001c0: 7309 7ebe 1dfc 763f 0eee 603c 674c 913d
000001d0: fdf4 b83d 2592 32be cae2 02bc 0a3e 623d
000001e0: 259d e73e 6a31 003e 90e4 2ebd 8f98 493d
000001f0: b3ce 30bf ff99 4dbe 43a6 febb dfe6 3bbd
00000200: 6c5b 7fbd 73f1 e1be 6507 c7bb 734d df3d
00000210: 0bca dbbe f91b b2bd 28ec 453b f03b a4bc
00000220: 3af0 0a3d 29d5 8cbe 9831 a03b 5a0e bfbb
00000230: 2f9e 3c3f 6962 6b3e 3bdf a63c 39aa f0bb
00000240: b2c3 afbd 4e1f a4be dd36 9d3d 1aab 0cbd
00000250: 2718 8d3d 7880 1abf 704f 95bd dbcb 27be
00000260: 293d fcbd 3409 6f3e 6c65 f23c 7bab 893c
00000270: b90a a03e 16bf afbe 3e78 5cbc 53f9 53bd
00000280: cc2d f73e 62d4 01bf 0748 aebd bd0f 6cbe
00000290: f651 c23e bbae 35bc 5580 c8bc 4582 493d
000002a0: 2ab0 1dbf 583c 1fbe bdf0 cebb bbed 11bd
000002b0: 6f25 8f3f c685 dc3e 87f2 2e3b e277 0d3e
000002c0: 8d4e afbe d11e a8be fa9f 173d 7d41 18be
000002d0: 6e41 be3d 6c0c 83be d626 d43c d053 0bbb
000002e0: 6e08 003f a9f2 a33d 5551 6e3b b4c0 d2bc
000002f0: 106c 24bf b8dd f73e e973 debb 7708 133e
00000300: de46 2bbf bb1e 52bc 4764 89bc 3e20 bebc
00000310: 91d6 85be 9795 123e b194 0fbc d209 2dbd
00000320: 89f5 ae3c ba9a f33e f9ff aebc 5d91 e3bc
00000330: 065f 803e a2b1 e63e 2b04 52bc 1b3b 6d3e
00000340: 0f60 073f 8a3c d0bb 6ab1 773a 7d71 f2bc
00000350: 74b3 193e 9b2d 31be 30e8 cdbc be03 9a3d
00000360: 1682 36bf f14d ecbe c8c3 423c 6547 0fbe
00000370: ce51 73bd 34ed 3d3f 6af3 a9ba 3dd6 cdbd
00000380: c1ef c3be b1ea 043e b76c 84bc 77e8 4a3c
00000390: db3c 45bd eb0b 86be 663c 64bb 2469 c4bb
000003a0: a4a8 253e e7d1 723e ca90 1b3d 47ec 94bb
000003b0: b6ea 933c 4109 8dbe 74b1 d13b 3639 73bb
000003c0: 4b42 163e 7d5a 883e 14d1 f73b 5726 16bd
000003d0: 969c d03e aa15 10bf 461f de3d 34d8 a3bd
000003e0: f80e 0b3e f9ba eabd 5d3d cfba 8f7c f03c
000003f0: 38ae 273f 2db2 20be 4df6 5c3b 5203 89bd

layers.0.bias f4 [200]
1.1595323 -0.5140848 0.55032605 -0.4925436 0.21586241 0.5025569 0.67996764 -0.4796084
-0.13176486 0.72514385 -0.31966907 -0.11305077 0.34553248 -0.103061095 0.03140645 0.2135131
-0.22467041 1.0457592 0.39662582 0.26020116 0.70563173 -0.2709209 0.4550011 -0.20848049
-0.11028854 0.11610913 -0.5727997 -0.23551078 0.3012409 0.121774286 0.41023192 0.3704148
0.032856446 -0.016226256 -0.5787672 0.31955436 0.10248923 -0.3513293 0.7012996 -0.08111468
-0.19410422 0.5286269 0.33575487 -0.04222093 0.40699956 0.14077055 0.4322891 0.901493
0.57766014 0.13130894 0.401098 0.26623932 -0.15118523 -0.16454813 0.48625612 -0.4894812
0.16771238 -0.18079357 0.6604279 -0.20875026 0.60024154 1.4899576 0.42401585 -0.27061188
0.98974663 0.13366777 0.1385318 -0.28010982 0.3319515 0.36948314 0.5527835 -0.2115272
-0.3591652 0.04653822 -0.21026666 0.452848 0.58171165 0.80072796 -0.41197467 0.2108025
-0.0630588 -0.5019289 -0.6289203 0.41500744 0.622254 0.63275105 0.9527967 -0.7337729
0.23953003 0.6058797 -0.27542642 0.6348576 0.42865896 0.46964192 -0.2315378 0.20480038
-0.3577913 -0.022081582 0.53856206 0.07821495 0.29003537 0.6947326 0.66489637 0.5067285
0.72502774 -0.009090771 -0.7626643 -0.26250798 -0.073076814 0.36613634 0.55121225 -0.6129978
0.9706301 -0.05979785 1.0349411 0.6054395 -0.34935045 -0.48597828 0.65901 0.15478607
0.73849833 -0.58665514 -0.39720565 0.5251277 0.310928 -0.1626551 0.3682699 -0.24476865
0.5346584 0.4520885 0.762356 -0.33832037 -1.159438 0.7115637 0.6468082 0.6490962
0.56313676 -0.35348204 0.61548305 -0.5062916 0.26676062 -0.48101303 -0.47057173 0.40915102
-0.30081254 0.046507996 -0.48581555 -0.42482418 0.9893645 0.032716356 -1.1023654 0.107107684
0.2614863 -0.6208578 0.18068515 0.98642886 0.45467797 0.18343005 0.22669597 0.13473548
-0.25846827 -0.3826999 0.8243232 -0.9345227 -0.7682741 0.3790014 0.57054406 -0.73063487
0.8866074 0.68329203 0.41724718 0.31444594 0.7001908 0.5566401 -0.04089113 0.17444055
0.52560836 0.88814306 -0.16067086 0.88719887 -0.570746 -0.48052013 0.14589615 -1.1533123
0.53372556 -0.22079682 -0.27942032 0.21907842 -0.1910187 0.88745594 -0.6912856 0.46295583
0.45571774 0.5214229 1.0835538 0.060785383 -0.100030564 -0.25644416 0.028465364 0.27989554
00000000: 8e6b 943f 109b 03bf 2be2 0c3f ad2e fcbe
00000010: 090b 5d3e 92a7 003f 5c12 2e3f 3b8f f5be
00000020: 5eed 06be 07a3 393f aaab a3be 2987 e7bd
00000030: a2e9 b03e b211 d3bd 0da4 003d 2ea3 5a3e
00000040: 0010 66be 70db 853f 8a12 cb3e 1639 853e
00000050: 48a4 343f 25b6 8abe e7f5 e83e e97b 55be
00000060: f5de e1bd a0ca ed3d 00a3 12bf bd29 71be
00000070: 3f3c 9a3e cc64 f93d eb09 d23e 02a7 bd3e
00000080: 7b94 063d edec 84bc 162a 14bf a19c a33e
00000090: e0e5 d13d 6fe1 b3be 5f88 333f 741f a6bd
000000a0: 42c3 46be 1854 073f 10e8 ab3e dbef 2cbd
000000b0: 3f62 d03e 2826 103e ff54 dd3e 3fc8 663f
000000c0: 89e1 133f da75 063e b85c cd3e 8550 883e
000000d0: 4dd0 1abe 4e7f 28be 90f6 f83e 489d fabe
000000e0: cbbc 2b3e f321 39be ce11 293f a1c2 55be
000000f0: 6ea9 193f eeb6 be3f 9b18 d93e a48d 8abe
00000100: 0960 7d3f 34e0 083e 48db 0d3e 8e6a 8fbe
00000110: 8cf5 a93e e52c bd3e 3883 0d3f 969a 58be
00000120: 80e4 b7be dc9e 3e3d 2550 57be b1db e73e
00000130: 0eeb 143f 82fc 4c3f 58ee d2be 9cdc 573e
00000140: f924 81bd 6a7e 00bf ec00 21bf db7b d43e
00000150: 0a4c 1f3f f9fb 213f 7cea 733f 8ad8 3bbf
00000160: 5c47 753e ef1a 1b3f b104 8dbe 0786 223f
00000170: 3079 db3e e874 f03e 3f18 6dbe 31b7 513e
00000180: 6c30 b7be 6fe4 b4bc 34df 093f 292f a03d
00000190: 847f 943e ffd9 313f a636 2a3f f5b8 013f
000001a0: 6b9b 393f 75f1 14bc f83d 43bf 7267 86be
000001b0: 4ca9 95bd 3976 bb3e 3f1c 0d3f 6ced 1cbf
000001c0: 377b 783f 97ee 74bd f378 843f 15fe 1a3f
000001d0: 10de b2be 25d2 f8be e1b4 283f 3d80 1e3e
000001e0: 3a0e 3d3f 082f 16bf 8a5e cbbe c56e 063f
000001f0: f431 9f3e 0f8f 26be df8d bc3e a2a4 7abe
00000200: 5fdf 083f 2578 e73e c329 433f 5438 adbe
00000210: 7768 94bf 0a29 363f 3995 253f 2b2b 263f
00000220: bb29 103f 99fb b4be 4c90 1d3f 549c 01bf
00000230: d994 883e 5747 f6be c7ee f0be 3e7c d13e
00000240: 1a04 9abe 2b7f 3e3d d1bc f8be 8e82 d9be
00000250: fe46 7d3f 9601 063d 4f1a 8dbf 465b db3d
00000260: 88e1 853e 89f0 1ebf 8705 393e 9a86 7c3f
00000270: 8dcb e83e 16d5 3b3e fd22 683e 19f8 093e
00000280: f455 84be 3ef1 c3be d806 533f e13c 6fbf
00000290: 9dad 44bf 790c c23e 2d0f 123f e30a 3bbf
000002a0: b4f8 623f 3aec 2e3f 6ca1 d53e 0fff a03e
000002b0: b43f 333f f77f 0e3f 757d 27bd 8ba0 323e
000002c0: 458e 063f 585d 633f e786 24be 771f 633f
000002d0: 691c 12bf bc06 f6be cd65 153e bd9f 93bf
000002e0: 3da2 083f 9018 62be 2e10 8fbe 1856 603e
000002f0: 689a 43be 5030 633f 18f8 30bf 8c08 ed3e
00000300: d653 e93e f97b 053f e4b1 8a3f 18fa 783d
00000310: d3dc ccbd a64c 83be 3230 e93c 784e 8f3e

layers.2.0.weight f4 [200, 200]
0.03462402 -0.18879795 -0.07881009 0.16748224 -0.038161676 0.12922649 -0.038873825 0.030480932
0.035790976 -0.02967159 0.06782792 -0.043978468 0.016737245 -0.12528649 0.057764884 0.2519866
0.4489896 -0.04025201 -0.08026137 0.15258919 0.029501645 0.01658961 0.2818186 0.083009705
0.0045621684 -0.10073846 -0.008041652 -0.060182106 -0.063215256 0.27073127 0.27295795 -0.15572762
0.30151019 -0.16806689 0.21620607 -0.01660062 -0.018485095 0.016745504 -0.1056962 0.13745907
0.04757916 0.29441285 -0.12131631 -0.0047104205 0.031023078 0.20237304 0.008121315 0.039196163
-0.11796442 -0.085574195 -0.040728252 -0.16499224 0.011504794 0.3874204 -0.08740516 -0.14859603
-0.07684881 0.14817974 -0.0083398335 0.29295874 -0.14217308 0.19971398 0.2749088 0.12796065
-0.08209071 -0.06142583 0.3325446 -0.040863987 0.054627825 0.45358512 0.16565847 0.105267376
0.18011798 0.00796373 0.20190084 0.039494146 0.304509 0.1390719 0.27432665 0.1944927
0.076682486 -0.13684994 0.042732485 0.20115905 0.02018055 0.097436875 0.043304473 -0.19464621
-0.014389039 -0.013216601 0.047387958 0.02807666 0.032033622 0.10191712 -0.082913086 -0.0769264
-0.023214348 -0.20241065 0.11048066 -0.06414387 -0.14860182 0.02867582 -0.037988197 0.14531367
-0.062080804 0.36810583 -0.034512967 -0.07023729 0.075528756 0.079091884 0.25665474 -0.1957188
0.14528286 -0.021308735 -0.10689895 -0.14276482 -0.11856074 -0.1418076 0.0021710072 -0.028121611
0.12739183 -0.16498414 0.2979153 0.25822014 -0.069569856 -0.09303861 0.3414253 -0.18200663
0.32303998 -0.15385738 -0.020746494 -0.052151542 -0.0646882 0.24708553 0.3103102 -0.11834985
-0.090139225 0.0027016583 0.4699735 0.13351698 0.24826919 -0.12177949 -0.080466166 0.18988167
0.17963219 0.09792611 0.36200896 -0.07143968 0.059406873 -0.09936957 -0.010115764 -0.15379089
-0.10504206 0.09938996 0.20821047 -0.09831208 0.008917195 0.004560232 -0.04767371 0.24765202
-0.21520816 -0.22500466 -0.15257801 0.112945154 0.09843005 -0.062071268 0.032685634 -0.10874629
-0.016111286 -0.060277168 0.35604692 -0.0032380635 -0.07001075 -0.08963742 0.33405197 -0.033157833
0.01830986 -0.069001764 -0.025297808 -0.041135456 0.031265903 -0.07615093 0.2055137 -0.206299
0.040111177 -0.22118527 -0.11119674 0.18960886 0.1872758 -0.111989796 -0.289065 0.25855237
0.014872747 -0.011535034 0.061481442 -0.19124411 0.09148056 0.19378501 0.042920083 -0.05577658
-0.04604763 -0.02332124 -0.013695969 -0.5382234 -0.05133959 -0.077078894 -0.11542733 0.16588521
0.021773167 -0.6584288 0.0076854005 -0.090891734 -0.07819572 -0.21073183 0.016503539 -0.104628846
0.03353956 -0.12299951 -0.13467723 0.283261 0.040549926 0.22095676 -0.02880903 0.062384527
0.054176148 0.025795566 -0.006245814 -0.022600384 -0.088231854 -0.07046598 0.049764585 0.042235862
-0.06410389 -0.2099095 0.22838776 -0.012489306 -0.028498512 0.06738097 -0.1457694 0.13278225
-0.01780385 0.013635644 -0.11461245 -0.05517288 -0.063852675 0.015259583 0.005515306 -0.3331082
-0.029505946 -0.12338307 -0.035756066 0.0055158758 0.21717173 -0.05891267 0.05941648 0.00203299
00000000: ebd1 0d3d 4054 41be 2f67 a1bd 7780 2b3e
00000010: 6b4f 1cbd f353 043e 293a 1fbd 26b3 f93c
00000020: 8f99 123d d611 f3bc 5de9 8a3d c422 34bd
00000030: 8c1c 893c 1a4b 00be df9a 6c3d 6304 813e
00000040: f7e1 e53e 4bdf 24bd 1360 a4bd 5740 1c3e
00000050: 6fad f13c efe6 873c 874a 903e fe00 aa3d
00000060: 3e7e 953b f74f cebd 22c1 03bc 8381 76bd
00000070: 0077 81bd 4a9d 8a3e 25c1 8b3e 1077 1fbe
00000080: 8b5f 9a3e ba19 2cbe 2065 5d3e 06fe 87bc
00000090: 0e6e 97bc de2d 893c 4077 d8bd 12c2 0c3e
000000a0: 5ee2 423d 48bd 963e af74 f8bd df59 9abb
000000b0: 1c24 fe3c e13a 4f3e 440f 053c 288c 203d
000000c0: 5497 f1bd 8641 afbd abd2 26bd baf3 28be
000000d0: 9a7e 3c3c f75b c63e 7a01 b3bd 8f29 18be
000000e0: e962 9dbd 6ebc 173e cca3 08bc b0fe 953e
000000f0: d295 11be d281 4c3e d9c0 8c3e 1e08 033e
00000100: 2d1f a8bd a799 7bbd 4943 aa3e ff60 27bd
00000110: 6dc1 5f3d 4f3c e83e 60a2 293e 6c96 d73d
00000120: d970 383e 4e7a 023c 18bf 4e3e 9dc4 213d
00000130: 9be8 9b3e dd68 0e3e 8b74 8c3e 1829 473e
00000140: b50b 9d3d 6422 0cbe 4208 2f3d a3fc 4d3e
00000150: ae51 a53c fc8c c73d 0860 313d 5651 47be
00000160: 01c0 6bbc 718a 58bc e019 423d 0601 e63c
00000170: b035 033d ecb9 d03d 56ce a9bd 978b 9dbd
00000180: 042c bebc bd44 4fbe af43 e23d dc5d 83bd
00000190: 132b 18be 8ee9 ea3c 8399 1bbd 1bcd 143e
000001a0: 7148 7ebd 5e78 bc3e 785d 0dbd 91d8 8fbd
000001b0: d2ae 9a3d edfa a13d 4068 833e 826a 48be
000001c0: 08c5 143e a88f aebc d6ed dabd f130 12be
000001d0: f9cf f2bd 0336 11be 7547 0e3b 4b5f e6bc
000001e0: 0173 023e 9af1 28be 5b88 983e 6e35 843e
000001f0: a47a 8ebd 078b bebd 4ccf ae3e f25f 3abe
00000200: 7f65 a53e ca8c 1dbe 8df4 a9bc db9c 55bd
00000210: 3f7b 84bd fd03 7d3e fbe0 9e3e 6861 f2bd
00000220: ea9a b8bd 4e0e 313b 5ea0 f03e adb8 083e
00000230: 473a 7e3e 8667 f9bd 72cb a4bd 5770 423e
00000240: 80f1 373e 7c8d c83d 3d59 b93e f84e 92bd
00000250: 9f54 733d 4682 cbbd 97bc 25bc 5c7b 1dbe
00000260: 4b20 d7bd f78c cb3d 2035 553e d857 c9bd
00000270: 6d19 123c 006e 953b 8245 43bd 7e98 7d3e
00000280: 875f 5cbe 9f67 66be 693d 1cbe ca4f e73d
00000290: b295 c93d 713e 7ebd 5fe1 053d 60b6 debd
000002a0: d1fb 83bc 31e5 76bd c84b b63e b135 54bb
000002b0: cc61 8fbd d393 b7bd dc08 ab3e 82d0 07bd
000002c0: 8ffe 953c cc50 8dbd 593d cfbc a77d 28bd
000002d0: ad10 003d 05f5 9bbd 2f72 523e 0c40 53be
000002e0: 9e4b 243d 647e 62be 1ebb e3bd d328 423e
000002f0: 3ac5 3f3e e85a e5bd 5400 94be fa60 843e
00000300: d2ac 733c 70fd 3cbc f7d3 7b3d 7fd5 43be
00000310: 295a bb3d 946f 463e f8cc 2f3d fc75 64bd
00000320: 719c 3cbd 2f0c bfbc 0f65 60bc 02c9 09bf
00000330: 7649 52bd 8adb 9dbd 2a65 ecbd d0dd 293e
00000340: a45d b23c ca8e 28bf d0d5 fb3b 7225 babd
00000350: 1425 a0bd 16ca 57be 6e32 873c a647 d6bd
00000360: c760 093d 2be7 fbbd d4e8 09be 9607 913e
00000370: ae17 263d 7d42 623e ea00 ecbc eb86 7f3d
00000380: cfe7 5d3d 3951 d33c afa9 ccbb 7124 b9bc
00000390: e7b2 b4bd 7850 90bd f3d5 4b3d 83ff 2c3d
000003a0: e648 83bd 84f2 56be 7bde 693e f29f 4cbc
000003b0: b675 e9bc 09ff 893d 9344 15be 12f8 073e
000003c0: 61d9 91bc 0968 5f3c efb9 eabd f5fc 61bd
000003d0: 31c5 82bd 5403 7a3c bdb9 b43b 288d aabe
000003e0: 74b6 f1bc 43b0 fcbd f474 12bd 85be b43b
000003f0: 4462 5e3e 694e 71bd b25e 733d ea3b 053b

layers.2.0.bias f4 [200]
0.026419567 -0.004972596 0.039371043 0.1015492 0.03176382 -0.011809351 0.044424765 0.06744887
0.06610684 0.033429872 0.060743187 0.038095314 0.03590421 -0.04983343 -0.00019531547 -0.10374747
-0.019521287 -0.019375036 -0.023989389 0.06755182 -0.08049904 -0.103898674 0.07037508 -0.07816689
-0.079526804 -0.013468939 0.008714505 -0.07323669 -0.029379467 -0.110675044 -0.0083347 0.004332139
0.022598252 0.029532898 0.05806667 -0.059728235 -0.051367056 -0.01778565 0.033441786 -0.047790796
-0.044440806 -0.02658713 0.0052212426 0.022591794 -0.05640583 7.516981e-05 0.035626158 0.04402736
-0.061296448 -0.05043927 -0.094462216 -0.017445978 -0.010998121 -0.046441894 -0.092018746 -0.02549587
-0.047745775 0.032869175 -0.079491064 -0.09295824 0.02583552 0.028052319 -0.10099094 0.01767742
-0.05073794 -0.061315306 -0.00036077603 0.019401826 0.03504821 -0.13613603 -0.005147582 0.06105399
0.08533011 -0.11047171 -0.16219953 -0.01332219 -0.009271061 0.062724344 -0.14944625 -0.023209395
-0.14037196 0.07283731 0.061361283 -0.015451413 0.055902787 -0.05610723 0.102575205 0.039588552
-0.018697347 -0.06006671 -0.044013273 -0.013004298 -0.036005575 -0.048903253 -0.08073937 -0.0890489
-0.029287104 -0.10268735 0.039504446 -0.10131455 0.00035619616 -0.020398237 0.05436025 -0.04490017
-0.04596134 -0.016455153 -0.05908256 -0.055073615 -0.11860513 -0.124747895 -0.026253628 0.014492196
-0.10752794 -0.08386501 -0.06211483 0.062322058 -0.058745887 -0.059606813 -0.07813381 0.01816879
-0.021634087 0.100414716 -0.128647 -0.00047004645 -0.028034586 -0.0101966355 0.015295441 -0.046256714
0.0060999114 -0.011883176 -0.029123789 -0.08403447 -0.09083275 -0.067365505 -0.052784763 0.02301309
-0.00014016544 -0.048858818 -0.0111555485 0.08656443 -0.012277136 -0.0135673955 -0.013149428 -0.05855042
-0.016776731 -0.02335111 0.05595829 -0.09677346 0.0048896484 0.027067345 -0.08865263 -0.10069619
0.0050166715 0.052108526 0.025839362 -0.06429092 0.04274402 0.0017825185 -0.058504943 -0.048203357
-0.0681592 -0.081491545 -0.010176192 -0.08491586 -0.12503424 0.04596068 -0.025363822 -0.033350345
0.10947473 0.027129494 -0.013803914 -0.04304362 -0.039193466 0.05283295 0.03215062 -0.029293096
-0.014042098 0.03693553 -0.08266735 -0.101623036 0.0224342 0.05527325 -0.013367056 -0.06198964
0.038219023 -0.035551544 0.007819941 0.017335137 0.002453961 -0.046763122 -0.1147667 -0.10511682
-0.07260665 0.020950982 -0.07995193 -0.024500486 -0.017766172 -0.022024294 0.0075422768 0.008419041
00000000: d96d d83c 29f1 a2bb 8843 213d 07f9 cf3d
00000010: c81a 023d 027c 41bc bef6 353d a222 8a3d
00000020: 0663 873d c3ed 083d d9cd 783d d509 1c3d
00000030: 4b10 133d 241e 4cbd 99cd 4cb9 8e79 d4bd
00000040: 1beb 9fbc 65b8 9ebc 6585 c4bc 9c58 8a3d
00000050: aedc a4bd d4c8 d4bd cf20 903d f615 a0bd
00000060: f3de a2bd d3ac 5cbc 48c7 0e3c 1efd 95bd
00000070: 35ad f0bc 99a9 e2bd 448e 08bc 9ef4 8d3b
00000080: f81f b93c faee f13c 51d7 6d3d 98a5 74bd
00000090: 4366 52bd 36b3 91bc 41fa 083d 48c0 43bd
000000a0: 9007 36bd 41cd d9bc f516 ab3b 6d12 b93c
000000b0: cd09 67bd 7ca4 9d38 bcec 113d 0856 343d
000000c0: fc11 7bbd 6899 4ebd 6875 c1bd deea 8ebc
000000d0: 7731 34bc db39 3ebd 5374 bcbd b7dc d0bc
000000e0: 1391 43bd d4a1 063d 36cc a2bd e460 bebd
000000f0: 03a5 d33c facd e53c 57d4 cebd 3dd0 903c
00000100: 96d2 4fbd c225 7bbd 8a26 bdb9 94f0 9e3c
00000110: b68e 0f3d 3e67 0bbe 0cad a8bb c013 7a3d
00000120: 8dc1 ae3d fe3e e2bd a217 26be 5145 5abc
00000130: a6e5 17bc 9f75 803d 7008 19be a121 bebc
00000140: abbd 0fbe ba2b 953d f855 7b3d ec27 7dbc
00000150: 52fa 643d b2d0 65bd f312 d23d 9b27 223d
00000160: 2e2b 99bc 8308 76bd 4347 34bd fb0f 55bc
00000170: 957a 13bd c74e 48bd af5a a5bd 455f b6bd
00000180: 82eb efbc bf4d d2bd 6acf 213d 017e cfbd
00000190: d7bf ba39 341a a7bc daa8 5e3d 3ee9 37bd
000001a0: f541 3cbd f5cc 86bc 8e00 72bd df94 61bd
000001b0: 3fe7 f2bd d37b ffbd d911 d7bc ad70 6d3c
000001c0: 9c37 dcbd 6bc1 abbd 1f6c 7ebd 6a45 7f3d
000001d0: 879f 70bd 4626 74bd 9e04 a0bd b7d6 943c
000001e0: f839 b1bc 3ba6 cd3d 0abc 03be 9170 f6b9
000001f0: caa8 e5bc ca0f 27bc bb99 7a3c ae77 3dbd
00000200: c4e1 c73b a7b1 42bc 0395 eebc 441a acbd
00000210: 8506 babd edf6 89bd d634 58bd f385 bc3c
00000220: 60f9 12b9 2f20 48bd c3c5 36bc b148 b13d
00000230: 0a26 49bc c849 5ebc b370 57bc 91d2 6fbd
00000240: 5b6f 89bc d44a bfbc 8534 653d 2a31 c6bd
00000250: 5839 a03b 56bc dd3c 838f b5bd ce39 cebd
00000260: e462 a43b c06f 553d 12ad d33c f5aa 83bd
00000270: 5a14 2f3d 65a3 e93a e1a2 6fbd e270 45bd
00000280: 0d97 8bbd 0ae5 a6bd 0bba 26bc 5ee8 adbd
00000290: fa08 00be 4441 3c3d cac7 cfbc 5f9a 08bd
000002a0: 4a34 e03d ac3e de3c d029 62bc 824e 30bd
000002b0: 5489 20bd 5d67 583d 5eb0 033d 13f8 efbc
000002c0: d410 66bc b649 173d 804d a9bd bd1f d0bd
000002d0: edc7 b73c 3466 623d 7f01 5bbc d9e8 7dbd
000002e0: 8d8b 1c3d 7f9e 11bd 361f 003c 6b02 8e3c
000002f0: a2d2 203b b08a 3fbd ce0a ebbd 7d47 d7bd
00000300: ccb2 94bd 65a1 ab3c d6bd a3bd 3eb5 c8bc
00000310: 5d8a 91bc 4b6c b4bc 3425 f73b 04f0 093c

layers.3.0.weight f4 [200, 200]
0.18567167 -0.5038186 -0.46583244 -0.09379915 0.22987321 0.0940515 0.0947207 0.15602781
0.20230402 0.14648993 -0.0384554 -0.04385109 -0.3658363 0.13989316 0.08102169 0.09593539
0.19069184 0.11180121 0.21408375 0.05372475 0.104836956 0.15038265 -0.10032124 0.1324392
0.07986388 0.096392766 -0.19569285 0.16029005 -0.51232845 0.15172073 0.053187918 -0.21441151
0.016099213 -0.14859802 -0.06994831 0.08744718 0.069161154 0.21330938 -0.095418625 -0.033410147
0.21842828 -0.034172963 0.258757 -0.1262649 0.14666583 0.023691017 -0.041260205 -0.02256811
0.35944214 0.1345181 0.15095732 -0.31971627 -0.004045289 0.1347295 0.19746298 0.014490066
0.17555428 -0.10344499 0.21155132 0.19804795 -0.021083115 0.06955813 0.1811531 0.21980658
0.21714133 0.06653128 0.20951882 0.20385808 -0.038096912 0.104854256 0.1986915 0.031790957
-0.086886264 0.1919168 0.047036797 -0.09906573 -0.074987344 -0.036255527 0.22071986 -0.23374197
-0.04237686 -0.063207604 -0.47408304 0.18291242 -0.1329823 0.13005193 -0.16634518 0.12408292
0.35992083 0.193852 0.1500719 -0.7009848 -0.3760952 0.087243795 0.70018303 0.0808486
0.11295369 0.032170117 -0.09316228 0.18593563 -0.05207921 0.15127468 -0.11733346 0.40691063
0.14055185 -0.079697974 -0.7589423 0.13619564 0.11841135 0.25907418 -0.12179756 0.14038576
0.23637693 0.1021762 0.17206228 -0.068479665 0.071769185 0.13144194 0.19554941 0.14744382
0.06977945 -0.09404431 0.107884035 0.18076283 0.1052271 0.23394263 -0.07900738 0.12494988
0.18317577 -0.09224188 0.22138973 0.16035332 0.09325366 0.08030048 0.2559398 0.13435125
-0.04602663 0.089647286 0.17496707 -0.04013985 -0.14068517 -0.2810603 0.14618611 0.15116279
0.12528247 0.23441273 -0.13499914 0.122369185 -0.077335835 -0.021129405 0.14791384 0.22373411
0.20389448 -0.19123612 -0.107635476 0.24583934 0.17108862 1.0615273 0.18070854 0.20868921
0.17602554 0.1742267 0.1612457 -1.03303 0.14372742 -0.20793599 0.13306604 0.050781086
-0.060290586 0.05360916 -0.116239555 0.05871703 0.17095044 -0.15214595 0.09537028 0.113345444
0.12720108 -0.14060985 0.2490921 0.20679878 -0.12373933 0.1081549 -0.043561317 0.16398661
-0.03480913 0.16174756 -0.044334076 -0.16802853 0.061662562 0.1110483 0.19393083 0.13111441
0.24325246 -0.18269932 0.09902617 -0.46707484 0.21876602 0.1230218 0.22303249 -0.014171634
-0.1354509 0.5083897 0.41344965 0.00975774 -0.35595015 -0.055212487 -0.094059154 -0.23751101
-0.15733138 -0.235861 0.14117798 -0.012307025 0.37539464 -0.0069518974 -0.06479782 -0.19077665
-0.03502762 0.0393223 -0.24536783 -0.12532698 -0.267938 -0.13661057 0.05363834 -0.11189084
-0.13742754 -0.097981006 0.22518364 -0.15843177 0.4168613 -0.081624605 -0.11758229 0.24152708
-0.016894786 0.20946003 0.047752436 -0.18076344 -0.09494938 -0.030328361 0.019647801 0.12096637
-0.057405517 0.023156472 -0.10255243 0.013195053 -0.25765845 -0.16243128 0.10381461 0.08427159
0.05930647 -0.21435983 -0.19290356 0.14425464 0.017993588 -0.1814455 -0.028209105 -0.1862043
00000000: b720 3e3e 41fa 00bf 9781 eebe c519 c0bd
00000010: e263 6b3e 139e c03d edfc c13d c1c5 1f3e
00000020: c928 4f3e 7501 163e 6983 1dbd 339d 33bd
00000030: e54e bbbe 2740 0f3e b3ee a53d c679 c43d
00000040: b944 433e 08f8 e43d c538 5b3e 7c0e 5c3d
00000050: c2b4 d63d e9fd 193e 3975 cdbd 249e 073e
00000060: ad8f a33d 9269 c53d b563 48be 1323 243e
00000070: f527 03bf ae5c 1b3e 93db 593d b18e 5bbe
00000080: 7fe2 833c 142a 18be 0f41 8fbd 8217 b33d
00000090: 5da4 8d3d c66d 5a3e d76a c3bd 14d9 08bd
000000a0: aaab 5f3e f3f8 0bbd cc7b 843e 964b 01be
000000b0: 912f 163e aa13 c23c 7600 29bd c2e0 b8bc
000000c0: cd08 b83e 1dbf 093e 8e94 1a3e dab1 a3be
000000d0: 588e 84bb 88f6 093e bc33 4a3e be67 6d3c
000000e0: 80c4 333e f8da d3bd e9a0 583e 15cd 4a3e
000000f0: 7fb6 acbc 7e74 8e3d 3380 393e fa14 613e
00000100: 4c5a 5e3e 8d41 883d 1a8c 563e 2cc0 503e
00000110: 820b 1cbd d4bd d63d c975 4b3e 3c37 023d
00000120: 6df1 b1bd d685 443e a8a9 403d f9e2 cabd
00000130: f792 99bd ad80 14bd 6304 623e 0e5a 6fbe
00000140: 5c93 2dbd fd72 81bd 03bb f2be 654d 3b3e
00000150: 832c 08be 552c 053e 6456 2abe 301f fe3d
00000160: 8b47 b83e 2481 463e 73ac 193e bd73 33bf
00000170: 8d8f c0be e0ac b23d 323f 333f f393 a53d
00000180: 4454 e73d d0c4 033d decb bebd e965 3e3e
00000190: 0251 55bd c0e7 1a3e 864c f0bd 9756 d03e
000001a0: d3ec 0f3e b138 a3bd 0b4a 42bf df76 0b3e
000001b0: a681 f23d 5fa5 843e 0071 f9bd 49c1 0f3e
000001c0: cb0c 723e c141 d13d 1831 303e 113f 8cbd
000001d0: b9fb 923d b798 063e 1b3e 483e 83fb 163e
000001e0: 87e8 8e3d 4e9a c0bd 4ef2 dc3d e419 393e
000001f0: 4e81 d73d a88e 6f3e 9fce a1bd b9e5 ff3d
00000200: 6e92 3b3e 50e9 bcbd fdb3 623e a933 243e
00000210: c6fb be3d 9474 a43d 8b0a 833e 6093 093e
00000220: 6b86 3cbd ff98 b73d 912a 333e af69 24bd
00000230: c60f 10be 23e7 8fbe d0b1 153e 6bca 1a3e
00000240: 0c4a 003e e409 703e 373d 0abe b29c fa3d
00000250: 4062 9ebd 9317 adbc ba76 173e 8e1a 653e
00000260: b7c9 503e 67d3 43be fd6f dcbd 4fbd 7b3e
00000270: db31 2f3e 20e0 873f a90b 393e a0b2 553e
00000280: 0a40 343e 7c68 323e 981d 253e 543a 84bf
00000290: 482d 133e 2ced 54be 7742 083e d4ff 4f3d
000002a0: 43f3 76bd 4795 5b3d 010f eebd 4581 703d
000002b0: a20d 2f3e 26cc 1bbe 7e51 c33d a821 e83d
000002c0: 0041 023e 07fc 0fbe 0012 7f3e 0fc3 533e
000002d0: 0c6b fdbd 5180 dd3d 5a6d 32bd 1bec 273e
000002e0: 0594 0ebd 27a1 253e a697 35bd ac0f 2cbe
000002f0: e291 7c3d 4b6d e33d ce95 463e db42 063e
00000300: 2c17 793e 8815 3bbe 3cce ca3d 6f24 efbe
00000310: 3304 603e daf2 fb3d a162 643e 2430 68bc
00000320: a4b3 0abe d425 023f acaf d33e eede 1f3c
00000330: 193f b6be 7d26 62bd 16a2 c0bd 1636 73be
00000340: 7a1b 21be 8c85 71be f690 103e 67a3 49bc
00000350: ba33 c03e becc e3bb b8b4 84bd f45a 43be
00000360: 1f79 0fbd 6c10 213d b441 7bbe b755 00be
00000370: 2b2f 89be a4e3 0bbe e0b3 5b3d 0627 e5bd
00000380: ceb9 0cbe 44aa c8bd 8a96 663e f03b 22be
00000390: d86e d53e cd2a a7bd fcce f0bd e052 773e
000003a0: ef66 8abc b17c 563e 0f98 433d 0d1a 39be
000003b0: d274 c2bd 2f73 f8bc 6df4 a03c 37bd f73d
000003c0: 0c22 6bbd a4b2 bd3c 0207 d2bd 1030 583c
000003d0: cfeb 83be 6354 26be c19c d43d 9596 ac3d
000003e0: 57eb 723d 2581 5bbe 8388 45be 7db7 133e
000003f0: 4a67 933c d9cc 39be c816 e7bc 57ac 3ebe

layers.3.0.bias f4 [200]
-0.02481293 0.01375632 -0.018975638 -0.071140744 -0.056179117 0.055800393 -0.083650865 -0.013536844
-0.076389045 0.15012613 -0.13927695 -0.10987233 0.0336545 -0.031914357 0.006999104 -0.01303091
0.029713841 0.13820255 0.01436302 0.025412587 0.02543426 0.017206023 0.030434925 0.13632014
0.080293216 0.09738601 -0.0063476646 -0.0256654 0.03452897 0.043780666 0.1484283 -0.01103476
-0.028778832 0.0011811424 -0.080317385 0.069144204 0.030392865 -0.00982811 0.08803869 0.060302347
-0.13619862 -0.001695284 0.08710929 0.07557265 0.11483703 0.024976365 0.084178746 -0.047693964
-0.02103584 -0.04158667 0.011378079 -0.061434843 0.03692296 0.060051385 0.064305596 -0.04739615
-0.017033886 0.08886764 -0.13181011 0.11908776 0.11616966 -0.017169273 0.044024788 -0.09528766
0.0990316 0.09457471 0.012547466 0.017494192 0.05681555 0.049038492 0.05200728 -0.109285966
-0.045935705 -0.122045234 -0.01825401 0.09520303 0.048959732 -0.02582284 0.028810717 -0.12765813
-0.04264934 0.10671633 0.08114197 0.10764621 -0.079959266 0.09856028 -0.0520262 -0.028815983
-0.14272034 0.028075205 -0.054705556 -0.0769749 0.0012795527 -0.038784165 -0.039247088 0.05553239
0.098659106 0.08605306 0.08480857 -0.04978965 -0.010861658 -0.071176805 -0.004052109 -0.0036149614
0.016214613 -0.095385216 -0.02016206 -0.07729497 -0.03581449 0.02940221 0.016308801 0.1117208
-0.16178001 0.08446945 0.07639664 -0.05562767 0.06127781 0.11456165 0.06964615 0.05276215
-0.11990015 -0.1633368 -0.05018616 -0.14220071 0.044488553 0.05268057 -0.061168894 -0.046647165
0.11884752 -0.024037467 -0.0035452214 0.098299466 -0.1022715 0.08245819 -0.08814622 -0.16374527
0.10407517 -0.11823458 0.044644255 -0.07251007 0.034341987 -0.014851719 -0.024694605 -0.11196227
-0.057836797 0.043833327 0.0394104 0.07920791 0.060878024 -0.0396862 0.055645373 -0.045976385
0.03286536 -0.09689852 -0.028583653 0.09030205 0.070697494 0.001233671 0.015432914 -0.010363402
-0.08498899 -0.15073897 -0.0088919 0.06966203 0.098185904 0.00092746847 0.12392371 0.0084694335
0.061799116 0.045037244 -0.03985684 -0.08093952 -0.088373035 -0.08117362 -0.020636149 0.12810016
-0.016981116 0.018262181 0.013367849 0.09853534 -0.09274156 -0.019063823 -0.021707075 -0.121177636
-0.026657004 -0.09056327 0.023787053 0.11000774 0.08040702 0.013593341 -0.058675297 -0.036060754
0.05088054 0.03725817 -0.027228516 0.014722246 0.06250601 0.087155454 -0.070683174 0.074358895
00000000: 7c44 cbbc 3062 613c cc72 9bbc 3db2 91bd
00000010: 131c 66bd f48e 643d 2551 abbd a4c9 5dbc
00000020: dc71 9cbd aaba 193e 9e9e 0ebe bf04 e1bd
00000030: 4dd9 093d a1b8 02bd bd58 e53b 997f 55bc
00000040: 716a f33c f884 0d3e df52 6b3c 0f2e d03c
00000050: 825b d03c a5f3 8c3c aa52 f93c 8297 0b3e
00000060: c570 a43d 5172 c73d 1200 d0bb 3f40 d2bc
00000070: 406e 0d3d 5b53 333d 97fd 173e 23cb 34bc
00000080: 96c1 ebbc 90d0 9a3a 717d a4bd 7a9b 8d3d
00000090: 75fa f83c 1506 21bc a14d b43d 98ff 763d
000000a0: a777 0bbe 4b34 deba 5b66 b23d d5c5 9a3d
000000b0: ad2f eb3d 3c9b cc3c e865 ac3d bf5a 43bd
000000c0: 5b53 acbc c956 2abd 1f6b 3a3c 1aa3 7bbd
000000d0: 883c 173d 71f8 753d a7b2 833d 7722 42bd
000000e0: a68a 8bbc 3d00 b63d 3bf9 06be 49e4 f33d
000000f0: 5cea ed3d 93a6 8cbc 5653 343d 2d26 c3bd
00000100: 14d1 ca3d 63b0 c13d e393 4d3c fb4f 8f3c
00000110: 6cb7 683d 96dc 483d 9605 553d 52d1 dfbd
00000120: 1427 3cbd daf2 f9bd 6f89 95bc cef9 c23d
00000130: 008a 483d 6c8a d3bc 7404 ec3c d0b8 02be
00000140: 13b1 2ebd 178e da3d c32d a63d 9e75 dc3d
00000150: afc1 a3bd f9d9 c93d 6d19 55bd 7f0f ecbc
00000160: 4825 12be f9fd e53c ef12 60bd 04a5 9dbd
00000170: aab6 a73a 25dc 1ebd 8ec1 20bd ee75 633d
00000180: c90d ca3d 963c b03d 1eb0 ad3d 3bf0 4bbd
00000190: 18f5 31bc 25c5 91bd 8ec7 84bb fde8 6cbb
000001a0: 82d4 843c 5359 c3bd e82a a5bc d34c 9ebd
000001b0: 37b2 12bd e7dc f03c 099a 853c e0cd e43d
000001c0: a9a9 25be 52fe ac3d d775 9c3d d7d9 63bd
000001d0: 71fe 7a3d 4c9f ea3d a4a2 8e3d 201d 583d
000001e0: 368e f5bd c341 27be 0190 4dbd 109d 11be
000001f0: a139 363d 95c7 573d 3c8c 7abd 1911 3fbd
00000200: 5466 f33d 39ea c4bc f256 68bb 3b51 c93d
00000210: b873 d1bd d7df a83d 0186 b4bd d7ac 27be
00000220: 5d25 d53d f924 f2bd e5dc 363d 2980 94bd
00000230: 2faa 0c3d a054 73bc 574c cabc 7a4c e5bd
00000240: 47e6 6cbd 938a 333d cd6c 213d c237 a23d
00000250: 3c5b 793d ff8d 22bd 67ec 633d bc51 3cbd
00000260: d49d 063d bb72 c6bd 4428 eabc 48f0 b83d
00000270: d9c9 903d 21b3 a13a 55da 7c3c 42cb 29bc
00000280: b50e aebd 515b 1abe 55af 11bc f7aa 8e3d
00000290: b115 c93d 5b21 733a b7cb fd3d 61c3 0a3c
000002a0: 1221 7d3d f978 383d ed40 23bd 9ec3 a5bd
000002b0: ecfc b4bd 5b3e a6bd 240d a9bc b02c 033e
000002c0: fb1b 8bbc 929a 953c d304 5b3c e5cc c93d
000002d0: 49ef bdbd bc2b 9cbc 09d3 b1bc fb2b f8bd
000002e0: ca5f dabc 3c79 b9bd 11dd c23c bd4b e13d
000002f0: 70ac a43d 9bb6 5e3c 8255 70bd 71b4 13bd
00000300: 1d68 503d 069c 183d 560e dfbc 9335 713c
00000310: 2703 803d 8f7e b23d 57c2 90bd 7a49 983d

layers.4.weight f4 [1, 200]
-0.49719316 0.60060936 0.43440226 -0.5745626 -0.54107547 0.35284922 -2.1614108 -0.5316879
-0.5427092 0.33243358 -0.59336084 -0.5811438 -0.47334725 0.551169 -0.44521868 -0.43366957
0.59996456 0.42086136 -0.49060676 0.44835573 0.38150814 0.42941386 0.4539314 0.3650357
0.41411313 0.456765 0.46116927 -0.52554154 0.81880045 0.44569767 0.36476964 -0.4301744
0.6736295 0.5862788 -1.4986535 0.43804526 1.9976084 0.9176325 0.46141538 0.3695019
-0.74777955 0.4598651 0.3676634 0.46613222 0.3410449 0.43426684 0.35347557 -0.5837016
0.7996571 -0.60515326 0.34566844 -2.0135844 1.0131459 0.4216562 1.3278116 -0.53648216
-0.51281184 1.5599612 -0.562459 0.4089287 0.38531193 -0.5680731 1.1598277 -1.0140139
0.36293906 1.9094712 0.34510607 -0.46654922 0.44805717 0.5155569 0.72997504 -0.54058105
-0.5115328 -1.8753285 -1.1714483 0.45290416 0.39770854 -0.42173544 0.38659924 -0.52468026
-0.70266926 0.59261054 0.7844796 0.36456466 -0.58775556 0.36516377 -2.4634378 0.4619844
-1.8345408 0.59756917 -0.4270873 -0.43341038 0.59195584 -0.58156717 0.59711695 0.44868845
0.4342184 0.41143414 0.6216359 -1.7401785 1.2207903 -0.5788095 0.45091397 -0.4478403
-0.5919925 -0.49682027 0.36914092 -1.0206937 -0.48186752 -0.5598772 0.34876832 0.36062434
-1.1121321 0.4350084 0.7442046 -0.46309614 0.43576977 0.435419 0.3989655 1.1363633
-0.60259676 -0.5829218 -1.1765954 -0.5388394 0.42216378 1.34691 -2.3737404 -0.5496905
0.36888957 0.47319284 0.6731029 0.43421626 -0.44783783 0.41341433 -0.45288748 -1.1278353
0.46163553 -0.57088643 0.44861516 -2.0003889 -0.51794696 0.6014534 0.6039813 -0.53591645
-0.53085864 0.46116593 0.3625985 1.3170738 0.43449557 0.51525605 0.45263654 -0.44097474
0.4516852 -0.5962674 -0.6661885 0.43265522 0.40478763 0.55254227 0.41482133 1.1553771
-0.4285805 -1.1333262 -0.4260457 1.4950895 0.36834142 0.6215755 0.37600788 1.4355273
0.37776694 0.43468308 -0.47645193 -0.5309517 -2.5767777 -0.46492574 0.43146855 0.44999707
-0.9498354 -0.43327293 -0.5819124 1.4694535 -1.2024629 0.46003568 -2.036138 -1.287018
-0.50700814 -0.73062783 0.34413585 0.4338351 1.0059752 1.8852178 -0.48095047 0.46211785
0.45826337 0.9846124 -0.5427229 0.6204754 1.0512525 0.42426395 -0.55664206 1.376595
00000000: 1a90 febe 89c1 193f f969 de3e 8916 13bf
00000010: ec83 0abf a7a8 b43e 8e54 0ac0 b31c 08bf
00000020: fdee 0abf bc34 aa3e 7fe6 17bf d7c5 14bf
00000030: 925a f2be 6919 0d3f b4f3 e3be f009 debe
00000040: 4797 193f 247b d73e cf30 fbbe e28e e53e
00000050: 0955 c33e 22dc db3e b269 e83e f6e5 ba3e
00000060: a306 d43e 1add e93e 611e ec3e e489 06bf
00000070: e89c 513f 7c32 e43e 16c3 ba3e d23f dcbe
00000080: fc72 2c3f 5e16 163f e1d3 bfbf 7847 e03e
00000090: a2b1 ff3f f7e9 6a3f a33e ec3e 5a2f bd3e
000000a0: 7b6e 3fbf 7073 eb3e 613e bc3e e2a8 ee3e
000000b0: 709d ae3e 3958 de3e c0fa b43e 786d 15bf
000000c0: 54b6 4c3f 53eb 1abf 74fb b03e 91de 00c0
000000d0: c4ae 813f 52e3 d73e bbf5 a93f e556 09bf
000000e0: a347 03bf cfac c73f 50fd 0fbf 1a5f d13e
000000f0: 9b47 c53e 3d6d 11bf 3c75 943f 35cb 81bf
00000100: 26d3 b93e 8d69 f43f beb1 b03e 8adf eebe
00000110: c067 e53e 89fb 033f a5df 3a3f 8563 0abf
00000120: d0f3 02bf c40a f0bf 05f2 95bf 0ee3 e73e
00000130: 74a0 cb3e b5ed d7be 56f0 c53e 7251 06bf
00000140: 22e2 33bf 53b5 173f a8d3 483f 38a8 ba3e
00000150: 2677 16bf bff6 ba3e f7a8 1dc0 3889 ec3e
00000160: 3cd2 eabf 4bfa 183f 30ab dabe f7e7 ddbe
00000170: 6b8a 173f 96e1 14bf a8dc 183f 7eba e53e
00000180: e051 de3e 7fa7 d23e 8823 1f3f 2bbe debf
00000190: db42 9c3f dc2c 14bf 32de e63e 534b e5be
000001a0: d28c 17bf 3a5f febe 0a00 bd3e 17a6 82bf
000001b0: 57b7 f6be 1d54 0fbf c391 b23e c1a3 b83e
000001c0: 585a 8ebf 6cb9 de3e 3184 3e3f f01a edbe
000001d0: 371d df3e 3def de3e 3545 cc3e 5a74 913f
000001e0: c843 1abf 5d3a 15bf ae9a 96bf 61f1 09bf
000001f0: da25 d83e 8c67 ac3f 5deb 17c0 84b8 0cbf
00000200: 18df bc3e 5546 f23e 7950 2c3f 9851 de3e
00000210: 004b e5be 0bab d33e dee0 e7be e85c 90bf
00000220: 7e5b ec3e 9d25 12bf e3b0 e53e 5f06 00c0
00000230: 2c98 04bf daf8 193f 859e 1a3f d231 09bf
00000240: 5ae6 07bf f11d ec3e 83a6 b93e e095 a83f
00000250: 3476 de3e d2e7 033f fabf e73e 71c7 e1be
00000260: 4843 e73e fba4 18bf 548b 2abf fc84 dd3e
00000270: 5340 cf3e 6973 0d3f 7663 d43e 66e3 933f
00000280: e76e dbbe d510 91bf a922 dabe 185f bf3f
00000290: 3f97 bc3e 921f 1f3f 1b84 c03e 5cbf b73f
000002a0: ab6a c13e c88e de3e 82f1 f3be 73ec 07bf
000002b0: ede9 24c0 bf0a eebe 72e9 dc3e 0466 e63e
000002c0: 6a28 73bf f3d5 ddbe 36f8 14bf 0d17 bc3f
000002d0: 4eea 99bf cc89 eb3e 1650 02c0 01bd a4bf
000002e0: 49cb 01bf 6d0a 3bbf 9332 b03e a21f de3e
000002f0: ccc3 803f d14e f13f 243f f6be b69a ec3e
00000300: 7fa1 ea3e 8f0f 7c3f e3ef 0abf 7ad7 1e3f
00000310: 718f 863f 2039 d93e 1880 0ebf 4434 b03f
